models/ppo_agent.pt (torch, 221178 bytes, 18 tensors)

feature_extractor.0.weight f4 [128, 5]
000000 68 4d cd 3e c2 38 1a bd 7c 4e 33 3e ff 29 1b be
       0.4009812 -0.037651785 0.17510408 -0.15152739
000010 6a 33 14 bf 0b 5e 24 3f 37 4e 49 be 12 c6 18 3d
       -0.5789095 0.64206 -0.19658743 0.03729827
000020 b0 f5 27 be f2 cb e3 be 16 b7 51 be 24 ce d3 3d
       -0.16402316 -0.44491535 -0.20479998 0.103420526
000030 3f e5 f0 bd 9d b8 fb bc c5 ab d8 3d 98 80 c0 bd
       -0.11762475 -0.030727679 0.105796374 -0.09399527
000040 72 d7 a6 3e f4 16 3c be 84 12 dd bd 9e 9e 8e 3e
       0.32586247 -0.18368131 -0.10794547 0.2785539
000050 a4 76 aa 3e 4c 66 d9 3e 6d d6 26 be e1 56 ef 3e
       0.3329364 0.4246086 -0.16292734 0.4674597
000060 59 61 49 3e e8 ef af 3e 18 b9 f4 bd d2 94 15 be
       0.19666041 0.3436272 -0.11949366 -0.14607552
000070 d8 e9 1b be f8 98 13 3e af 5d 47 3e 95 23 e0 bc
       -0.15225923 0.14413822 0.19469331 -0.027360717
000080 8a 98 20 bd 6c 92 6a 3e 00 fa 7f 3e 43 c2 1d 3f
       -0.039207973 0.22907418 0.24997711 0.61624545
000090 95 ed 9e be 4b 05 ec 3e cd e4 ac be 3e 7c e1 bd
       -0.31040636 0.46097788 -0.3376831 -0.110100254
0000a0 71 9c bd 3e 1e 91 ce 3e 87 76 08 bf 30 32 29 bc
       0.37033418 0.4034509 -0.5330586 -0.010326907
0000b0 92 8e 90 3e 1f fb 6f be 9a 7a 86 bd 0e eb 4e 3e
       0.28233773 -0.23435639 -0.06566353 0.20206854
0000c0 8f 10 2b 3e 57 d2 c6 be 99 14 f5 3e 4d 24 6d be
       0.16705535 -0.38832352 0.47867277 -0.23158379
0000d0 bb 48 3d bc 6d 38 72 3e 1c f7 07 be 3b 0f e5 3e
       -0.011552985 0.23654337 -0.13277858 0.44738182
0000e0 a7 cd 53 be 25 45 52 3e 06 98 ed 3e ab 5f a7 be
       -0.20683919 0.20534189 0.46405047 -0.32690176
0000f0 90 67 7f be 74 27 e1 bd a0 dd db bc 60 70 eb bd
       -0.2494185 -0.10993853 -0.026839077 -0.11496043
000100 c4 49 4e 3e 18 a8 4f 3e 4f c4 c0 3e 40 0c c1 bd
       0.20145327 0.20278966 0.37649772 -0.094261646
000110 61 69 59 3e cd 71 33 3e 11 ee a4 bd 11 35 d9 3e
       0.21231605 0.1752388 -0.0805322 0.424233
000120 b2 a6 b9 be ac 1f 0c bd b7 c8 dc be c7 f0 a9 be
       -0.3625999 -0.034209892 -0.43121883 -0.3319151
000130 7a 15 ab be cc 57 f8 bd 60 46 29 bc b0 fa b8 bd
       -0.33414823 -0.12126121 -0.01033172 -0.0903219
000140 24 79 32 3f 4a 41 22 be ca 40 5a bd da ab 07 3e
       0.69716096 -0.15845218 -0.053284444 0.1324915
000150 ff 81 c1 3d 04 4d b3 3e 76 be bb bd ba f7 b1 3d
       0.09448623 0.35019696 -0.09167187 0.08689828
000160 14 74 56 3d 9c 3c 2d 3e 7e 59 80 be e4 fe f4 be
       0.052356794 0.16917652 -0.25068277 -0.47850716
000170 6c 67 b6 bd 71 e6 5c 3e c8 8d 21 bf 9a 4e d9 3d
       -0.08906445 0.21572281 -0.63106966 0.10610695
000180 8f e7 4f 3e eb aa 99 3e a0 95 82 be 40 da 80 be
       0.20303176 0.30013213 -0.2550478 -0.25166512
000190 f3 12 e1 bd e5 2e 9f 3d 99 c1 e0 3d 36 c4 c7 3e
       -0.109899424 0.07772616 0.10974426 0.39016885
0001a0 05 9e 89 be 70 77 bf 3d 7a 24 de 3e 7b 2b a2 be
       -0.26878372 0.09348953 0.43387204 -0.31673798
0001b0 f4 7e 98 be 20 eb 07 bd a8 aa 57 3d fe 86 b8 3e
       -0.29784358 -0.033183217 0.052652985 0.3604049
0001c0 2e 95 1e be e8 bb ed bd 58 93 94 bd 26 28 8d 3e
       -0.15486595 -0.11608106 -0.07254666 0.27569693
0001d0 78 ce 0b bf 99 73 2b 3e f6 1d d8 bd 93 a5 81 3e
       -0.5461192 0.16743316 -0.105525896 0.25321636
0001e0 a4 dd df 3d c0 52 38 be 73 e6 ab 3e 26 d2 87 3e
       0.109309465 -0.18000317 0.33574256 0.26527518
0001f0 f8 3f 0a bd b6 8a cd 3e c0 b8 81 bc 53 cb 63 be
       -0.03375241 0.4014489 -0.015835166 -0.22245531
000200 37 ee e4 be fc a6 b4 3e 78 9a bb bd 77 94 90 3e
       -0.44712994 0.3528365 -0.09160322 0.2823827
000210 41 fc cb 3e 88 0b 15 bc ee fc 7d 3e aa ac d5 3d
       0.39840892 -0.009096988 0.24803516 0.10433324
000220 07 12 cc bc d9 83 8a 3e 8c 17 68 be 8a 79 32 3e
       -0.02491094 0.27053717 -0.22665232 0.17429176
000230 50 c1 e7 3d 80 d1 e1 bc 84 87 a6 be 0b 71 80 be
       0.11316168 -0.027565718 -0.32525265 -0.25086245
000240 1a c2 e0 be 48 d7 63 3e a9 38 d4 3e d6 14 80 be
       -0.43898088 0.22250092 0.41449478 -0.25015897
000250 ef 34 0e be 34 e9 e7 be d0 7e 1f 3d 26 93 d6 be
       -0.1388738 -0.45295107 0.038939297 -0.4190914
000260 cc 8e b5 bd c0 3f ee bc 5c b7 37 3e 80 12 58 3f
       -0.08865127 -0.029083133 0.1794104 0.8440323
000270 aa a9 b1 3e 6a b4 83 bd e6 ee 6e bd 6c 3b a6 be
       0.34699756 -0.064308956 -0.0583333 -0.3246721
000280 98 73 90 be c5 97 97 be 60 92 28 3c 26 e8 6f be
       -0.2821319 -0.29607978 0.010288805 -0.23428401
000290 c0 d8 12 bc 20 0c 63 bc 77 1e ce be 50 6e 59 bd
       -0.00896281 -0.013857871 -0.40257618 -0.053083718
0002a0 8c 2a 80 bd 78 6e 62 bd 9c 4d 2b 3e bc 30 9c bd
       -0.06258115 -0.055281132 0.16728824 -0.07626483
0002b0 4d 8b 7d be 05 64 7a 3e 70 be ad be 6c 10 04 be
       -0.2476017 0.24452217 -0.33934355 -0.1289689
0002c0 9e d2 b4 3e 18 e2 ff 3d 68 44 af be b0 8a f6 bd
       0.35316938 0.12494296 -0.34231877 -0.12038171
0002d0 1b 36 a4 be 00 dd ff bc 14 55 1d be d0 1b ad 3d
       -0.3207253 -0.03123331 -0.15364486 0.084525704
0002e0 e4 81 2b 3e 58 75 12 3e 3c a4 a3 3e bf 7d 91 3e
       0.16748768 0.14302576 0.31961238 0.2841625
0002f0 72 fb be be d9 61 f8 3a fe f5 a0 be 6b 99 93 be
       -0.37301213 0.0018950059 -0.31437677 -0.28827986
000300 18 7e c8 3d 6a b2 a0 be 0c a7 6a 3e 04 d7 39 3f
       0.097896755 -0.3138612 0.22915286 0.7259371
000310 62 89 01 3e d1 10 ea bd 07 43 be 3c 0b e6 5b be
       0.12650064 -0.11428989 0.02322532 -0.21474473
000320 24 df 21 be b6 4e 6f be 86 b7 4c 3e dc 58 cd bd
       -0.15807778 -0.2336987 0.19991884 -0.10026714
000330 7f 73 74 be ca 0b 74 3d f2 ac 98 be 3b 32 4b 3e
       -0.23872183 0.059581555 -0.29819447 0.1984338
000340 c7 27 b9 bd 56 c9 0a bf 36 4f ab be 9a d2 8f be
       -0.0904079 -0.54213464 -0.3345887 -0.28090364
000350 78 c6 81 be 04 02 03 be 88 06 01 bd 80 fa a8 bb
       -0.25346732 -0.12793738 -0.03150037 -0.005156815
000360 ac 2d 82 be d5 67 cb be 4a c4 8d be 68 51 9a 3d
       -0.2542547 -0.39727655 -0.2768882 0.07535058
000370 04 8d 8b be 90 d6 ac 3e d8 64 3a bd 80 5e 9f be
       -0.27256024 0.33757448 -0.04550633 -0.31126785
000380 fc 62 9d 3e b0 c9 ea 3d 40 b0 87 3d 38 5e 20 bd
       0.30739582 0.1146425 0.06625414 -0.039152354
000390 06 05 22 be f0 c5 26 3e a8 20 22 3e c0 9f db bb
       -0.15822229 0.16286445 0.1583277 -0.0067023933
0003a0 90 b6 e3 3d de 19 d5 be 98 29 b6 3e 42 4e e7 3d
       0.111188054 -0.41621298 0.3557861 0.11294223
0003b0 8b 47 9c 3d 91 30 77 3e 88 83 77 be e7 fe 5a 3e
       0.07630833 0.2413962 -0.24171269 0.213863
0003c0 36 9a 66 be 39 51 3f 3d 8e 07 dd bc 82 9e c6 3e
       -0.22519764 0.04670832 -0.026981141 0.38792807
0003d0 76 85 ea 3e 2e d5 31 3f c1 ea 51 3e 74 f3 d7 be
       0.45804948 0.6946591 0.20499708 -0.42177927
0003e0 09 84 44 bd b0 15 e9 bc 98 83 1a bd 39 4b e3 3e
       -0.04797748 -0.028452724 -0.037723154 0.44393328
0003f0 28 ad 86 bd a9 9a 30 be 0f 07 8f 3e 6a f7 81 3d
       -0.06575996 -0.17246498 0.27935073 0.063460186

feature_extractor.0.bias f4 [128]
000000 e7 54 9d 3e eb 3d 48 3f 53 40 dc 3e 57 d0 63 be
       0.30728838 0.7821948 0.43017825 -0.22247444
000010 0f db 67 be 66 b6 24 be b2 ba 30 3d 16 db 0f 3f
       -0.22642158 -0.16085204 0.043146797 0.56193674
000020 3f 5a bc 3d 13 32 e4 bd 4b 31 d3 3e b2 22 c7 be
       0.091969006 -0.111423634 0.41248545 -0.38893658
000030 3e 80 77 be 29 8e ce be c3 05 81 3e 9c 6e 0e be
       -0.24170014 -0.40342835 0.25199708 -0.13909382
000040 93 61 dd 3e 5c b4 da 3e e5 09 34 3f 45 0e 2f 3f
       0.43238506 0.42715728 0.703276 0.6838115
000050 7c 65 b7 be b0 70 ca bc 2c 02 bb be 46 ce ce bb
       -0.35819614 -0.024711937 -0.36525095 -0.006311211
000060 a8 5f db 3e 66 e2 25 be b4 4b f9 be e0 10 eb 3d
       0.42846417 -0.16199645 -0.4869057 0.11477828
000070 15 8a d8 be 3a 17 24 3f 00 e1 c4 bd c1 81 72 be
       -0.42292848 0.6409794 -0.09613228 -0.2368231
000080 6e d1 23 be d3 13 91 be 0a 30 06 3f c8 04 03 3d
       -0.1599786 -0.28335437 0.5241705 0.03198698
000090 a6 fa 8c be b2 21 38 3f a4 8b 82 be 4b dc 6e bd
       -0.2753498 0.71926415 -0.25497162 -0.058315556
0000a0 b7 47 09 3f 49 71 b3 be a0 bc ab 3e 10 2f e5 3d
       0.53625053 -0.35047367 0.33542347 0.11190617
0000b0 00 b2 1e 3d da 7f 89 be c0 c0 7d be 48 ee ff 3d
       0.038743973 -0.26855356 -0.2478056 0.124966204
0000c0 63 f5 bd be be 6c 0f 3e ea a2 00 be 50 e8 be 3e
       -0.37101278 0.14006326 -0.12562147 0.37286615
0000d0 e6 38 1e be 54 fe 88 be f9 ba 47 be 5b 8b 14 3f
       -0.15451393 -0.26756537 -0.19504918 0.5802514
0000e0 c9 ef 03 3f 8c fa a7 bd c7 7b db be f1 2f 19 3f
       0.5153776 -0.08202085 -0.42867872 0.5983878
0000f0 07 82 81 bd bb a3 84 be 54 27 e7 bd c3 c1 36 3e
       -0.06323629 -0.25906166 -0.11286798 0.17847352
000100 04 3d b0 3e e6 3e 73 3e b9 b1 05 3f 40 1e 78 bc
       0.3442155 0.23754463 0.5222431 -0.015143931
000110 f7 3d 15 3f 99 40 01 bd 88 ea 9e be ca 21 8a bc
       0.58297676 -0.031555746 -0.31038308 -0.016861815
000120 d7 7d be 3e f9 e4 52 be 9b 3a bb 3e 44 85 0d be
       0.37205383 -0.20595159 0.3656815 -0.13820368
000130 b0 df c6 be 6c 61 10 be e1 b6 47 3f 23 42 5c 3e
       -0.38842535 -0.14099663 0.78013426 0.21509604
000140 0f 25 da be 9c a5 3b 3f 57 ee e9 3e 08 05 d9 3d
       -0.42606398 0.73299575 0.4568965 0.10596663
000150 3a 39 b0 3e 15 08 03 3f f0 7b ce 3d c0 aa d4 3d
       0.3441866 0.5118421 0.10082233 0.103841305
000160 7a f3 c3 3e 2b 91 61 be 28 c3 fc 3d 72 05 89 3e
       0.38271695 -0.22028033 0.123419106 0.26761967
000170 99 2b e8 3c dd fe 2b 3f 45 e2 94 3e f3 f4 25 3f
       0.028341101 0.67185766 0.2907888 0.6482689
000180 c6 a8 a9 3e 5e 67 30 3f 00 ad ae be e9 0c 9f be
       0.33136576 0.68907726 -0.34116364 -0.31064537
000190 f1 2f 17 3e 91 3d 0c be b3 f0 e9 3d 27 5f d3 be
       0.14764382 -0.1369536 0.11422863 -0.41283533
0001a0 5f a4 21 3f 2f 6c 3a 3f 2a f8 72 be e1 a0 0a be
       0.63141435 0.72821325 -0.2372748 -0.13537933
0001b0 86 50 8a be 2c 44 2e 3e 60 49 33 be 45 e0 2e 3f
       -0.2701456 0.17018193 -0.17508459 0.6831096
0001c0 58 ce c0 bd 4b 7d b2 be 6f 4c 3c 3f b0 de 8a bc
       -0.09414357 -0.34861216 0.7355413 -0.016951889
0001d0 e7 94 b6 bd ef 4b 46 3e 09 38 ab be 51 cb a4 3d
       -0.089151196 0.19364904 -0.3344119 0.08046592
0001e0 ec b6 27 3f 66 96 c3 be ab 34 a2 bd bb c1 47 3f
       0.6551349 -0.38200682 -0.07920202 0.78029984
0001f0 a0 08 a0 be ea e0 ed 3e 9e 4a bb 3b a2 f2 0a 3f
       -0.3125658 0.46460658 0.005715682 0.5427648

feature_extractor.2.weight f4 [128, 128]
000000 e4 38 40 3d 48 cb 54 3d aa 19 2e b9 20 e7 be bc
       0.046929255 0.051951677 -0.00016603494 -0.023303568
000010 9c ac fc 3c e2 15 f3 bc d7 4b 96 bd 8a 69 d0 bd
       0.030844025 -0.02967352 -0.07338684 -0.1017638
000020 dd 11 ac bd 28 46 62 bb 3c 3c ce bd de b0 a5 bd
       -0.08401845 -0.003452668 -0.100700825 -0.08090375
000030 9d b5 a9 bd 35 65 5a 3c 50 c0 90 bd 80 de 15 bc
       -0.08286593 0.013329794 -0.07067931 -0.009147286
000040 84 96 a3 bd 64 26 ca bd 51 76 89 bc 7b 71 38 bd
       -0.07987693 -0.09870604 -0.01678005 -0.0450301
000050 f1 f7 60 3b a0 2c 74 3c 0c c5 9a 3c 4d 74 7d bd
       0.0034327472 0.014903218 0.018892787 -0.06187849
000060 af b4 f2 3a e9 bf 82 3d 82 27 a7 bd 7b 8f 19 3d
       0.0018516983 0.0638426 -0.081618324 0.03749035
000070 04 63 57 bd ca 33 31 3a c0 71 c9 ba d6 c9 3e bd
       -0.052584663 0.00067597313 -0.0015368983 -0.046579204
000080 c0 98 60 bd c4 d3 e2 bc 7f 0e 9b 3c e0 b1 b2 bc
       -0.054833174 -0.027688868 0.01892781 -0.021813333
000090 28 30 46 3c 87 c2 30 bd 4b f6 82 3d 8e 1a 89 bd
       0.012096442 -0.043154266 0.06394633 -0.06694518
0000a0 e8 ce 88 3c f6 0c 0c bd 80 51 e8 3b e8 39 a9 3c
       0.016700223 -0.034192048 0.0070897937 0.020657495
0000b0 d8 a7 0d bc 70 3d e1 bc 3e d7 21 bd 38 ac f3 3c
       -0.008645974 -0.027495116 -0.03951191 0.029745206
0000c0 1b c9 73 bd a9 3d 96 3d b7 a2 e3 bc 52 12 84 bd
       -0.05951796 0.073359795 -0.02778755 -0.06448807
0000d0 50 8c 6b 3d 09 05 09 bd 67 4a be bd f0 af aa bd
       0.05750686 -0.033452068 -0.09291535 -0.08334339
0000e0 82 9a c6 3b 4c 56 4d bd 56 6c 80 3d 40 cf df 3c
       0.0060608992 -0.050131127 0.062706634 0.027320504
0000f0 cd c4 18 3d bd fd 2e 3d 72 c7 25 3d 78 8a e3 3c
       0.03729706 0.042722452 0.04047341 0.027775988
000100 e2 83 67 3d cc 0c 15 3d 91 2b 53 3d 41 d8 a0 bd
       0.056522258 0.036389157 0.05155522 -0.07853747
000110 25 19 6c 3d 18 64 61 bd f0 5c 3a bc 40 0b 65 bb
       0.057641167 -0.055027097 -0.011374697 -0.0034949332
000120 c9 1d 6f 3d 06 d1 6e bd 4b af 04 bd ce 9d 2f 3d
       0.058378015 -0.05830481 -0.032393735 0.042875104
000130 13 cd 8d 3d c4 23 ba bc fb 48 61 3d 25 b0 c2 bc
       0.069238804 -0.022722133 0.05500124 -0.023765633
000140 db 8c 0c bc 22 e2 5f 3d 22 50 05 bd b8 75 ad bd
       -0.008578504 0.054659016 -0.032547124 -0.08469719
000150 ba ac 74 3d 86 e5 c2 bc 20 aa 5b 3b 74 df 3c bd
       0.059735037 -0.023791086 0.003351815 -0.04611154
000160 64 e9 67 3d 80 47 c1 ba c9 c1 85 bd ce ed 5c bd
       0.056619063 -0.001474604 -0.06531102 -0.053937726
000170 e2 ce ca bd 89 b5 8f 3c cb f9 0f bd 6f ce 8b 3d
       -0.09902741 0.017542617 -0.03515033 0.068264835
000180 29 13 8a 3d fd c4 15 3d 7f 27 e8 3c 56 cd 94 bb
       0.06741936 0.036564816 0.028339146 -0.0045410795
000190 6d 66 ae bd bb 18 93 bd 56 e2 fa bc ac a5 88 3d
       -0.0851563 -0.07182451 -0.030625504 0.066722244
0001a0 b7 46 81 bc 80 de c1 bc 6d bd 47 bd ef 39 87 bd
       -0.01578079 -0.023665667 -0.048764635 -0.06602847
0001b0 8e 7c a3 bd 83 81 7a bd 30 98 ea 3b 49 cb 13 3d
       -0.07982741 -0.06115867 0.0071592554 0.03608254
0001c0 ee a0 d7 bc b3 3b 24 3d 14 c7 f4 3c af ee ae 3d
       -0.026321854 0.040095996 0.029880084 0.08541619
0001d0 04 4d 8c 3d e4 08 38 3c ad 0f 83 bc cc 73 4a 3d
       0.06850627 0.011232588 -0.015998686 0.04942684
0001e0 17 af 0f 3d f4 4c 51 bd de 96 79 3d 3a 08 dd bc
       0.035079088 -0.05109878 0.060934894 -0.026981462
0001f0 32 9b 24 bd 31 69 ae bc d1 67 88 3c 4b 41 f9 bc
       -0.04018707 -0.021290394 0.016651066 -0.030426642
000200 51 e6 9b 3d c5 aa 19 bd 48 aa eb 3c b7 0d 9d bd
       0.07612289 -0.037516374 0.02876772 -0.076686315
000210 7f 6a 39 bd a6 46 6e 3d fa 09 4f 3d 52 dd 14 bd
       -0.04526758 0.058172844 0.050546624 -0.03634388
000220 c0 1c bd 3b f4 14 b3 bc 6a 02 7e bd f8 89 59 3c
       0.0057712495 -0.021860577 -0.06201402 0.013277523
000230 d4 69 3a bd 78 26 7b 3c bb 73 98 bd fe 14 57 3d
       -0.04551108 0.015328996 -0.07443949 0.052510254
000240 81 09 08 bd 3f 9e 97 3d 00 7e 96 bc 38 a7 fa 3c
       -0.03321219 0.0740323 -0.018370628 0.030597314
000250 78 73 10 3c b4 c7 a9 bc e4 74 87 bd 02 de 54 3d
       0.008816592 -0.020725109 -0.06614092 0.051969536
000260 b3 1a b4 3d 98 89 82 bc 82 16 40 3d 94 b4 b2 bc
       0.08794155 -0.01593475 0.046896465 -0.021814622
000270 1c 16 83 3c 58 eb c3 3c c0 53 6c 3b b0 ec 18 bc
       0.016001754 0.023915932 0.003606066 -0.009333774
000280 00 6c d3 3a f8 1a 11 bc 08 66 6c bd 5b 68 9c 3d
       0.0016130209 -0.0088565275 -0.057714492 0.07637092
000290 03 24 47 bd 4b 92 72 bd c9 91 39 bd 8a 08 ad bd
       -0.048618328 -0.059221547 -0.045305047 -0.08448894
0002a0 6e d2 5c 3d cb 3c 92 3d f2 e8 3a 3d 86 bd 44 3d
       0.05391162 0.071405016 0.04563231 0.048032306
0002b0 15 34 ae 3d 58 a7 c4 bc 6a 55 ee bc 7a 44 4d 3d
       0.085060276 -0.024005577 -0.029093463 0.050114132
0002c0 ce d4 e6 bc d1 bf 9c bd fc 54 8d bd ca be 1b bd
       -0.028177645 -0.076537736 -0.06900975 -0.038023748
0002d0 ac 91 0c 3d 80 2e 8e 3c a8 02 4f 3c 4f 16 63 bd
       0.03431861 0.017356157 0.012634911 -0.055441197
0002e0 00 65 92 b9 92 3b 05 bd 02 49 53 3d fc 79 dc 3c
       -0.0002792254 -0.032527514 0.051583298 0.026913635
0002f0 96 8e f1 bc 22 7d 2d bd 7b db 22 bd 6c af ae 3c
       -0.029486936 -0.042355664 -0.039760094 0.021323882
000300 d9 52 97 3d 0d f5 b4 bd 00 8c fb 38 3d ce 93 bd
       0.07388849 -0.08835802 0.0001199469 -0.07217071
000310 1e be 5e bd a4 54 99 3c 00 2c 68 39 52 e0 1b bd
       -0.05438053 0.018717118 0.00022141635 -0.038055725
000320 57 f8 97 bd 30 d1 94 bc ee f1 1e 3d 97 62 90 3d
       -0.07420414 -0.018166155 0.03880494 0.070500545
000330 94 f0 90 bd 4a 2a 22 3d 1f d8 a4 3d 70 66 aa 3c
       -0.07077137 0.03959111 0.08049034 0.0208008
000340 bf 8b ac bd f8 b0 96 bd 5c 00 a0 bd 15 c1 a4 3d
       -0.08425092 -0.07357973 -0.078125685 0.0804464
000350 08 e8 d5 bc 56 b4 6f bd 3e 45 ff bc 58 77 91 bd
       -0.026111618 -0.05852159 -0.031160947 -0.07102841
000360 d0 d9 ec 3b 60 9b 00 3d f8 b8 1b bc 9c 9e 1a bd
       0.0072281137 0.031398177 -0.009504549 -0.037748918
000370 a6 52 26 3d e2 46 57 3d 0f fc 27 bd 30 3e a9 3b
       0.040606163 0.052557833 -0.041011866 0.005164884
000380 be 4e 9a bd 2e 8d 66 3d c2 9c 00 bd d4 e2 ef 3c
       -0.0753455 0.056286983 -0.031399496 0.029282965
000390 4d 44 8f 3d 00 3a ca 3b 27 3f 9f bd 08 8b 9a bd
       0.06995449 0.006171465 -0.07775717 -0.07546049
0003a0 68 56 3e bc 1a 32 7e 3d 25 93 94 3d 9a a1 fc bc
       -0.011617281 0.0620595 0.07254628 -0.030838776
0003b0 e7 06 1c bd 20 44 1c bc d2 c5 50 3d 74 67 88 bd
       -0.03809252 -0.009537727 0.050969906 -0.06660357
0003c0 a4 62 df 3c a2 5a a6 bd f0 b8 5f bc d0 93 95 bc
       0.027268715 -0.081227556 -0.013654932 -0.018258959
0003d0 6b 8f 89 3d 28 12 3f bd 20 84 9f bc 04 e0 87 3c
       0.06716808 -0.046648175 -0.019472182 0.016586311
0003e0 c2 a9 4e 3d 60 5a 18 bd 06 76 88 bd 2f ea 9f bd
       0.050454862 -0.037195563 -0.06663136 -0.07808339
0003f0 dd 0f 84 3d bf e9 86 bd 00 68 a2 3c 71 76 b0 3d
       0.06448338 -0.06587552 0.019824982 0.08616341

feature_extractor.2.bias f4 [128]
000000 6b 60 46 3c 27 d1 84 bd 21 c8 c6 bd 0b 30 ac bd
       0.012107949 -0.06485205 -0.0970614 -0.08407601
000010 9d f0 6f 3e e7 c5 c1 3c c0 01 fb bc 98 28 10 3d
       0.2343163 0.023653938 -0.030640483 0.035194963
000020 36 83 5b 3e 73 54 47 bd ce 0e 70 bd 1b be 56 3e
       0.21436772 -0.04866452 -0.05860787 0.20970957
000030 aa 6b 8f bd 93 17 ad bd 76 e3 3b bd 48 a4 9f bd
       -0.07002957 -0.08451762 -0.04587122 -0.07795006
000040 47 24 a6 3d 14 76 0a 3d 43 07 26 3e 5c 62 36 3e
       0.08112388 0.033804014 0.16213708 0.17810959
000050 21 cd 5b bd d5 1e 72 bb 76 3e e3 3c ed 72 bd bd
       -0.053662423 -0.0036944647 0.027739745 -0.09250436
000060 1d c5 7c 3d f9 33 86 3e 1e 66 5b 3d 8e d6 c1 3e
       0.06171142 0.26211527 0.053564183 0.37859005
000070 88 cb c7 bc d0 dc 7f bd df 39 67 3e da d1 19 3e
       -0.024389043 -0.062466443 0.2258067 0.15021458
000080 4d ba cd bc 11 76 9c bd 99 59 62 3e ac e7 93 bd
       -0.02511325 -0.07639707 0.22104491 -0.07221922
000090 71 24 55 3e d8 91 8b 3e 38 48 99 bc 1f 63 11 3e
       0.20814683 0.27259707 -0.018711194 0.14197968
0000a0 a5 f6 14 3e c2 8d 82 bd b9 9d af 3e 66 f6 52 3d
       0.14547212 -0.063746944 0.3430002 0.051504515
0000b0 2c b4 2e 3e 74 8f 42 3d b9 03 a9 3e a0 26 03 bd
       0.17060918 0.04750009 0.33010653 -0.032019258
0000c0 db ce 3d 3d 1f 48 ad bd 9a 1e 1d 3e f2 67 f4 bc
       0.04633985 -0.08461022 0.15343705 -0.029834721
0000d0 bf 6c 46 3b 5b d9 5c 3e c1 93 83 3e a3 97 94 bd
       0.003027722 0.2156729 0.25698665 -0.07255485
0000e0 27 a5 0f bc fa 7f bb bd 77 b1 62 3e b5 36 ed 3d
       -0.008767403 -0.09155269 0.2213801 0.115827
0000f0 c1 be 6e 3d 11 57 8d 3e 4b a0 f2 3c a8 9f b2 3d
       0.058287386 0.2760549 0.02961745 0.08721858
000100 44 7e 05 3d 78 cc 06 3e f6 95 3d 3d 5a 20 26 3d
       0.03259112 0.13163936 0.046285592 0.040558197
000110 13 7b aa bd 84 f8 2b 3e 76 e5 f6 3d 80 73 57 3b
       -0.08324256 0.1679402 0.12055485 0.003287524
000120 c2 d5 92 bd 47 f4 2c 3e 2f 85 95 3d 28 9c 6a bd
       -0.07169677 0.1689006 0.073007934 -0.05727783
000130 de b0 40 39 a2 ee 45 3d fe a7 1e 3e a2 17 b5 bd
       0.00018376435 0.04832328 0.15493771 -0.08842398
000140 78 74 fe 3c e2 85 34 bd 06 5a 9d bd 1d af 44 3e
       0.031061396 -0.044072993 -0.07683186 0.19207425
000150 7d a7 28 bd 55 11 2c 3d 92 db c2 bd f2 a3 78 3e
       -0.041175354 0.042008717 -0.09514536 0.2428129
000160 10 15 83 bd bb 9c f3 3d de 90 b7 3d 13 14 83 3e
       -0.06400502 0.11895128 0.08963178 0.25601253
000170 a1 7e 19 3d a3 16 0f bd 29 f4 94 3d 1d 1f c9 3d
       0.03747428 -0.034933697 0.07273132 0.098203875
000180 bf 3e b7 bc 58 7a 9a bd 2c d7 8c bc e7 dc a2 3d
       -0.022368787 -0.075428665 -0.017192446 0.0795229
000190 f9 46 6f bd ea bb e5 3d fa d7 04 3d 4c 3b c1 bc
       -0.058417294 0.112174824 0.032432534 -0.023587845
0001a0 41 10 5e 3e 00 10 28 38 d2 73 6f 3e f7 ad 91 bd
       0.21685888 4.0069222e-05 0.23384026 -0.07113259
0001b0 c4 9d 7a 3e 20 5f ac 3e 05 38 9f 3d b6 1e 8c 3e
       0.24474245 0.33666325 0.07774357 0.2736718
0001c0 47 87 97 bd 28 ed 85 3e b0 ed d3 bd 5d ab 43 3e
       -0.07398849 0.26157498 -0.1034807 0.19108339
0001d0 31 66 23 3e 92 e1 17 3d 64 b8 2c 3d 96 0c 71 3e
       0.15956952 0.037080355 0.042168036 0.23539957
0001e0 20 2b ef 3b d9 3c 5c 3e e1 2e 83 3d e0 3a 34 3b
       0.007298842 0.21507587 0.06405426 0.0027500913
0001f0 44 31 a4 bd 2f 18 39 3e 82 28 57 3d 26 9c 81 3e
       -0.08017209 0.18075632 0.052528866 0.25314444

policy_mean.weight f4 [1, 128]
000000 df 10 4d bd c0 41 0b 3d f2 23 b0 3d 48 34 ad bd
       -0.050064918 0.03399825 0.08600606 -0.084572375
000010 63 6d d1 3d 7c 7d a9 bd 01 01 b1 3d c6 43 79 bd
       0.10225942 -0.08275887 0.086427696 -0.06085565
000020 d5 68 20 3d 04 0e bd bc a9 8d b2 3d 78 9d 2d bd
       0.039162476 -0.023077972 0.08718426 -0.042386502
000030 68 ff 3a 3c d2 f5 9d bd 39 ec 71 3d f8 52 62 3c
       0.011413433 -0.07712902 0.05906317 0.013813727
000040 43 be 01 bd 76 08 99 bd 2f 32 d9 bb aa 43 19 bc
       -0.03167559 -0.07472317 -0.006628297 -0.009354511
000050 88 01 dd 3b ef 34 55 bd 7b 32 a3 bc fa 32 05 bc
       0.0067445673 -0.052052435 -0.019921532 -0.00812983
000060 ba 54 d8 bc 9c f6 ec 3d 5e 3b 30 bd 05 24 15 3e
       -0.026407588 0.115704745 -0.043025367 0.14564522
000070 ba e4 92 bd 32 da 36 3d 82 86 b8 3d 95 2f 2a bd
       -0.071725324 0.04464168 0.0901003 -0.041549284
000080 76 1c 81 3d 3c 42 6a 3d 60 88 96 3d 88 11 6a bd
       0.063042566 0.057192072 0.0735023 -0.057145625
000090 62 4f 02 bd 3a 0f 7b 3d 87 77 c3 3c b9 a8 b7 3d
       -0.031813987 0.061293818 0.023860706 0.08967728
0000a0 36 c8 6a 3c 5b ae 01 bc 57 b4 a3 3d 46 9d b1 3c
       0.014329961 -0.007915105 0.079933815 0.02168144
0000b0 92 f7 84 3d 7f d9 2a 3d 41 b3 be 3d c2 eb 9e bc
       0.06492533 0.041711327 0.09311534 -0.019399527
0000c0 9e 9b fb bc 33 97 35 3c b8 ff e4 bb e4 1b 73 3c
       -0.030713852 0.011083412 -0.006988492 0.014838193
0000d0 5b fb 05 3d 11 f3 19 bd 4e 24 08 3d 30 b6 36 bc
       0.032710414 -0.03758532 0.033237748 -0.011151835
0000e0 e7 55 5a 3c 4f db 81 bd 8d f3 29 3d c9 5e c9 3c
       0.013326145 -0.06340658 0.041492034 0.02458133
0000f0 7c bf 3b bd 42 7a f0 bd 0e 1e ab bc 01 d6 c5 bc
       -0.04583691 -0.11742069 -0.020888355 -0.024149897
000100 77 22 61 bd 62 6a cc 3d 06 cf 1b 3d 5a 3b 54 3d
       -0.05496451 0.099812284 0.03803923 0.051814415
000110 f0 02 bb bd 9d 7a d8 bc 1a 0b 72 3d a8 9b 93 3d
       -0.0913142 -0.026425654 0.05909262 0.072074234
000120 7b a7 bf 3c 22 10 f4 3d 50 b2 c9 bc 68 80 6b bd
       0.02339529 0.119171396 -0.024621159 -0.057495505
000130 2d fc dd bc 88 af fe bc 14 48 10 3e f8 6e 9f 3d
       -0.027097786 -0.03108956 0.14089996 0.077848375
000140 53 61 8d 3d 75 45 99 bd f4 23 13 3d cc f0 b2 3d
       0.06903329 -0.07483951 0.03592296 0.087373346
000150 80 ef c2 bc 0c 69 b4 bc 49 ea cc bc 7e f3 5c bb
       -0.023795843 -0.022022747 -0.02501406 -0.0033714469
000160 97 e5 01 bd c0 83 ec bc 31 fb 3c bd 8c 7e 69 3d
       -0.031713095 -0.028871417 -0.046137992 0.05700545
000170 ee b9 bf bc ec ee 48 3b 98 0b 02 3d ec 4c da bb
       -0.023404088 0.0030659987 0.031749338 -0.006662002
000180 53 69 c0 bc 49 e0 8a bd 5f e5 b2 bd 4c 44 98 bc
       -0.023487723 -0.0678106 -0.08735155 -0.018587254
000190 63 81 a9 3c 8e 8b 8a bc d2 ab 8c bd 8b ff 86 3d
       0.02069158 -0.016912248 -0.068687096 0.0659171
0001a0 2b dd 3f bd f9 14 5a bd 4a 44 37 3d 7a 86 02 3d
       -0.04684178 -0.053242657 0.04474286 0.031866528
0001b0 6e 31 c1 bc d3 d4 c8 3d 38 17 df 3c fe 92 a2 3d
       -0.02358314 0.09806218 0.027232751 0.07938193
0001c0 ee 3a 1c bb cb df 42 3d 25 2e 5e 3d e8 4c 14 3c
       -0.0023838836 0.047576707 0.054243226 0.009051539
0001d0 39 41 bc 3b 91 09 31 3d d3 c3 97 3d 75 94 11 3e
       0.00574508 0.043222014 0.074103974 0.14216788
0001e0 b0 39 96 bd 52 78 39 3d d1 c3 6d bd c8 5f 01 3c
       -0.07335222 0.045280762 -0.058048073 0.007896371
0001f0 a8 fe 9e 3c 75 0d 22 3d 84 4e b7 bd 19 be 1e 3d
       0.019408539 0.039563615 -0.089505225 0.03875551

value.weight f4 [1, 128]
000000 3a dd 71 3d 76 07 66 3d 25 e2 66 3c 87 f9 8a 3d
       0.05904887 0.05615946 0.014092003 0.06785875
000010 70 29 3e be e7 3d 1e bd 98 09 48 bc 3e 65 b6 3c
       -0.18570495 -0.038633253 -0.012209319 0.022265073
000020 51 19 4a be 20 25 92 bd 80 91 0b 3c c7 51 3e be
       -0.1973622 -0.07135987 0.008518577 -0.18585883
000030 de 3d ad bd 9b 51 1c 3c 41 56 15 3b 8e aa 0f 3d
       -0.08459066 0.009540941 0.0022787007 0.035074763
000040 a9 0a 93 3d 81 08 87 bd 7b 3f 91 bd d0 49 82 be
       0.07179768 -0.06593419 -0.07092186 -0.2544694
000050 eb bc 8d 3d e0 10 ed bc 9b c1 86 3d 7f fc 53 bc
       0.06920799 -0.02893871 0.06579896 -0.012938618
000060 98 77 f6 3c 99 b7 41 3b a0 18 ad 3b b9 2c 91 3e
       0.030086324 0.0029558896 0.0052824765 0.28354433
000070 6b f5 3a bd 50 eb 46 3c ed e0 6b be 9a 85 a7 bd
       -0.045644205 0.012141064 -0.23035021 -0.08179779
000080 4f 71 0f 3d cc 5a 20 3d 3c e3 0f be 64 2a 97 bd
       0.03502017 0.03914909 -0.14051527 -0.07381132
000090 a6 17 bc bd f4 e7 30 be 5b db b2 3c bb 32 24 bd
       -0.09184198 -0.17275983 0.021833112 -0.040087443
0000a0 e1 1a 5f be 0e 60 6c 3c 0c 7c 8b 3e 3b 52 fd 3c
       -0.21787597 0.014427198 0.27243078 0.030923
0000b0 ba ff e2 bd d3 90 0f be ad 5a 9a 3e 25 87 db 3c
       -0.11083932 -0.1402009 0.30147305 0.02679784
0000c0 77 df 25 be 18 53 1f bc 08 e6 42 be 19 31 0a 3d
       -0.16198526 -0.009724401 -0.19033062 0.03373823
0000d0 1b ca c2 3c e7 88 f6 bd b3 a6 1d be dd 64 92 bd
       0.023778012 -0.12037831 -0.15395622 -0.071481444
0000e0 81 f5 4e 3d 90 ec d7 3c e6 42 56 be de 87 4d be
       0.0505271 0.026357919 -0.20923957 -0.2007136
0000f0 72 51 76 be cc 68 bb 3e 1a 35 ae 3c d6 23 18 be
       -0.24054506 0.3660339 0.021265555 -0.1485742
000100 1f f0 03 3d 52 c1 61 bd d8 7e f8 3c 7e 21 81 bd
       0.03221142 -0.055116005 0.030333921 -0.06305216
000110 af 7e 08 3d e5 89 be bd c9 8a 9b be 9a 74 96 3c
       0.03332394 -0.09303645 -0.30379322 0.018366147
000120 95 bb 8d 3d ac 49 21 be d0 c7 a7 bc 34 19 58 3d
       0.06920544 -0.1575076 -0.02048102 0.05275841
000130 25 38 64 3d 40 f8 ca 3a ee 3e a7 bd 11 81 df 3c
       0.055717606 0.0015485361 -0.081663 0.027283223
000140 fa 89 69 bd 4c 68 1e 3c 95 ce 3d 3d 59 3c 99 be
       -0.05701635 0.009668421 0.04633959 -0.29928854
000150 34 f8 b8 3c 74 1e 03 bd a0 a1 85 bd 48 b2 2f be
       0.02257929 -0.032011464 -0.06524968 -0.17157853
000160 44 85 03 3d 0e 21 3f 3e e3 27 97 bd ae df 33 be
       0.032109514 0.18664953 -0.07380655 -0.17565796
000170 ac 26 33 3d 22 cd 02 3c 6a d5 0b 3d d9 23 4a be
       0.043738052 0.007983478 0.034139074 -0.19740237
000180 4b 08 a6 3b 98 39 5b bc 61 29 a3 3d 28 44 91 3c
       0.0050669066 -0.013380431 0.07966877 0.017732695
000190 ad 8e 65 bc f8 b1 14 be fc 38 ba bc 76 9a 3d bd
       -0.014011067 -0.14521015 -0.02273225 -0.046289884
0001a0 fd c3 a3 be 1e e5 f6 bc 16 fd 5b be 2a ab 8d bd
       -0.31985465 -0.030138548 -0.21483263 -0.069174126
0001b0 a0 7a 2e be 53 17 ad 3e e1 08 82 bd aa f8 17 be
       -0.17038965 0.33806857 -0.0634935 -0.14840952
0001c0 b1 c7 5d 3d 43 54 cd bd 3b 25 28 bd f5 7c 82 be
       0.05414552 -0.10025837 -0.04105113 -0.2548596
0001d0 7b 28 4f be 7b f4 8b 3d cf 87 da 3c ef 7c 1c bd
       -0.20230286 0.0683374 0.026676087 -0.038205083
0001e0 34 59 a8 3c 4e 2a 4e be b2 9d 05 bd 8c 33 03 3d
       0.020550348 -0.20133325 -0.032621093 0.03203158
0001f0 3a dd 3b 3d 78 80 5e be e3 96 92 3d 85 9d 3c be
       0.045865275 -0.21728694 0.071576856 -0.18419464

exp_avg f4 [128, 5]
000000 9e 49 21 3b 3c d9 66 3b 88 77 b2 3b f6 cd 61 3c
       0.002461053 0.0035224697 0.005446378 0.013782015
000010 32 e7 1f 3a 33 c7 c3 3b 6e 35 15 3c f4 34 3a 3c
       0.00060998194 0.005974674 0.009106977 0.011365164
000020 56 80 12 3d 4c e6 a6 3a 16 09 69 39 2b 06 f9 39
       0.035766922 0.0012733429 0.00022223996 0.00047497576
000030 02 79 b5 39 cb 81 e4 3a e4 b6 a2 30 00 00 00 00
       0.00034613168 0.0017433701 1.1839032e-09 0.0
000040 00 00 00 00 00 00 00 00 00 00 00 00 00 00 00 00
       0.0 0.0 0.0 0.0
000050 5b 7d 8e 37 af 73 f5 38 0a 0b 93 b8 06 cb 06 3a
       1.6986092e-05 0.00011704058 -7.0115624e-05 0.0005141947
000060 bf 6d 92 37 00 00 00 00 00 00 00 00 00 00 00 00
       1.745566e-05 0.0 0.0 0.0
000070 00 00 00 00 00 00 00 00 7f 0f 3c 39 f2 2c a0 39
       0.0 0.0 0.0001793485 0.00030551065
000080 5d a2 6a 39 89 2d 9b 3a 96 ed 4a 38 f5 b2 0c 3b
       0.00022376464 0.0011839132 4.8381822e-05 0.0021468971
000090 0a 18 57 3b 4b 45 b3 3b 73 88 5b 3c 7f d5 5a 3a
       0.0032820725 0.005470907 0.013399231 0.00083478534
0000a0 8b 06 89 3a 50 a7 24 3b 89 f0 18 3b d8 56 11 3c
       0.001045422 0.002512414 0.002333673 0.008870803
0000b0 00 00 00 00 ab aa 83 ba 7f d2 be ba 5e 5f 00 bb
       0.0 -0.001004537 -0.0014558582 -0.0019588093
0000c0 a3 d5 b9 bb 7d a5 5e b9 08 91 2d 3a 31 12 88 3a
       -0.0056712194 -0.00021233219 0.00066210376 0.0010381398
0000d0 a6 38 a6 3a 5f 68 86 3b a5 52 25 39 70 62 01 ba
       0.0012681677 0.0041017975 0.00015766414 -0.0004935628
0000e0 33 b9 54 ba 7e 01 98 ba 68 3d 58 bb b2 88 04 b9
       -0.0008114755 -0.0011597124 -0.0032995585 -0.00012639424
0000f0 00 00 00 00 00 00 00 00 00 00 00 00 00 00 00 00
       0.0 0.0 0.0 0.0
000100 00 00 00 00 ff b8 77 38 13 a6 f0 b8 49 fe b3 b9
       0.0 5.906168e-05 -0.000114750255 -0.00034330998
000110 3c 10 6e ba df 37 73 b8 0b 47 92 39 0c 51 74 3a
       -0.00090813986 -5.798775e-05 0.0002790022 0.0009319938
000120 01 28 3d 3a 40 cd 62 3b 04 00 00 00 00 00 00 00
       0.0007215739 0.0034607202 6e-45 0.0
000130 00 00 00 00 00 00 00 00 00 00 00 00 00 00 00 00
       0.0 0.0 0.0 0.0
000140 b3 b1 9e 3a 2d b6 e4 3a f8 bb 0f 3b 9a 17 db 3b
       0.0012107402 0.0017449312 0.0021932106 0.006686163
000150 25 5c 86 39 cf b0 55 3a 92 25 98 3a 9b 34 b5 3a
       0.00025627125 0.0008151652 0.0011607877 0.0013824882
000160 fc 41 90 3b 3c 1b 2e 39 51 d6 39 37 6a 36 b0 39
       0.004402397 0.00016604079 1.1076759e-05 0.00033609878
000170 95 f8 5b 39 fa 1b 00 3b d5 65 f9 36 41 10 ed 3a
       0.00020978072 0.0019547925 7.432633e-06 0.0018086509
000180 b4 28 3e 3b 6e 7a bf 3b 94 66 4e 3c f3 4a 34 3a
       0.002901596 0.005843452 0.012597699 0.00068776234
000190 db 10 29 ba 41 9b 6e ba 0c 5c ad ba 78 73 6b bb
       -0.000644935 -0.0009102114 -0.0013226285 -0.003592698
0001a0 ce e4 0f b9 00 00 00 00 00 00 00 00 00 00 00 00
       -0.00013722779 0.0 0.0 0.0
0001b0 00 00 00 00 00 00 00 00 00 00 00 00 00 00 00 00
       0.0 0.0 0.0 0.0
0001c0 00 00 00 00 00 00 00 00 00 00 00 00 cc 29 69 3a
       0.0 0.0 0.0 0.0008894473
0001d0 cc d1 c2 3a 72 a2 29 3b 00 bf ae 3b 71 c5 33 3a
       0.001486355 0.0025884178 0.0053328276 0.0006857729
0001e0 71 00 0a 3a 14 67 80 3a a4 d8 9c 3a 1e 93 83 3b
       0.0005264348 0.0009796345 0.0011966419 0.0040153405
0001f0 f3 6a 2f 39 00 00 00 00 00 00 00 00 00 00 00 00
       0.00016729142 0.0 0.0 0.0
000200 00 00 00 00 00 00 00 00 cf 33 6e b8 95 db 8f b9
       0.0 0.0 -5.6791872e-05 -0.00027438687
000210 36 55 95 b9 48 84 92 ba b2 cf 2f b8 07 f3 38 3a
       -0.00028482982 -0.0011178339 -4.1916683e-05 0.0007055257
000220 fa f3 35 3a 15 ce 18 3a 85 2c 80 3b bc ba 13 3a
       0.00069409574 0.00058290485 0.003911557 0.00056354306
000230 00 00 00 00 00 00 00 00 00 00 00 00 00 00 00 00
       0.0 0.0 0.0 0.0
000240 00 00 00 00 be 67 a3 3b 84 ec da 3b e3 b3 39 3c
       0.0 0.0049867323 0.006681027 0.011334392
000250 25 a6 ce 3c 04 00 00 00 00 00 00 00 00 00 00 00
       0.025225708 6e-45 0.0 0.0
000260 00 00 00 00 00 00 00 00 00 00 00 00 a4 fd 1f 3b
       0.0 0.0 0.0 0.0024412656
000270 67 d4 5d 3b 4d b2 83 3b 61 af 51 3c 63 ce ef 39
       0.0033848525 0.004019058 0.012798161 0.00045739402
000280 00 00 00 00 00 00 00 00 00 00 00 00 00 00 00 00
       0.0 0.0 0.0 0.0
000290 00 00 00 00 00 00 00 00 00 00 00 00 00 00 00 00
       0.0 0.0 0.0 0.0
0002a0 00 00 00 00 00 00 00 00 e2 6f 33 3a d4 a7 89 3a
       0.0 0.0 0.000684498 0.0010502287
0002b0 47 06 f8 3a e5 dd 85 3b 55 d9 8b 39 00 00 00 00
       0.0018922769 0.00408529 0.0002667407 0.0
0002c0 00 00 00 00 00 00 00 00 00 00 00 00 00 00 00 00
       0.0 0.0 0.0 0.0
0002d0 00 00 00 00 00 00 00 00 00 00 00 00 00 00 00 00
       0.0 0.0 0.0 0.0
0002e0 00 00 00 00 2c 15 fe 3a 42 8d 37 3b 9d b6 b1 3b
       0.0 0.0019384972 0.002800778 0.0054233805
0002f0 69 b0 46 3c e5 ec 4f 3a 00 00 00 00 00 00 00 00
       0.01212702 0.00079317234 0.0 0.0
000300 00 00 00 00 00 00 00 00 00 00 00 00 74 b7 e3 3a
       0.0 0.0 0.0 0.0017373399
000310 97 43 0b 3b 3d 9c 1b 3b d9 07 f6 3b d3 9a 88 39
       0.0021250003 0.0023744248 0.0075082597 0.00026055294
000320 64 c2 da 3a d5 3a e6 3a bf 1c 38 3b cd a1 e2 3b
       0.0016690013 0.0017565141 0.0028093306 0.006916261
000330 f0 fb d8 39 04 00 00 00 04 00 00 00 04 00 00 00
       0.00041386439 6e-45 6e-45 6e-45
000340 04 00 00 00 04 00 00 00 00 00 00 00 00 00 00 00
       6e-45 6e-45 0.0 0.0
000350 00 00 00 00 00 00 00 00 00 00 00 00 00 00 00 00
       0.0 0.0 0.0 0.0
000360 00 00 00 00 00 00 00 00 00 00 00 00 00 00 00 00
       0.0 0.0 0.0 0.0
000370 00 00 00 00 00 00 00 00 00 00 00 00 00 00 00 00
       0.0 0.0 0.0 0.0
000380 00 00 00 00 00 00 00 00 00 00 00 00 00 00 00 00
       0.0 0.0 0.0 0.0
000390 00 00 00 00 00 00 00 00 00 00 00 00 00 00 00 00
       0.0 0.0 0.0 0.0
0003a0 00 00 00 00 00 00 00 00 00 00 00 00 70 ab 01 3a
       0.0 0.0 0.0 0.00049465057
0003b0 25 f5 d3 39 d5 b9 cf 39 43 4f 2a 3b 88 9f d9 39
       0.00040427703 0.00039620572 0.0025987185 0.00041508325
0003c0 4e 18 d4 ba 7d a5 2a bb 7a 69 66 bb 55 47 2b bc
       -0.001618156 -0.002603858 -0.0035158084 -0.010454019
0003d0 38 c1 d1 b9 f5 90 eb 3a 6f 02 a9 3b 6b fd b7 3b
       -0.00040007546 0.0017972278 0.005157761 0.0056149266
0003e0 9e 6b 9b 3c 00 00 00 00 cf 2d 5f 94 8b c4 5f 95
       0.018972214 0.0 -1.1267657e-26 -4.5189536e-26
0003f0 00 72 5e 12 dc ad df 95 ba 5b 29 11 c0 de df 3a
       7.0191364e-28 -9.0343284e-26 1.3360015e-28 0.0017079934

exp_avg_sq f4 [128, 5]
000000 3f e8 d4 36 22 e3 8d 37 3b bc 90 38 8c a4 0f 39
       6.3451293e-06 1.6914277e-05 6.901516e-05 0.00013698841
000010 5f 88 58 35 67 f9 27 39 8a 6f 12 3a 7a 9a 04 3b
       8.0664717e-07 0.0001601927 0.00055860786 0.0020233677
000020 6a 55 86 3b b2 af a4 37 3c 58 fa 35 df 28 a1 36
       0.0040995376 1.9632138e-05 1.8652131e-06 4.802932e-06
000030 a4 fd 9e 37 db 6c 3a 38 12 a5 7b 34 00 00 00 00
       1.8953178e-05 4.4447235e-05 2.3436249e-07 0.0
000040 00 00 00 00 00 00 00 00 00 00 00 00 00 00 00 00
       0.0 0.0 0.0 0.0
000050 ea 17 2d 36 a8 07 20 37 fe 62 14 38 e8 56 8d 38
       2.5792929e-06 9.538526e-06 3.5378143e-05 6.7395915e-05
000060 ca b4 cb 34 00 00 00 00 00 00 00 00 00 00 00 00
       3.7943238e-07 0.0 0.0 0.0
000070 00 00 00 00 00 00 00 00 25 b5 e2 35 68 46 af 36
       0.0 0.0 1.6891032e-06 5.223603e-06
000080 08 03 a2 37 37 6b 1e 38 9d bf 72 34 37 50 e3 37
       1.9313316e-05 3.7769987e-05 2.2607715e-07 2.7097862e-05
000090 3d b8 aa 38 d7 df 04 3a 10 d0 27 3a 67 7d ce 36
       8.140549e-05 0.0005068755 0.0006401548 6.153877e-06
0000a0 b0 3c 00 36 b3 47 a1 36 d2 2c 1a 36 76 2f 12 38
       1.910881e-06 4.806521e-06 2.2973877e-06 3.4853314e-05
0000b0 00 00 00 00 3b 0f 50 36 d4 da 41 37 06 26 33 38
       0.0 3.100328e-06 1.1554646e-05 4.2712338e-05
0000c0 06 80 ad 38 fd 3e e8 34 45 47 2e 36 30 e1 39 37
       8.273129e-05 4.3259197e-07 2.5969505e-06 1.107929e-05
0000d0 95 7a 1d 38 67 39 9c 38 98 35 e6 34 87 4c 61 36
       3.754588e-05 7.449352e-05 4.2879833e-07 3.3572157e-06
0000e0 73 88 1f 37 27 68 24 38 8a 07 a3 38 91 10 ec 34
       9.508908e-06 3.9197646e-05 7.77385e-05 4.397048e-07
0000f0 00 00 00 00 00 00 00 00 00 00 00 00 00 00 00 00
       0.0 0.0 0.0 0.0
000100 00 00 00 00 4c 82 57 37 6e cd 4b 38 47 51 47 39
       0.0 1.2845336e-05 4.8590293e-05 0.00019008397
000110 c8 91 bb 39 ad 67 08 36 86 3b 4a 35 ad 5a bd 35
       0.00035776035 2.0325926e-06 7.533748e-07 1.4107987e-06
000120 a7 87 06 36 9f 8d 39 37 13 0e 12 31 00 00 00 00
       2.0046516e-06 1.1059833e-05 2.1253797e-09 0.0
000130 00 00 00 00 00 00 00 00 00 00 00 00 00 00 00 00
       0.0 0.0 0.0 0.0
000140 6c b2 ee 35 6f ab b5 36 75 a9 ae 37 26 ca 2f 38
       1.7784309e-06 5.414178e-06 2.0821326e-05 4.1911517e-05
000150 a2 77 8b 34 ba bd ea 35 27 5c 04 37 e7 e1 f0 37
       2.5977812e-07 1.7489576e-06 7.889269e-06 2.8715423e-05
000160 03 da 5d 38 e7 39 c1 34 59 a1 4d 37 02 ea 28 38
       5.2893545e-05 3.599118e-07 1.2256519e-05 4.0272258e-05
000170 1c 1e 19 39 46 ef a6 39 19 a8 c4 35 78 cc 84 37
       0.00014602434 0.0003184026 1.4652061e-06 1.583084e-05
000180 f4 da 32 38 95 13 42 39 e8 b8 b8 39 8f 28 10 36
       4.2642423e-05 0.00018508577 0.0003523298 2.148128e-06
000190 75 59 19 37 ff 8d 18 38 96 36 0f 39 26 04 86 39
       9.140339e-06 3.637187e-05 0.00013657878 0.00025561563
0001a0 9a 4a bc 35 00 00 00 00 00 00 00 00 00 00 00 00
       1.4028803e-06 0.0 0.0 0.0
0001b0 00 00 00 00 00 00 00 00 00 00 00 00 00 00 00 00
       0.0 0.0 0.0 0.0
0001c0 00 00 00 00 00 00 00 00 00 00 00 00 7f 16 1a 36
       0.0 0.0 0.0 2.2960883e-06
0001d0 0e 13 03 37 fa ef bd 38 e1 45 80 38 8f 3f 2b 36
       7.812645e-06 9.0569214e-05 6.1165316e-05 2.5517982e-06
0001e0 ba a3 20 36 8a c9 de 36 de 6d d8 37 ee 8d 5c 38
       2.393716e-06 6.639578e-06 2.5800367e-05 5.258427e-05
0001f0 91 02 d2 34 00 00 00 00 00 00 00 00 00 00 00 00
       3.9117415e-07 0.0 0.0 0.0
000200 00 00 00 00 00 00 00 00 8d c3 81 36 d5 3c 64 37
       0.0 0.0 3.8672647e-06 1.3604023e-05
000210 ed fc 56 38 e2 68 d4 38 e4 42 50 35 16 04 68 36
       5.125713e-05 0.00010128484 7.7583377e-07 3.4573072e-06
000220 bf ce 39 37 fa 32 96 38 a8 2a b4 38 d1 44 7d 35
       1.1074996e-05 7.1620525e-05 8.591014e-05 9.4349986e-07
000230 00 00 00 00 00 00 00 00 00 00 00 00 00 00 00 00
       0.0 0.0 0.0 0.0
000240 00 00 00 00 22 f5 66 37 7b 56 11 38 48 7e 68 38
       0.0 1.3766143e-05 3.4651235e-05 5.543072e-05
000250 56 a6 84 39 c2 b5 0d 34 00 00 00 00 00 00 00 00
       0.00025300932 1.3197771e-07 0.0 0.0
000260 00 00 00 00 00 00 00 00 00 00 00 00 43 34 b1 36
       0.0 0.0 0.0 5.281095e-06
000270 93 93 05 37 28 ad 05 38 f3 ca aa 38 ad 80 8c 34
       7.961778e-06 3.1870935e-05 8.144034e-05 2.6170656e-07
000280 00 00 00 00 00 00 00 00 00 00 00 00 00 00 00 00
       0.0 0.0 0.0 0.0
000290 00 00 00 00 00 00 00 00 00 00 00 00 00 00 00 00
       0.0 0.0 0.0 0.0
0002a0 00 00 00 00 00 00 00 00 18 3f 37 36 79 4c 1e 37
       0.0 0.0 2.730585e-06 9.435339e-06
0002b0 03 10 05 38 ba ca 8e 38 3c 05 c7 34 00 00 00 00
       3.1724583e-05 6.8088484e-05 3.7070447e-07 0.0
0002c0 00 00 00 00 00 00 00 00 00 00 00 00 00 00 00 00
       0.0 0.0 0.0 0.0
0002d0 00 00 00 00 00 00 00 00 00 00 00 00 00 00 00 00
       0.0 0.0 0.0 0.0
0002e0 00 00 00 00 75 45 5a 37 bf c9 1b 38 40 08 39 39
       0.0 1.3009984e-05 3.714277e-05 0.00017646048
0002f0 c3 1a 96 39 1d 6d 00 36 00 00 00 00 00 00 00 00
       0.00028630169 1.9136999e-06 0.0 0.0
000300 00 00 00 00 00 00 00 00 00 00 00 00 72 05 99 37
       0.0 0.0 0.0 1.8241557e-05
000310 73 df fd 37 76 1a ef 38 c9 01 9b 39 8e fe 4d 35
       3.0264002e-05 0.00011401337 0.00029565234 7.6738877e-07
000320 02 f5 5a 37 c8 35 3b 38 bd ce 49 39 9f 1f b5 39
       1.3050858e-05 4.4634362e-05 0.0001924587 0.0003454657
000330 7d e6 09 36 49 df 83 33 1b f1 32 35 5d 3f 57 36
       2.0548753e-06 6.140778e-08 6.666102e-07 3.2074379e-06
000340 ba 62 57 36 2c 7f 64 33 00 00 00 00 00 00 00 00
       3.2094963e-06 5.320105e-08 0.0 0.0
000350 00 00 00 00 00 00 00 00 00 00 00 00 00 00 00 00
       0.0 0.0 0.0 0.0
000360 00 00 00 00 00 00 00 00 00 00 00 00 00 00 00 00
       0.0 0.0 0.0 0.0
000370 00 00 00 00 00 00 00 00 00 00 00 00 00 00 00 00
       0.0 0.0 0.0 0.0
000380 00 00 00 00 00 00 00 00 00 00 00 00 00 00 00 00
       0.0 0.0 0.0 0.0
000390 00 00 00 00 00 00 00 00 00 00 00 00 00 00 00 00
       0.0 0.0 0.0 0.0
0003a0 00 00 00 00 00 00 00 00 00 00 00 00 fa dc 97 35
       0.0 0.0 0.0 1.1314689e-06
0003b0 5d 97 21 36 40 e9 8f 37 44 40 a1 37 8b 3c c0 34
       2.4078975e-06 1.7155544e-05 1.9222622e-05 3.5806838e-07
0003c0 84 29 f6 37 32 e6 f6 38 99 cf e4 39 5e d8 5b 3a
       2.9344817e-05 0.00011773071 0.0004364222 0.0008386428
0003d0 d0 0c 9c 36 99 eb ad 36 80 09 dd 36 eb 44 d8 36
       4.650654e-06 5.183229e-06 6.587419e-06 6.4453247e-06
0003e0 36 eb 88 38 00 00 00 00 c4 f8 10 36 07 f9 f5 37
       6.528797e-05 0.0 2.1602473e-06 2.9322238e-05
0003f0 ab f4 76 38 0a 09 1a 39 e9 e9 85 35 2e 08 b0 36
       5.8878835e-05 0.00014689952 9.977349e-07 5.246161e-06

exp_avg f4 [128]
000000 9f 15 8e 3a 73 b4 47 3b 73 b9 66 39 00 00 00 00
       0.0010840184 0.0030472546 0.00022003594 0.0
000010 35 41 8d 37 00 00 00 00 08 46 d2 38 14 78 3d 3a
       1.6838874e-05 0.0 0.00010026625 0.0007227671
000020 95 30 84 3a bd 9f 04 ba 8e 10 bc 39 20 ba 8d b9
       0.0010085279 -0.0005059203 0.00035870489 -0.0002703229
000030 00 00 00 00 fd 8c e6 37 ff 87 a7 39 00 00 00 00
       0.0 2.748379e-05 0.00031954047 0.0
000040 7a b0 23 3a b8 db df 39 63 5e 84 37 18 27 1e 3a
       0.00062442536 0.00042697578 1.5779578e-05 0.0006033047
000050 ea 91 ae b9 00 00 00 00 00 00 00 00 26 d9 d6 39
       -0.0003329658 0.0 0.0 0.0004097905
000060 f4 55 94 39 00 00 00 00 11 a1 ea b7 e9 57 22 b9
       0.000282928 0.0 -2.7969976e-05 -0.00015482273
000070 00 00 00 00 f9 48 68 3b 00 00 00 00 2a 05 a2 3a
       0.0 0.0035443886 0.0 0.0012361158
000080 00 00 00 00 00 00 00 00 5f 43 e1 39 00 00 00 00
       0.0 0.0 0.0004296554 0.0
000090 00 00 00 00 9c bd 1a 3a 00 00 00 00 67 ae 69 3a
       0.0 0.0005902888 0.0 0.00089142326
0000a0 5b 75 27 3a 04 00 00 00 00 00 00 00 00 00 00 00
       0.0006388032 6e-45 0.0 0.0
0000b0 00 00 00 00 00 00 00 00 00 00 00 00 e7 8f e7 b8
       0.0 0.0 0.0 -0.00011041742
0000c0 5d c6 62 ba 48 27 13 3b b1 b4 df 94 33 e7 cb 3a
       -0.0008650774 0.0022453833 -2.2588516e-26 0.0015556574
0000d0 05 0c 7e 39 00 00 00 00 5a 93 e2 39 55 3a 1e bb
       0.00024227805 0.0 0.00043215865 -0.0024143655
0000e0 86 42 d8 3a 00 00 00 00 71 d9 7c bb 10 7b 8f 3a
       0.0016499318 0.0 -0.0038581754 0.001094671
0000f0 86 8d 02 39 eb a4 d9 b8 00 00 00 00 62 a2 4b 38
       0.00012450488 -0.00010378085 0.0 4.8550202e-05
000100 ee ac 0d 3b 60 6d 54 36 b1 6d 92 3a 00 00 00 00
       0.0021617967 3.1654126e-06 0.0011171607 0.0
000110 66 7d 02 3a 97 8a a8 39 00 00 00 00 b1 12 c0 b7
       0.0004977792 0.00032146715 0.0 -2.2896887e-05
000120 ea b6 4c 3a 5a df 9b 37 45 1c b6 39 00 00 00 00
       0.0007809239 1.8581446e-05 0.00034734808 0.0
000130 00 00 00 00 00 00 00 00 fa 14 21 3b a4 f3 2c 39
       0.0 0.0 0.0024579153 0.00016493961
000140 3e 4b 86 b9 56 ca eb 3a 2a 1b 21 39 30 d3 a6 38
       -0.00025614531 0.0017989378 0.00015364276 7.9548336e-05
000150 00 00 00 00 88 39 0e 3a 00 00 00 00 00 00 00 00
       0.0 0.0005425443 0.0 0.0
000160 a1 41 df ba 00 00 00 00 73 b3 51 3a 9b 09 f7 3a
       -0.0017033109 0.0 0.00079994573 0.0018847467
000170 30 1b e7 39 8e 8d b4 3a 0c 65 78 3a 5f 9d 22 3b
       0.0004408001 0.0013775097 0.00094755064 0.0024813039
000180 00 00 00 00 f0 a6 96 39 02 85 b3 b9 42 ed bc b9
       0.0 0.00028734608 -0.0003424064 -0.00036034925
000190 95 93 1c 3a f8 d9 93 3a 78 f5 b5 3a 31 f5 a6 b6
       0.0005972919 0.001128017 0.001388236 -4.9757296e-06
0001a0 24 dd e6 3a bf 0b 4b 3b d2 1f 14 b9 f5 69 3a 3a
       0.0017613512 0.0030982343 -0.00014126234 0.0007111126
0001b0 ef 15 a5 b9 00 00 00 00 00 00 00 00 1d 34 7e bb
       -0.00031487594 0.0 0.0 -0.0038788386
0001c0 04 00 00 00 a4 51 94 b9 b6 64 3a 3b 00 00 00 00
       6e-45 -0.00028289587 0.0028441376 0.0
0001d0 75 79 1d 3a 46 08 2b 3a d9 67 cd b6 b3 da 74 39
       0.0006007173 0.0006524365 -6.1215655e-06 0.00023351125
0001e0 e9 f8 fc 39 fa fa 65 b9 05 59 81 b9 97 23 59 3a
       0.00048250638 -0.00021932638 -0.00024671122 0.00082831964
0001f0 a5 d6 28 18 bc 61 56 3b ca f8 a2 3a 84 89 ba b9
       2.1821859e-24 0.0032712063 0.0012433764 -0.00035579142

exp_avg_sq f4 [128]
000000 f3 11 de 36 69 3c 69 39 d3 6d 10 36 00 00 00 00
       6.618205e-06 0.00022243116 2.1521598e-06 0.0
000010 87 71 77 36 00 00 00 00 62 ce 08 36 78 de 0e 38
       3.687195e-06 0.0 2.038571e-06 3.406263e-05
000020 90 d3 03 36 1e 25 96 36 f2 63 7f 36 d3 50 8a 36
       1.9643667e-06 4.4746694e-06 3.8056137e-06 4.1221297e-06
000030 00 00 00 00 4c ee 9f 37 39 35 16 35 00 00 00 00
       0.0 1.9065243e-05 5.5956804e-07 0.0
000040 87 54 06 36 e5 64 34 36 3e 95 8b 37 5f eb 94 37
       2.0016757e-06 2.6880818e-06 1.6639588e-05 1.7752578e-05
000050 08 4d 68 37 00 00 00 00 00 00 00 00 50 48 6c 36
       1.3846213e-05 0.0 0.0 3.5208832e-06
000060 f2 cf 2e 36 00 00 00 00 3f 8a ac 36 68 dd 8c 36
       2.604906e-06 0.0 5.1420934e-06 4.1981e-06
000070 00 00 00 00 b0 d8 58 37 00 00 00 00 21 a2 7e 36
       0.0 1.2925055e-05 0.0 3.794332e-06
000080 00 00 00 00 00 00 00 00 1f a9 68 36 00 00 00 00
       0.0 0.0 3.4669135e-06 0.0
000090 00 00 00 00 50 99 76 37 00 00 00 00 3d 4e 80 37
       0.0 1.46984385e-05 0.0 1.5295222e-05
0000a0 bd de 97 37 bc 8c 11 34 00 00 00 00 00 00 00 00
       1.8104323e-05 1.3555376e-07 0.0 0.0
0000b0 00 00 00 00 00 00 00 00 00 00 00 00 75 7d 82 35
       0.0 0.0 0.0 9.722268e-07
0000c0 e1 a3 3c 38 80 cb 52 36 2a e1 00 37 29 66 b2 36
       4.4975317e-05 3.141089e-06 7.68182e-06 5.3167064e-06
0000d0 33 d5 3a 35 00 00 00 00 33 1c 4d 36 42 45 e5 37
       6.9600645e-07 0.0 3.0563795e-06 2.7331178e-05
0000e0 16 cb 45 38 00 00 00 00 c1 36 97 38 b9 1b 3e 37
       4.71576e-05 0.0 7.21044e-05 1.1331337e-05
0000f0 47 91 a9 35 e3 ce 09 36 00 00 00 00 d0 02 13 36
       1.2633762e-06 2.0535015e-06 0.0 2.1906344e-06
000100 b1 72 e6 36 70 9d 84 2b a5 84 11 37 00 00 00 00
       6.867886e-06 9.422862e-13 8.673557e-06 0.0
000110 ca ea 86 36 49 7a 2f 35 00 00 00 00 f4 4f 32 2e
       4.0208442e-06 6.537053e-07 0.0 4.0543527e-11
000120 5c 58 ec 36 d1 f5 15 36 cc 8b 34 36 00 00 00 00
       7.0436345e-06 2.2345814e-06 2.6903463e-06 0.0
000130 00 00 00 00 00 00 00 00 bd 04 c5 38 3f 05 a0 35
       0.0 0.0 9.3945746e-05 1.1922456e-06
000140 b2 68 f5 36 04 8a 26 38 a3 91 fc 35 e9 57 8f 37
       7.313757e-06 3.970602e-05 1.8817849e-06 1.7087865e-05
000150 00 00 00 00 6b 80 5e 36 00 00 00 00 00 00 00 00
       0.0 3.3155327e-06 0.0 0.0
000160 04 a7 1c 37 00 00 00 00 f2 a3 dd 36 b2 d8 8b 36
       9.337211e-06 0.0 6.605399e-06 4.1677495e-06
000170 87 5f c6 35 aa 52 be 37 38 07 95 36 29 47 02 39
       1.4779952e-06 2.2688258e-05 4.4413864e-06 0.00012424275
000180 00 00 00 00 05 ef f5 38 ea c6 a0 36 fd 85 d8 36
       0.0 0.00011727031 4.791528e-06 6.4529e-06
000190 e8 4f 11 36 8b 9f d3 36 5e 4f ea 36 30 13 fd 33
       2.1653195e-06 6.3068633e-06 6.982983e-06 1.1784721e-07
0001a0 49 c5 ba 38 55 08 d8 38 94 cd e0 37 e6 7b 51 36
       8.9059184e-05 0.000103012346 2.679861e-05 3.1215545e-06
0001b0 83 6b 07 37 00 00 00 00 00 00 00 00 56 45 70 39
       8.071659e-06 0.0 0.0 0.00022914013
0001c0 18 c1 02 33 ef a7 18 37 93 45 25 38 00 00 00 00
       3.04436e-08 9.099006e-06 3.940386e-05 0.0
0001d0 5f 48 05 36 26 9d b7 35 96 92 39 34 b4 6f a2 36
       1.986067e-06 1.3680299e-06 1.7282795e-07 4.84098e-06
0001e0 bf a0 ac 36 b8 55 50 36 ea 63 62 36 25 bd e1 37
       5.1447128e-06 3.104431e-06 3.3734782e-06 2.6910167e-05
0001f0 68 b2 ce 35 1a c1 c8 38 e9 37 27 37 c4 68 71 38
       1.5400119e-06 9.572711e-05 9.966993e-06 5.7556448e-05
