models/ppo_agent.pt (torch, 221178 bytes, 18 tensors)

feature_extractor.0.weight f4 [128, 5]
00000000: b70e 13bf 239a d13d 62d0 a7bd 522c fa3e
00000010: fd15 68be 2123 5b3e 7aca cdbe 15a2 89be
00000020: 6f4a b63e c341 1ebe c0f1 b23d b81b d33e
00000030: ba57 c4be 526a c5be 98eb b8bd 53cb a7bc
00000040: 89eb d3be 639f af3e a836 7b3d b909 4e3e
00000050: e28b adbd e475 07be dc66 9f3e 2968 a53e
00000060: cc69 88bd 586a 153e c766 783e cd5b ccbd
00000070: fcba 3e3d f4f9 0d3e ba4b 0c3d bef2 ec3d
00000080: 282b 9fbe 3046 aa3e 26c4 fdbe 364d 223f
00000090: fddc 863e 8c61 003d 93d5 69be f6ad 87be
000000a0: 4dcb d53c 70de edbc 9c42 d83e b1d0 5c3e
000000b0: 4f7d c73d e698 3ebe 697b c7be 91dd 19bd
000000c0: 1b46 d23d 4fab e8be 99c8 3c3f 1bad a3be
000000d0: cce9 28bc adaa 693e 8bd2 7bbc 2b56 df3e
000000e0: f8e5 e1bc c273 453e cbee 9bbe 13dd e13e
000000f0: 2a66 c23e bfcc 94be d85b 64be 5ee9 05be
00000100: 48b6 033e 54f6 ee3e 7b8f ba3c 9ea0 793e
00000110: dfb9 7f3e c40e 373d 5944 4abe 64f1 c4be
00000120: 1853 21be d9e9 ba3e 2c1d 9fbe fe64 2abe
00000130: cc92 9a3d 336d f8be 8562 593e a8f7 4dbe
00000140: 1bab 11bd c3d1 c13e 6db7 d83e 1893 3e3e
00000150: 7715 f0be c16e 2d3f c9b3 833d 0afc 29be
00000160: 02bb 4dbc 84b3 673e 12dd 283e cdba acbe
00000170: 47f4 dc3e ddbf c13e 0109 9bbe 4462 943e
00000180: 015d 983e 4ac2 033e 844f 86be 8455 40be
00000190: 2d37 f73e e81a a3be c917 dc3e 6e4a 93be
000001a0: 6529 c6be af2b d53e 994b f3be 0fb0 a6bc
000001b0: 76a9 c43c c65c 593e 8015 163d 6f2e dbbe
000001c0: e498 7d3e ac79 123d 7e92 08be b6b7 ad3e
000001d0: 304e 153d b34c b63d a790 ab3e 6e95 f93d
000001e0: 3f71 0f3f 247d dbbe 3d5e 0b3e 20b9 593d
000001f0: e4ec f8be 7e9b 0dbe 7134 f7bd 2081 563e
00000200: eacc aebe 79ad c63e f0df 21be c556 6f3d
00000210: e4d2 9fbe a589 a43e 440c 213e a83f 113e
00000220: 582a b7be a1a7 70be e9c4 a2be 9c97 943e
00000230: 2055 a3be 6f72 9a3e 59d7 ad3e 1195 6dbe
00000240: 0f43 a73e f0f5 733d a0a5 a9be 3628 04be
00000250: 1d5d d7be 9846 dc3e 3b55 433f ee9f 093e
00000260: e9ef 18be 65d9 b6bc bd6a 843e d2ed b7be
00000270: f097 7a3d 20a9 63bc 40d5 82bd d09f 9d3e
00000280: 411c 143f f950 b33e bfc8 8ebe ce77 4bbe
00000290: 00b5 a5bb 8d31 b43e 23b8 c3be 4dc5 1a3e
000002a0: f690 223e a94f 1dbf 2a05 e4be 580d fa3e
000002b0: 50df 86bd 4158 143e f4f8 943e 9b7d 5b3e
000002c0: 8e57 48bd c44d 7f3e fb95 89be 42a1 c3be
000002d0: 7f43 45bd b46c 04bf 89e1 2cbe 2cfd b23e
000002e0: 42f2 493e 0bf1 47be 737f 3d3e 398c 613e
000002f0: f53f e73e afdf bb3d 2fd9 173f 499b a6bc
00000300: 3f50 86be 72ba b73d 8208 573e a023 893e
00000310: 5bf7 d1be c890 803d 146c a7bd d049 edbc
00000320: ecf5 833e 9095 f1bd 92f0 2cbd 2109 363e
00000330: 5144 11bf 33b9 bebe 8893 8f3e 6be4 88be
00000340: b9d6 a3be bae9 d53e b598 023e 9739 75be
00000350: 168c 043d 8a6e bb3d 564c 0cbf 1d88 86be
00000360: d09f 0cbe 06fd 9bbe 180d cebe b305 cdbe
00000370: ee16 d63e 0eae 343e 8730 c1be a0ff b23e
00000380: f6d6 cebd 3561 d2be fc1c a33e 267f a2be
00000390: 8c07 87be 0078 ed3c 3155 1f3e a585 b93e
000003a0: 1aa5 0c3e a40d 003a d6e6 dcbe 7740 903e
000003b0: f74e ddbe 890d b13e 3d06 99be 9658 c63e
000003c0: 2f26 30bd 5f33 3a3d 1491 b23e 2ade cabe
000003d0: c850 e0be ce73 083f c822 533e a752 7f3e
000003e0: 282e c93e 59cb 00bd c03d f43b 80fa 2abe
000003f0: 1092 273e 0e30 91be 7abb 84be 3549 97bc
-0.5744433 0.10234477 -0.08194043 0.4886194 -0.22664638 0.2140012 -0.4019354 -0.2688147
0.35603663 -0.15454774 0.087375164 0.41232085 -0.3834818 -0.38557678 -0.09029311 -0.020482695
-0.41390637 0.3430129 0.06133142 0.20120896 -0.08473946 -0.13228565 0.31133163 0.3230603
-0.06660804 0.14591348 0.24257956 -0.09978447 0.04656504 0.13864881 0.034251906 0.11569737
-0.31087613 0.33256674 -0.49563712 0.63399065 0.26340476 0.031343028 -0.22835378 -0.2649991
0.026097918 -0.02903673 0.4223832 0.21563984 0.097406976 -0.18613014 -0.38961342 -0.037564818
0.10267278 -0.45443198 0.7374359 -0.31968006 -0.010309648 0.22819014 -0.015370022 0.43620428
-0.027575478 0.1928244 -0.30455622 0.4411398 0.3796857 -0.2906246 -0.2230066 -0.13077304
0.12862504 0.46672308 0.022773495 0.24377677 0.24973248 0.044691816 -0.19752635 -0.38465416
-0.15754354 0.36506537 -0.31076944 -0.16640088 0.075475305 -0.48520812 0.21228988 -0.20114005
-0.03556357 0.37855348 0.42327443 0.186108 -0.46891376 0.6774712 0.06430776 -0.16600052
-0.012556793 0.22627074 0.16490582 -0.33736268 0.4315512 0.37841693 -0.30280307 0.2898122
0.29758456 0.12867084 -0.2623254 -0.18782622 0.48284283 -0.31856465 0.42986897 -0.28767723
-0.38703457 0.4163489 -0.47518614 -0.020347623 0.024006587 0.21226797 0.036641598 -0.42808864
0.24765354 0.035760567 -0.13337132 0.33929223 0.03645152 0.08901348 0.33508798 0.121867046
0.56032175 -0.42868912 0.13610168 0.053155065 -0.48618233 -0.13828847 -0.12070549 0.20947695
-0.34140712 0.38804224 -0.15808082 0.05843236 -0.31215584 0.32136264 0.15727335 0.14184439
-0.35774493 -0.23501445 -0.31790856 0.2902192 -0.31900883 0.3016543 0.3395336 -0.23201396
0.3266835 0.059560716 -0.33134174 -0.12905964 -0.42063227 0.4302261 0.76301926 0.13439915
-0.14935268 -0.022320459 0.25862685 -0.3592363 0.061180055 -0.013895303 -0.063883305 0.3078599
0.5785561 0.35022715 -0.27887532 -0.1986992 -0.0050569773 0.35194054 -0.38226423 0.15114327
0.1587561 -0.61449677 -0.4453519 0.48838305 -0.06585562 0.14486791 0.29096186 0.21434633
-0.048911624 0.24932009 -0.2687224 -0.38208967 -0.048160072 -0.5172837 -0.1688291 0.3495878
0.1972132 -0.19525544 0.1850565 0.22026147 0.45165983 0.09173524 0.5931577 -0.020337718
-0.26233098 0.089711085 0.20999339 0.26784992 -0.4100903 0.06277615 -0.08174911 -0.02896586
0.2577356 -0.11796105 -0.042221613 0.1777692 -0.5674487 -0.3725067 0.28042245 -0.2673677
-0.31999758 0.41779882 0.12753566 -0.2394775 0.03236016 0.09151943 -0.5480398 -0.2627572
-0.13732839 -0.3046648 -0.40244365 -0.4004341 0.4181437 0.17644522 -0.37732336 0.3496065
-0.10099594 -0.41089788 0.3185805 -0.31737632 -0.26372945 0.028987885 0.15559842 0.36234775
0.13734856 0.0004884845 -0.43144864 0.28174183 -0.43224308 0.3458064 -0.29887572 0.3873946
-0.043005165 0.045459148 0.3487631 -0.39622623 -0.4381163 0.53301704 0.20618737 0.24933873
0.39293027 -0.031443927 0.0074536502 -0.1669712 0.16364312 -0.28356975 -0.25924283 -0.018467525

feature_extractor.0.bias f4 [128]
00000000: c042 10bf 94c4 2d3f 56f6 a0be e05b 0e3f
00000010: e8fe 153e 14b9 713e 53f7 cd3e 706d e63e
00000020: da7c 013f 8e02 c43e 90e2 673e 4de5 47be
00000030: a0c3 26be e853 0a3f b858 813e 7d66 aebe
00000040: 24e1 d23e a5ae d03d 7f33 8fbc 6a5c 1f3f
00000050: 9614 3d3e bf29 353f 7521 2d3f e1f0 3a3e
00000060: 6201 a83e c5c5 d73e 931c 1abe 5807 cdbe
00000070: 1d0d 70be 706f ffbd f543 8c3e 18c9 973d
00000080: af10 313f 76df 9a3e 17f8 5abe 6eaa d83e
00000090: bf64 193f 0cf2 33be 4e2f bf3e 302c 93bc
000000a0: 3c4b c33e 22fd 913e d381 703e 5e8d c23e
000000b0: 7f83 9f3d b4ec dbbd 8127 cdbd e15b 86be
000000c0: 7e70 163f 95a3 c2bd 80bc 993c c9ab 083f
000000d0: a05b 463e d324 003f 3080 963d 0492 a2be
000000e0: 378d fe3e 020d 4dbe 6883 113e ca19 b1be
000000f0: ea8a b9bc 9858 f93d 1256 27be b6a3 a6be
00000100: 52df 243e 5c5d 8ebd f754 c0be ef78 cf3e
00000110: 17e4 4c3e 60a9 92bd c949 e43e 06a8 0d3f
00000120: a58d a4bb 13ad 9fbb 3790 b2bd 2f72 823e
00000130: 5496 a5be cbd0 1e3f 7c27 5d3e 52eb 1a3f
00000140: d24f 103f a039 7e3d d52a 31bd 0efe c4be
00000150: d895 e03e a97c 003f 0883 7abe f58b 5d3e
00000160: 2cdb e8bd 4215 983e 9ba0 b33d 31b4 9b3e
00000170: bb4a a6bd ce6c 8d3e 3ce7 94be 4ab0 20be
00000180: 601b 19bf a227 383e 00cc 45be 443a 743e
00000190: cbd5 84be 688e 553d fcdb 15be cc2c 203f
000001a0: 6b18 fc3e 5420 193f 14cc 313e 0607 cabe
000001b0: c470 ecbd 4859 70bd a45d e73e f371 1b3f
000001c0: a187 72be adb4 72be 0eb4 863e 409f bfbe
000001d0: e8f2 0bbd 3e89 a1be 96c7 753e 262e bcbe
000001e0: 38d7 963e 2207 9bbe 989f 83bd 4196 67be
000001f0: 0afd bfbe ad94 953e 1a55 fcbd c6d9 1ebe
-0.5635185 0.6787808 -0.3143794 0.5560894 0.1464802 0.23605758 0.40227756 0.4500537
0.50581133 0.382832 0.2264502 -0.19521065 -0.16285563 0.5403428 0.25263 -0.34062567
0.41187394 0.10189561 -0.01748061 0.6225039 0.18464884 0.70766824 0.67629176 0.1825595
0.32813555 0.42143074 -0.15049963 -0.40044665 -0.23442502 -0.12472427 0.27395597 0.074114025
0.6916608 0.30248612 -0.21383701 0.42317528 0.5991935 -0.17572802 0.37340778 -0.017965406
0.38143337 0.28513438 0.23487024 0.3799848 0.07788753 -0.10738507 -0.100173004 -0.26241973
0.587654 -0.09503857 0.018766642 0.53387123 0.1937089 0.5005619 0.073486686 -0.31752026
0.49717113 -0.20024493 0.14210284 -0.34589988 -0.022649247 0.12175101 -0.16341427 -0.32546777
0.16100815 -0.06951401 -0.37564823 0.40521953 0.20008884 -0.07161212 0.44587544 0.5533451
-0.005021768 -0.004872927 -0.08718913 0.2547774 -0.32341254 0.6203734 0.21597093 0.6051532
0.56371796 0.062066674 -0.04325374 -0.38475078 0.43864322 0.50190216 -0.24464047 0.2163542
-0.11369929 0.29703718 0.087708674 0.30410913 -0.081197225 0.27622074 -0.29082668 -0.15692249
-0.59807396 0.17983869 -0.19316101 0.23850352 -0.2594436 0.052137762 -0.14634699 0.62568355
0.4923738 0.59814954 0.17363006 -0.39458483 -0.11544946 -0.058678895 0.4518863 0.6072075
-0.23684551 -0.23701735 0.26309246 -0.37426186 -0.0341672 -0.3155002 0.24001917 -0.36753958
0.29461074 -0.3027888 -0.064269245 -0.22615911 -0.3749774 0.29214993 -0.12320919 -0.15512761

feature_extractor.2.weight f4 [128, 128]
00000000: f007 023c 618c 803d 6ede 02bd 98f0 cf3c
00000010: b1a4 84bd 7a19 0fbd f4f4 afbd d69f 66bd
00000020: e520 08bd 84b5 7fbd e2a1 1a3d ce09 403d
00000030: 4fde 943d 68cb 0f3d 23a3 a0bd d34d 9dbd
00000040: 50f4 c63b e2a3 363d 8e73 e5bc 7c8c 023d
00000050: d1b6 2dbd 323e febc f711 9c3d 99f5 813d
00000060: dc4c 71bd 0050 26b8 40ec 13bc 88c8 50bc
00000070: 9628 443d 5579 923d 7419 97bd 7ef8 093d
00000080: b777 38bd 6dd0 4dbd f505 9f3d 0f39 71bd
00000090: a670 ecbc 5865 acbd 2893 02bd 000c 673a
000000a0: 1666 2bbd 5708 b3bd 65f5 23bd c0da 2abb
000000b0: 1d08 86bd 70df dcbb e8d6 85bc 9b59 a83d
000000c0: 9481 48bd f237 7a3d acb6 71bd 6a43 473d
000000d0: 719c a6bd 56e9 80bd 4859 a9bd 008c 2db9
000000e0: 5ed8 263d 105f e03b 842b 933c 87ca 3ebd
000000f0: e045 99bb 0041 e8ba c1f9 883d f576 a93d
00000100: bb4f 9bbd 41b2 79bd 7470 28bd 1297 6bbd
00000110: 722d b0bd bfec a53d 7337 9a3d 3387 01bd
00000120: f80f 233c ad14 6fbd d428 873c 7816 7dbc
00000130: c570 adbd 0ad5 183d 46d1 86bd a514 ad3d
00000140: a084 4dbb fd8a 9a3d 2046 e63c 8211 2e3d
00000150: ca75 a2bd 2091 703b 4077 a63c 760b 353d
00000160: 4ede 7bbd f0aa aebb 603c 66bd d496 e43c
00000170: c000 8abd f17c ac3d 0093 d83c a003 d6bc
00000180: 78e8 03bd 0649 663d 8a7c a2bd f653 febc
00000190: bcd3 52bd 3012 afbc 4033 823b fa1f 1e3d
000001a0: 4344 30bd f6cb 3e3d 029e 5b3d d412 50bd
000001b0: 7c9d e33c 5e0e 573d cecf 0ebd c4ee 84bd
000001c0: aad1 0a3d 58fe 4bbc f6e0 7abd f5a1 03bd
000001d0: 6216 223d 6d06 acbd 6523 a13d d0a5 4d3c
000001e0: 2977 a23d aadb 353d d761 8cbd a0ee 58bb
000001f0: 44f4 9f3c f8ec 63bd 2d87 7fbd 296d 5bbd
00000200: d1ba 83bb 574f 633c 9cf4 dd3c 9c78 7bbd
00000210: 7b0e e7ba 002e 37bd 48b8 9dbd 9880 a8bd
00000220: bda2 07bd 121b 1b3d 7de6 8dbd 0821 193b
00000230: 2cb2 cabc c618 433b 7ba0 3e3d c307 8bbd
00000240: 75a7 813d 17ee b4bd 4881 6b3d 0d41 83bd
00000250: 1abc b3bd cb74 833d 57bc ed3a e98e a0bd
00000260: 20f8 0cbb e933 86bd 7717 13bd d1ff 22bd
00000270: fded de3c 0629 33bd 99d9 6ebd 422b 313d
00000280: 4abc 1cbd 00f7 493d e730 e03c 0515 3abc
00000290: 04f5 2c3a 9305 aa3c 85b5 a23c 524e 573d
000002a0: 454c 3fbc 5bd7 86bd 0b27 9abd fae7 443d
000002b0: 52b2 743b 48a0 6f3c 83b3 bebd ec5c 19bd
000002c0: 35ac 67bd 3d8e 443d 674f a73d e7ad 9dbd
000002d0: 4201 233d 496c f53a 65eb b2bd 0faa 87bd
000002e0: 823e c63c 7bb9 8b3d 9c6e b23c 7b01 b6bd
000002f0: cdf1 58bd 813e 2ebd 6886 03bc 2855 8f3c
00000300: a733 273d b8c1 333c cf84 8abd 9d88 183d
00000310: b610 803d 00ca 00b9 4c64 083d 29f7 19bd
00000320: f555 c0ba 9d80 a7bd 04e7 4abd 4ebb 003d
00000330: 9064 3bbc c1e1 5f3c d216 aebd 573e 48bd
00000340: 39dd 613d 9589 0ebd f897 243c d045 3abd
00000350: f15a 21bd 617f 8a3d cf9a 3abd 1373 8bbd
00000360: 8b34 66bc c234 ffbc 71df 14bc 77b4 863d
00000370: 244e a2bd 803d 863a 7cc0 a5bd ddb5 0dbd
00000380: d683 9cbd 7941 723d 6112 9b3d c295 7bbd
00000390: 459e 85bd 8680 6a3d a959 c7bb 957d 743d
000003a0: 6c1d 8d3b ff57 703d b762 4b39 8672 213d
000003b0: 7d07 b1bd 0dfe bf3b e193 833c 4aae 8fbd
000003c0: a933 8ebd a7a9 7c3d aeee 303d 9a58 a7bd
000003d0: ef80 ab3d 1c44 b13c 2e1e 05bd 0a7f 613d
000003e0: 6766 833d ad41 ad3d 1a80 e6bc ae27 5a3d
000003f0: 38a8 adbc 5078 a23d cb7b c1bd 4b58 6fbd
0.007936463 0.06276775 -0.031950407 0.025383279 -0.06476725 -0.034936406 -0.08591643 -0.056304775
-0.033234496 -0.062428966 0.03775204 0.04688435 0.072689645 0.035106093 -0.07843616 -0.076808594
0.006071605 0.044589885 -0.028009202 0.031872258 -0.042410675 -0.031035516 0.07620614 0.06345672
-0.05891119 -3.965199e-05 -0.009028494 -0.012743123 0.04789027 0.071520485 -0.07377902 0.033684246
-0.045036044 -0.0502476 0.07764808 -0.058892306 -0.028862309 -0.08417767 -0.03187862 0.0008813739
-0.041845404 -0.08741825 -0.04002895 -0.0026070327 -0.06544516 -0.006740503 -0.016337827 0.08220216
-0.0489517 0.06108851 -0.0590121 0.048648275 -0.081353076 -0.06294505 -0.08268982 -0.0001655072
0.040733688 0.00684727 0.017965086 -0.046579864 -0.004677519 -0.0017719567 0.06688262 0.082746424
-0.07583567 -0.06096101 -0.04112287 -0.05751712 -0.08602418 0.08101796 0.07530107 -0.031623077
0.009952538 -0.058369327 0.01649896 -0.0154472515 -0.08468775 0.037312545 -0.065828845 0.08451203
-0.0031359568 0.07546041 0.02810961 0.042497166 -0.07932623 0.0036707595 0.020320535 0.044200383
-0.061491303 -0.005330436 -0.05620992 0.027903952 -0.06738424 0.08422268 0.026437283 -0.026124775
-0.03220412 0.056221984 -0.0793391 -0.031045895 -0.051471457 -0.021370977 0.0039733946 0.038604714
-0.04303385 0.04658123 0.053617485 -0.050799206 0.027785055 0.052503936 -0.034866147 -0.064908534
0.033891357 -0.012450777 -0.061249696 -0.032136876 0.039572127 -0.08399663 0.07868079 0.01255174
0.07932884 0.04439894 -0.06854599 -0.0033101216 0.019525655 -0.055645913 -0.062384773 -0.0535709
-0.004020073 0.013873897 0.027094178 -0.06139432 -0.0017628217 -0.044721603 -0.077011645 -0.08227652
-0.033114184 0.037867613 -0.06928728 0.0023365635 -0.024743162 0.0029769405 0.046539765 -0.0678859
0.06330768 -0.088344745 0.05749634 -0.06408892 -0.08776112 0.06418761 0.0018137795 -0.07839758
-0.0021510199 -0.0655287 -0.03591105 -0.039794747 0.027213091 -0.043740295 -0.058312986 0.043254144
-0.038265504 0.049307823 0.027367068 -0.0113575505 0.00065977895 0.020754611 0.019861946 0.052564926
-0.011675899 -0.065840445 -0.07526978 0.048072793 0.0037337733 0.014625616 -0.09311583 -0.037442133
-0.056560714 0.04798721 0.08169442 -0.07699185 0.03979612 0.0018724288 -0.08736304 -0.06624233
0.024199728 0.06822487 0.021781258 -0.08887001 -0.052964974 -0.042540077 -0.00802765 0.01749666
0.040820744 0.010971479 -0.067636125 0.03723966 0.06253187 -0.00012282282 0.033298776 -0.037589226
-0.0014674055 -0.08178828 -0.04953672 0.031428628 -0.01143755 0.013664664 -0.085004464 -0.048887577
0.055142615 -0.034799177 0.010045998 -0.045476735 -0.03939337 0.06762577 -0.045557793 -0.06809058
-0.014050613 -0.031153087 -0.009086476 0.0657739 -0.079250604 0.0010241717 -0.08093354 -0.034597266
-0.07642333 0.05914447 0.07571865 -0.061422117 -0.06524328 0.057251476 -0.0060836864 0.059690077
0.004306486 0.05867767 0.00019396363 0.03941586 -0.086440064 0.0058591426 0.016061725 -0.07015665
-0.06943447 0.06168523 0.043196373 -0.08171196 0.083742015 0.021638922 -0.032499485 0.055052795
0.06416016 0.08459792 -0.028137255 0.053260498 -0.021198377 0.07933104 -0.0944744 -0.058433812

feature_extractor.2.bias f4 [128]
00000000: 2046 343c e5c7 e3bc e032 8c3d 19dd de3d
00000010: c9c3 a2bd 4add 8cbd fbda e33d 7fc2 2fbd
00000020: 934a fc3d 6a99 823d 17eb 853d 0582 8e3d
00000030: 1a05 013e eb6c e73d d649 eebc 6244 da3d
00000040: b2cc 363d 5619 903d 1ac5 0bbd 51e8 953e
00000050: 6f6a 303e 579a 4f3d 6f94 b03d 4f63 01bd
00000060: 31fe b13d 3d9a 7e3d c091 98bd 6dee 2d3d
00000070: 72fd 3e3d 85d5 9dbd 5e46 283d 60ee 503e
00000080: 14a0 a6bc 84de 023e 4598 933d 6630 073c
00000090: c0b2 433c 86ba 4d3d 4f1d babd 4f8e 883d
000000a0: eb09 e53d c672 ed3c c6db f0bc 3554 b83c
000000b0: 147f 9cbd 52cd b2bd 067f 5c3d b64b 553d
000000c0: 382a 7c3d 8e2b 223d cc20 36bd 3d2c 4cbd
000000d0: 589c 383e 0918 153e 46ad 983d 8343 4dbc
000000e0: 757a 583e 8a68 5a3d a2d0 edbc 0fe6 60bd
000000f0: dfaf 4dbd 2482 3f3d e711 8bbd 1d78 5cbd
00000100: e96f 8dbd 74df b0bd c047 d4ba b666 f3bc
00000110: 94a8 8ebd a346 933d 4f2b 28bd 40c4 3bbb
00000120: d423 9ebc 1cdc 7fbd e6b0 3b3e cfb1 93bc
00000130: c0af 95bd 4b6e 563e 80de 4f3e 1e66 313d
00000140: 49cc af3c 81d9 de3d 00fe 493e 78b2 053e
00000150: 91af edbb a603 4ebd 52a6 a6bd b88d 373e
00000160: 9878 923d def4 9abd 35d9 b83c 0784 df3d
00000170: 4f56 233d a581 2cbb 1f8e ce3d f025 45bb
00000180: d4de 123e 81a1 a03d 0f84 c93d a0c5 8abd
00000190: 5f84 8bbd e5ed 3c3d fd46 9e3d f025 a63d
000001a0: b1cf 773c 8281 97bd 6966 843d 5f4f 0a3e
000001b0: 3591 653e d1b1 18bd f485 373e 1aad 4b3d
000001c0: d901 6bbd f830 a63d e29b 353e 0eb6 10bd
000001d0: 9402 8ebd 76f7 b3bd 0cad 823c 26f5 0d3e
000001e0: cb99 1a3e 3c58 7abd 707b 31bd f55b 0abd
000001f0: e6bc 2c3d 3c4c c73c f603 163e 85a2 953d
0.011003047 -0.027805278 0.06845641 0.10882015 -0.07947499 -0.06878145 0.111257516 -0.042910095
0.123189114 0.06376918 0.065389805 0.06958393 0.12599602 0.11300071 -0.029087942 0.10657574
0.044628806 0.070360824 -0.034123518 0.29278806 0.17228101 0.0506843 0.086220615 -0.03158885
0.08691061 0.06215881 -0.074496746 0.04246371 0.046628423 -0.07706741 0.041082732 0.20403433
-0.020340003 0.12780195 0.072067775 0.008251285 0.011944473 0.05022671 -0.090876214 0.06667768
0.11183532 0.028985392 -0.029401671 0.02250109 -0.07641426 -0.08730568 0.053832076 0.052074157
0.0615637 0.03959232 -0.04446487 -0.049846876 0.1802839 0.1455995 0.07454924 -0.012528303
0.21140464 0.053322352 -0.029030148 -0.0549069 -0.050216552 0.04675497 -0.06790524 -0.053825486
-0.06906111 -0.0863637 -0.00161957 -0.029712062 -0.069657475 0.07191207 -0.041056927 -0.002865091
-0.019304194 -0.062465772 0.183292 -0.018029122 -0.07308912 0.20940511 0.20299721 0.043310277
0.021459715 0.10881329 0.197258 0.13056362 -0.007253595 -0.05029645 -0.08137192 0.17925155
0.07151908 -0.07566236 0.02256451 0.10913854 0.039877232 -0.0026322391 0.10085701 -0.0030082427
0.14342815 0.078433044 0.09839641 -0.06775975 -0.06812357 0.04612531 0.07728384 0.08112705
0.015125201 -0.073977485 0.06464846 0.1350684 0.22418673 -0.037278954 0.17922193 0.04972563
-0.05737481 0.08114809 0.17735246 -0.03532987 -0.069340855 -0.08787434 0.015951656 0.13863048
0.1509773 -0.061119303 -0.04333061 -0.033779103 0.042172335 0.024328344 0.14649948 0.07306389

policy_mean.weight f4 [1, 128]
00000000: 4352 983d e085 24ba c3ad 8abd 5f33 2e3d
00000010: c6fb 383d 1d5f 4abd 92e6 6e3d f673 6dbd
00000020: 706e a63d a6a8 2f3d d33b 9c3c 25da d0bb
00000030: 1b10 67bd aaee 61bd 6eb9 f1bc 1565 15bd
00000040: 800a edba 775b 83bd 5fb7 32bd d561 9d3b
00000050: 3b0a 723c 8445 28bd a064 2e3b 9727 90bd
00000060: 2e93 a53d 043c 2039 1ad7 0ebd 0308 8c3d
00000070: 17ed a93d 53c8 1bbd 6e23 2f3d 6b14 88bc
00000080: 46a2 acba d2bd 2cbd d0bb 31bd 7842 2e3d
00000090: f2fc 8abd 67ae 20bd f2d6 04bc 4528 81bc
000000a0: 44a2 93bb f2e1 83bd ba8e 723d 76d4 b03c
000000b0: 83fd 3fbd 377b 823d c0bd c73b 19c2 2dbd
000000c0: 2281 36bd c084 3f3c 1a0c 3e3d 00c2 c8ba
000000d0: 0261 483d 7f4c 03bd 5f32 313d 0bfa c9bc
000000e0: 6fa9 0bbd 86d6 52bd 260e 173d a797 ad3d
000000f0: 70dc 833d 6c83 85bc eba3 a7bd 5ed3 903d
00000100: 2ee2 6a3d c297 123d d81e cfbc 4fb3 a9bd
00000110: b25f 8ebd 997f 8bbd 472c 8ebd b33b 983d
00000120: 6582 61bd 64fb 8dbc 3c0f 46bd 06d6 8cbd
00000130: e257 383d 3965 183c 4964 11bd 1058 f13b
00000140: 2a3a 61bd 49b9 17bd 5bd1 1bbd e1eb 31bc
00000150: d858 b0bd 609d 15bc 61dd 5abd 3b8f 05bb
00000160: ada9 853d f015 cebc 183e a83d 0197 6c3d
00000170: 9ca4 9f3d 8e47 45bd 0467 52bd e8a2 f53c
00000180: b39a 4b3d 26ac acbd cb39 8cbd e8d4 333c
00000190: 7cb0 27bd d466 2bbd ddff b43d 9694 1cbd
000001a0: 6468 313d 2b43 a23d 1d3d 923d cbce 80bd
000001b0: e89e c7bc 3948 41bd e6fe 86bd 84bc 643d
000001c0: 6ed1 34bd 835a a1bc af72 773d 3862 723c
000001d0: c0ab 16bb f3c6 823c d8ee 6bbc f531 e73a
000001e0: 2bca 863d 1d85 24bd 1868 833d 1c94 9fbb
000001f0: 0cec 68bd be0c 7f3d 788b 993d e829 6cbd
0.07437565 -0.00062760524 -0.06771424 0.04252946 0.045161985 -0.049407113 0.058325358 -0.057971917
0.08126533 0.042885445 0.019071495 -0.006373661 -0.056411844 -0.05515925 -0.029507365 -0.036473352
-0.0018084794 -0.0641393 -0.043631908 0.0048029223 0.014772947 -0.04108192 0.002661027 -0.07038801
0.08084713 0.00015281147 -0.034873106 0.068374656 0.082971744 -0.03803284 0.042758398 -0.016611299
-0.001317092 -0.042173214 -0.043392003 0.04254386 -0.06786527 -0.039228823 -0.008107888 -0.015766272
-0.0045054276 -0.0643958 0.059218146 0.021585684 -0.046872627 0.063711576 0.006095618 -0.042421434
-0.044556744 0.011689365 0.04639826 -0.0015316606 0.04892064 -0.032055374 0.04326093 -0.024655363
-0.03409713 -0.051474117 0.036878727 0.08476191 0.064385295 -0.016298018 -0.08185562 0.07071565
0.057344608 0.03578926 -0.025283262 -0.082861535 -0.06951846 -0.06811447 -0.06942039 0.07433262
-0.055055995 -0.017331786 -0.048354372 -0.06876759 0.045005687 0.009301477 -0.03549603 0.007365234
-0.05498711 -0.037041936 -0.038041454 -0.010859461 -0.086106956 -0.009131759 -0.05343378 -0.0020379561
0.06526504 -0.025156945 0.082149684 0.057761196 0.077950686 -0.048163943 -0.051367775 0.029984906
0.04970808 -0.08431272 -0.06846961 0.010976054 -0.040939793 -0.04184611 0.088378645 -0.03822764
0.043312445 0.079229675 0.07140563 -0.06289443 -0.024367765 -0.047188018 -0.06591587 0.055843845
-0.04414504 -0.01969648 0.060412105 0.014793925 -0.0022990555 0.015964007 -0.0144002065 0.001763879
0.06581529 -0.04016601 0.06416339 -0.004869951 -0.056865737 0.06226801 0.07497305 -0.057657152

value.weight f4 [1, 128]
00000000: f56e 57bd 0f92 693d e6c6 debd c672 e4bd
00000010: 34e6 4bbd c915 3c3d 1d40 5abe 5456 993d
00000020: 98b6 fabd 50f0 00be ddc1 2bbe c006 b43c
00000030: fd84 1ebe 9746 d3bd 79dd 833d 7d61 a0be
00000040: cf85 a3bd 4fc8 23be a605 083d ca6d b3be
00000050: f328 4bbe 6385 ab3b a0b2 afbb a097 a23d
00000060: 475e 09be fa5e 983d f621 1b3c eff7 1d3b
00000070: bee0 b4bd 6c23 8e3d 16ed 10bd 842a 1fbe
00000080: 2f18 0c3a 534b 2bbe 714e 903d e98d 263d
00000090: 6412 3ebd 1752 57bd ce5d 503d 2355 4bbe
000000a0: 5f0f 51be c76c bebd f427 72bd 6dac fc3b
000000b0: e11b 593c 76b4 033d 04af 03bd 3861 a63c
000000c0: 20c6 04be d8a9 093c a004 c4bb 5c38 52bd
000000d0: 1399 30be 5573 22be c004 813d 9b8c d33b
000000e0: 99e5 15be 3dbe a4bb 4c8f 1cbd 629a 83bd
000000f0: 68b6 d43c c69c 5d3c 47b8 313c 3acc 2d3c
00000100: 032a 983d 2525 893d d1a8 a0bd 4020 df3b
00000110: 28e6 b13c 50b4 b6bc faff 803d 9cde 7cbd
00000120: 004e 483a 307d b0bd ca75 36be 0eb0 853d
00000130: a090 ec3c 085c 34be 01a8 4bbe f05a d23b
00000140: c6e4 563d 11fb 4cbe d1f8 4bbe 7be5 3bbe
00000150: 98ec 5cbd 5a05 69bd afbf 7cba 3006 63be
00000160: 3282 643d 060a 563d 371b d5ba afa4 bebd
00000170: be03 0abe ac93 dd3c 0e69 c6bd 0486 9d3d
00000180: eedf 4fbe dc53 f03c 0d62 c1bd 1e23 283d
00000190: 44f0 02bd e50f 7fbd bcc4 b3bd 2305 ffbd
000001a0: 2f29 87bd 9086 d03c 2623 6a3d ed2a 19be
000001b0: bd91 f7bd a15f 323d 1b28 ebbd e546 54be
000001c0: 9e9e 313d 8bfc 45be 011d f6bd a0cf 30bb
000001d0: b4fc 93bc 5fa0 4d3c 418a 903d 5f1d 57be
000001e0: 0b30 17be 482b a6bc 83c2 443d daf2 c8bb
000001f0: 9ab2 6a3d 302d 8d3b 486c 5dbe 98c4 b9bc
-0.05259605 0.057024058 -0.108777806 -0.11154704 -0.049780086 0.045919213 -0.2131352 0.07487169
-0.12241858 -0.12591672 -0.16773172 0.021975875 -0.15480419 -0.10316198 0.06438727 -0.31324378
-0.07984506 -0.1599438 0.03320851 -0.350447 -0.1983984 0.005234407 -0.00536187 0.079390764
-0.1341487 0.0743999 0.009468546 0.0024104079 -0.08831929 0.0694035 -0.035382353 -0.15543562
0.000534418 -0.16727953 0.070462115 0.04066268 -0.046404257 -0.05256852 0.05087071 -0.19856696
-0.2041602 -0.092980914 -0.059120134 0.0077109844 0.013251276 0.032154523 -0.03214933 0.02031003
-0.12966204 0.00840231 -0.0059819967 -0.05132328 -0.17245893 -0.15864308 0.06299734 0.0064559705
-0.14638366 -0.005027561 -0.038222596 -0.064259306 0.025965884 0.013526147 0.010847158 0.010607773
0.07429888 0.06696538 -0.07844699 0.0068092644 0.021716192 -0.022302777 0.06298824 -0.061735734
0.00076410174 -0.086176276 -0.1781837 0.065277204 0.028877556 -0.17613232 -0.19888307 0.006419532
0.05246427 -0.20017649 -0.19919135 -0.18349259 -0.05393657 -0.05688987 -0.00096416 -0.22170329
0.055788226 0.052255653 -0.0016258721 -0.09308755 -0.1347799 0.027047954 -0.09688006 0.07691577
-0.20300266 0.029336862 -0.0944253 0.041049115 -0.031967416 -0.062271018 -0.087777585 -0.124521516
-0.06599652 0.02545479 0.057162426 -0.14957781 -0.12088344 0.04354823 -0.11482259 -0.20730169
0.04336416 -0.19334619 -0.12017251 -0.0026979223 -0.018064834 0.0125504425 0.0705762 -0.21007298
-0.1476442 -0.02028431 0.048037063 -0.006132466 0.057299234 0.0043083653 -0.21623337 -0.022676751

exp_avg f4 [128, 5]
00000000: a8f6 b339 f269 3039 1208 94bb f1f2 21bc
00000010: 9314 f6b9 16a7 9439 cd7d 113b 0103 223c
00000020: e5b8 613c 4447 c73a 0000 0000 0000 0000
00000030: 0000 0000 0000 0000 0000 0000 8680 e638
00000040: 7e5c 9c3a 0fd2 513b 9d39 143c 4a62 a239
00000050: 6887 a3b7 d79d ff38 e3ce a63a 0bcc 013b
00000060: f42f 3139 ca13 6538 f814 5c39 7b73 d639
00000070: dd81 8a3a 8b07 1537 3bad 3fb9 2f75 00b9
00000080: a012 12b8 d527 413b 6f5e d5b8 febd 09ba
00000090: fb80 4bb9 c15c 863b 447b 433c 55a9 9939
000000a0: 5cce 93b6 58ef 7139 224d a53a 1b91 523b
000000b0: cf3f a638 2a3a 363b cf1f 383c 54cf 393c
000000c0: b2e5 013d ab10 5436 4df2 65b9 5cae ad38
000000d0: 78bb 7d3b 7bde 0c3c 26f2 c239 2536 7c39
000000e0: c9bb 053a c5c7 913b fd4b 883b 2636 fc39
000000f0: 0000 0000 0000 0000 0000 0000 0000 0000
00000100: 0000 0000 4b31 25b8 5e1d 2239 c495 c53a
00000110: 0bc3 643b 62fe fa38 1c80 79b8 c4b7 6538
00000120: eae1 573a 10c6 093b 7b01 eb38 ec81 2d3a
00000130: ec31 63b8 cb07 a738 e293 a6bb 0000 0000
00000140: dcff b636 6ccb 1239 b830 8e3a 3320 c53a
00000150: 3428 1c39 9d66 7bba 0139 2cba 0193 4dba
00000160: 4cb9 de3b 0000 0000 203e 2db8 ab19 a438
00000170: 7b26 b23a 0a77 0f3b 28a5 3839 4bca a7b9
00000180: f344 bdb8 b1df aa3b c68e 243c 2358 0b3a
00000190: 84a6 a93a 4d2c 793b 1f51 833c 9bfd 973c
000001a0: 9619 973a d13b 7739 228c 6a3b f0a7 7e3c
000001b0: 500d f33c c6df 703a 599b ed38 e2ab 073b
000001c0: 399d d63b 39dc 913c 79bc 2c3a d447 aeb6
000001d0: e2fa 0139 78fe 8b3a d65d d63a 11de 1039
000001e0: 4857 8739 d98f 7f3b a858 363c 460a 013d
000001f0: a1da 963a 9397 023a 3b07 873a 486c 193c
00000200: 0dda 0f3c 9397 823a 9de8 fe38 90d1 a0b9
00000210: eb28 bcba 3065 8fbb 9b4a 0538 0000 0000
00000220: 0000 0000 0000 0000 0000 0000 0000 0000
00000230: 3e78 8f39 3883 ab3a 8ea0 3cb9 45b3 e539
00000240: 0851 cf35 0000 0000 0000 0000 0000 0000
00000250: 0000 0000 0000 0000 787a f7b9 3176 3a38
00000260: 150a f83b 8a5c 893c d989 403a 0000 0000
00000270: 0000 0000 0000 0000 0000 0000 0000 0000
00000280: 1bf8 8bba 3ddd 9dba 2c23 b6ba eb0b b03b
00000290: 0000 0000 7a7e 8bb9 c9e1 8c38 09c9 883b
000002a0: 3ca4 253c 9939 b539 2264 cb39 264f 8f39
000002b0: 440b 83bb b51f 25bc 7918 afb9 987a a9b8
000002c0: a7a7 8dba f946 c13b 3cbe b53b 9a56 7a3a
000002d0: 8c28 0db9 06d8 4638 1447 f63a d6aa ae3b
000002e0: 108e d538 5fd6 be38 34e0 3739 f22e 93b9
000002f0: 0e9a 85ba 0ee9 8fb7 cff7 eeb8 e063 733a
00000300: 1a4e 493b 9d86 093c 0056 2e38 0000 0000
00000310: 0000 0000 0000 0000 0000 0000 0000 0000
00000320: 67f4 feb8 8e51 0439 446b 283b 59f5 bc3b
00000330: 0bdb 7939 0000 0000 0000 0000 0000 0000
00000340: 0000 0000 0000 0000 a809 16b9 7ff0 f039
00000350: 3b45 963b 1789 133c 70fc 373a 0000 0000
00000360: 0000 0000 0000 0000 0000 0000 0000 0000
00000370: 7061 bfb7 7ddb 1e38 5e38 c2b8 ada2 8c3a
00000380: eca1 d1b8 0000 0000 0000 0000 0000 0000
00000390: 0000 0000 0000 0000 8c8b af38 2bb5 5839
000003a0: 6a54 b0b8 d224 40b8 97bd 28b8 c65f dc39
000003b0: 68c3 793a c4fd ae3b 5b64 9d3b c65f 5c3a
000003c0: 12bd e2b8 53c7 93ba 6eba ad3b ef82 a23b
000003d0: 48d7 693a 8195 de37 83fb 1039 b773 da39
000003e0: d5f3 6f3a b9d2 b237 0000 0000 0000 0000
000003f0: 0000 0000 0000 0000 0000 0000 763b 5637
0.00034325314 0.00016824136 -0.0045175636 -0.009884582 -0.00046936105 0.00028353248 0.0022200227 0.0098884115
0.013776992 0.0015203734 0.0 0.0 0.0 0.0 0.0 0.00010991194
0.001192942 0.0032016074 0.009046939 0.0003097228 -1.9494168e-05 0.000121887475 0.0012726452 0.0019805457
0.000168979 5.4616285e-05 0.00020988646 0.000409033 0.0010567267 8.882848e-06 -0.00018279713 -0.00012250686
-3.482646e-05 0.0029473205 -0.00010174221 -0.00052544463 -0.00019407638 0.0041004126 0.011931244 0.00029308596
-4.404965e-06 0.00023072714 0.0012611488 0.0032129947 7.927382e-05 0.0027805665 0.0112380525 0.011340935
0.031713195 3.1600164e-06 -0.00021929406 8.28176e-05 0.0038716476 0.008597965 0.00037182978 0.00024052763
0.00051015295 0.004448863 0.004159449 0.0004810553 0.0 0.0 0.0 0.0
0.0 -3.9384973e-05 0.00015460464 0.0015074541 0.0034906294 0.000119683114 -5.9485537e-05 5.4769e-05
0.0008235263 0.0021022595 0.00011205949 0.0006618786 -5.416751e-05 7.964632e-05 -0.005083547 0.0
5.4538086e-06 0.00013999426 0.001084826 0.0015039503 0.00014892296 -0.00095901807 -0.00065697735 -0.00078420347
0.0067969915 0.0 -4.1304273e-05 7.8249104e-05 0.001359179 0.0021891021 0.00017609133 -0.00032003442
-9.025065e-05 0.0052146544 0.010043805 0.00053155626 0.0012943302 0.003802079 0.016029892 0.018553546
0.0011528011 0.00023578039 0.0035789092 0.015542969 0.029669434 0.0009188618 0.000113299764 0.0020701815
0.006549504 0.017805206 0.0006589364 -5.193966e-06 0.0001239586 0.0010680696 0.001635487 0.00013815636
0.00025814236 0.0038995652 0.011129536 0.03150394 0.0011509248 0.0004981693 0.0010301837 0.009364195
0.008780015 0.0009963386 0.000121549914 -0.00030673714 -0.0014355456 -0.004376076 3.1779153e-05 0.0
0.0 0.0 0.0 0.0 0.00027364673 0.0013085371 -0.00017988888 0.0004381185
1.5446285e-06 0.0 0.0 0.0 0.0 0.0 -0.00047202758 4.445593e-05
0.0075695612 0.016767759 0.00073447597 0.0 0.0 0.0 0.0 0.0
-0.00106788 -0.0012044084 -0.001389598 0.0053725145 0.0 -0.00026606378 6.717776e-05 0.004174356
0.010109957 0.00034565924 0.00038793782 0.00027334056 -0.0039991457 -0.01007836 -0.00033396835 -8.081383e-05
-0.001080741 0.005898353 0.0055463593 0.0009549648 -0.00013461913 4.7408066e-05 0.0018789493 0.005330424
0.00010183093 9.099836e-05 0.00017535762 -0.00028073002 -0.0010193007 -1.7155453e-05 -0.00011394882 0.0009284597
0.0030716718 0.008393911 4.1564927e-05 0.0 0.0 0.0 0.0 0.0
-0.00012157187 0.00012618882 0.00256987 0.0057665524 0.0002382809 0.0 0.0 0.0
0.0 0.0 -0.00014308712 0.0004595555 0.0045858896 0.009004853 0.0007018512 0.0
0.0 0.0 0.0 0.0 -2.2814347e-05 3.787455e-05 -9.26114e-05 0.0010729634
-9.996057e-05 0.0 0.0 0.0 0.0 0.0 8.370643e-05 0.00020666856
-8.408057e-05 -4.581066e-05 -4.023089e-05 0.00042033027 0.0009527714 0.00534031 0.004803223 0.00084066053
-0.00010811737 -0.0011274613 0.005301765 0.004959456 0.0008920324 2.653408e-05 0.00013826606 0.00041666414
0.000915346 2.1317379e-05 0.0 0.0 0.0 0.0 0.0 1.2769238e-05

exp_avg_sq f4 [128, 5]
00000000: 10a7 f735 6645 c637 e994 5e38 76d6 ed38
00000010: ff95 0135 c0e7 0b36 b3d5 c837 b6c3 5538
00000020: 1db0 ed38 c850 5635 0000 0000 0000 0000
00000030: 0000 0000 0000 0000 0000 0000 7ddf 8c35
00000040: 2c9c 3837 1691 f237 c15c 6a38 50d5 af34
00000050: d576 e634 33d9 9536 bd15 dc36 15c7 6b37
00000060: 20dc 5634 b2e2 0234 7b9d 8835 fc98 a635
00000070: 61d0 2836 b9e1 9433 70b9 7235 993a 0f37
00000080: 20fc 0c37 87cb e137 0016 5634 0cfe 3836
00000090: c4fb 1938 a5f1 8b38 b977 2239 f1bb 3135
000000a0: 66c4 aa34 40e2 8136 5a4b e636 a1ff 6b37
000000b0: f224 1c34 9def de35 9a4e 8537 e0ca af37
000000c0: 2512 f738 4d09 8331 5fc3 ef35 21cc c237
000000d0: bc60 4138 cff3 cd38 f566 0d35 e41f 3c34
000000e0: 90a6 3136 85bd c037 e241 7d37 aaa5 3e35
000000f0: 0000 0000 0000 0000 0000 0000 0000 0000
00000100: 0000 0000 bd98 9c34 0986 7b36 be2a e836
00000110: 61ca 7337 ce41 e333 72da a734 74f1 5736
00000120: d47b 8a36 6713 4237 0b24 8633 76fa 8435
00000130: c83d fa36 fb77 7535 fb34 1638 0000 0000
00000140: 74bd 3534 038d e935 4a15 2f36 f50c b636
00000150: 4bf3 c533 3c9a d735 93f5 5337 b20b 8236
00000160: 0fb3 4b38 0000 0000 a2c2 a334 e185 6b36
00000170: ada3 be36 50c8 4a37 9922 0c34 b897 fb35
00000180: 85cb c137 feb4 5538 8d13 e338 1820 0a35
00000190: 422a 2936 89d7 f637 8414 6139 ad97 5539
000001a0: 4372 8436 6505 4237 47d1 0b39 7715 a239
000001b0: cdfd 373a 71b9 5836 cf87 8336 af6d 2a38
000001c0: cc6c f738 f313 5b39 9166 9b35 db62 7134
000001d0: 953c 1d36 759a 5a36 1dc1 e736 dc79 f233
000001e0: 7a1e 6237 6e47 1939 3e85 c739 bcdf 433a
000001f0: fa5e 8036 897d 7535 4a62 6737 9f2c fb38
00000200: 4912 a238 897d 7536 3a08 8234 a2f9 4c36
00000210: 88fa 8f36 843f 7937 bf64 7733 0000 0000
00000220: 0000 0000 0000 0000 0000 0000 0000 0000
00000230: 1354 7b34 c31e 7a36 5217 7037 c8d6 9337
00000240: ad4b 3d34 0000 0000 0000 0000 0000 0000
00000250: 0000 0000 0000 0000 3aca b636 a4c0 8a38
00000260: a5ff 0639 3162 9939 ddde 9f35 0000 0000
00000270: 0000 0000 0000 0000 0000 0000 0000 0000
00000280: 4952 0936 c475 9d37 ce1b fe36 bb05 9838
00000290: 0000 0000 4bdb 2436 8d55 0838 55b9 8938
000002a0: 6a5e 1139 5591 4435 0ff1 2036 6cba 0238
000002b0: 676d 8f38 866e 1639 2c25 3835 9d1b 9b35
000002c0: 1c63 9137 9571 c538 23be b238 f208 c235
000002d0: aa7d 5435 757f 2c37 5efa a837 e933 2e38
000002e0: 9625 9234 cf31 6734 d870 ea35 aac7 2736
000002f0: 0b13 b436 b428 e633 6e0f 5f35 6e8d 1837
00000300: 1cd9 1637 0b91 2e38 14d1 f932 0000 0000
00000310: 0000 0000 0000 0000 0000 0000 0000 0000
00000320: 8339 6335 17b1 3837 a749 ad37 95fb 3838
00000330: 73dc 8a34 0000 0000 0000 0000 0000 0000
00000340: 0000 0000 0000 0000 2e39 e835 1873 ad37
00000350: f3bd 2238 d629 c138 5e26 2435 0000 0000
00000360: 0000 0000 0000 0000 0000 0000 0000 0000
00000370: e006 8c34 9482 3f36 62ec 5b36 bec3 ec36
00000380: 6144 2c34 0000 0000 0000 0000 0000 0000
00000390: 0000 0000 0000 0000 2784 7e33 b453 1035
000003a0: a864 8635 f0af 0336 0e62 1c33 8f9f f534
000003b0: b64e cc36 6299 7f38 0eb7 2538 8f9f f535
000003c0: f628 7d35 f0c3 7637 dfbf a138 683f 9138
000003d0: 5a12 9e35 0ee3 4834 d9e2 f035 dd72 1036
000003e0: a3ca 9f36 97f6 c133 0000 0000 0000 0000
000003f0: 0000 0000 0000 0000 0000 0000 802d dd33
1.8451556e-06 2.3635755e-05 5.3067608e-05 0.00011340987 4.827452e-07 2.084751e-06 2.394137e-05 5.0965427e-05
0.00011333844 7.9838765e-07 0.0 0.0 0.0 0.0 0.0 1.0495856e-06
1.1003616e-05 2.8916209e-05 5.587633e-05 3.2751495e-07 4.29273e-07 4.4658314e-06 6.5590416e-06 1.4053444e-05
2.0010384e-07 1.2189665e-07 1.0178622e-06 1.2412488e-06 2.5155243e-06 6.932846e-08 9.042187e-07 8.5371075e-06
8.403353e-06 2.6916865e-05 1.9938307e-07 2.7566011e-06 3.6712518e-05 6.673046e-05 0.00015494124 6.621113e-07
3.1807866e-07 3.8708386e-06 6.863306e-06 1.406661e-05 1.4542073e-07 1.6610026e-06 1.5891437e-05 2.0956097e-05
0.000117812575 3.813659e-09 1.7863748e-06 2.3221657e-05 4.6104877e-05 9.8205746e-05 5.2676415e-07 1.7520466e-07
2.6472007e-06 2.2976436e-05 1.5095315e-05 7.102159e-07 0.0 0.0 0.0 0.0
0.0 2.9168396e-07 3.7479933e-06 6.9191146e-06 1.4531049e-05 1.0582481e-07 3.1265114e-07 3.217804e-06
4.127136e-06 1.1567819e-05 6.2464174e-08 9.90766e-07 7.457773e-06 9.1444207e-07 3.581213e-05 0.0
1.6925861e-07 1.7400893e-06 2.6089424e-06 5.425531e-06 9.217782e-08 1.6063636e-06 1.2633757e-05 3.8756634e-06
4.8565733e-05 0.0 3.050273e-07 3.5095657e-06 5.6814956e-06 1.2086777e-05 1.3051103e-07 1.8745113e-06
2.3102164e-05 5.095172e-05 0.00010827845 5.145571e-07 2.520756e-06 2.9425852e-05 0.00021465315 0.00020369767
3.9472084e-06 1.1564557e-05 0.00013334035 0.0003091504 0.0007018715 3.229445e-06 3.9199144e-06 4.063331e-05
0.00011798143 0.00020892899 1.1578251e-06 2.2480837e-07 2.3430086e-06 3.2574437e-06 6.906818e-06 1.1291169e-07
1.3477746e-05 0.00014617827 0.0003805551 0.00074719987 3.825754e-06 9.145229e-07 1.3791558e-05 0.00011976924
7.728168e-05 3.6580916e-06 2.4220373e-07 3.0543674e-06 4.290898e-06 1.4856345e-05 5.7600797e-08 0.0
0.0 0.0 0.0 0.0 2.3406783e-07 3.7270809e-06 1.4310544e-05 1.762378e-05
1.7629527e-07 0.0 0.0 0.0 0.0 0.0 5.447565e-06 6.616235e-05
0.00012874471 0.00029255592 1.1911285e-06 0.0 0.0 0.0 0.0 0.0
2.0462487e-06 1.8770697e-05 7.573027e-06 7.248992e-05 0.0 2.456555e-06 3.2504602e-05 6.56719e-05
0.0001386345 7.3227176e-07 2.3982172e-06 3.1168034e-05 6.839149e-05 0.00014346288 6.8599434e-07 1.1556436e-06
1.7331498e-05 9.414848e-05 8.523117e-05 1.445673e-06 7.915902e-07 1.0281675e-05 2.0143747e-05 4.1533178e-05
2.7221967e-07 2.1531672e-07 1.74672e-06 2.500116e-06 5.366635e-06 1.07176135e-07 8.3096427e-07 9.092835e-06
8.991246e-06 4.1619915e-05 2.9082493e-08 0.0 0.0 0.0 0.0 0.0
8.464778e-07 1.1008487e-05 2.0657504e-05 4.4103323e-05 2.58649e-07 0.0 0.0 0.0
0.0 0.0 1.7301988e-06 2.0676802e-05 3.8800714e-05 9.21075e-05 6.115059e-07 0.0
0.0 0.0 0.0 0.0 2.6082034e-07 2.8537224e-06 3.2771136e-06 7.0561355e-06
1.6043624e-07 0.0 0.0 0.0 0.0 0.0 5.9259175e-08 5.3765984e-07
1.0013073e-06 1.962293e-06 3.641076e-08 4.57509e-07 6.088837e-06 6.0939587e-05 3.950955e-05 1.830036e-06
9.430945e-07 1.4708363e-05 7.712817e-05 6.925949e-05 1.1777258e-06 1.8709054e-07 1.7947415e-06 2.1524531e-06
4.7621593e-06 9.032117e-08 0.0 0.0 0.0 0.0 0.0 1.0299391e-07

exp_avg f4 [128]
00000000: 9a17 43b8 c423 a33a 0000 0000 0405 373a
00000010: 21ec a838 277e 0e39 83c5 95b8 07ad ebb8
00000020: 0879 3139 b082 bb3b 4daa 2139 2636 fc39
00000030: 0000 0000 3e51 0c39 4b8d 5138 7685 be38
00000040: af20 bd38 1c8f 30ba 3e96 7d38 20f1 b938
00000050: 82a6 293b 95f0 0a3b 70a3 a03a cee4 ab38
00000060: 3982 133b 9397 823a 013e 01b9 0000 0000
00000070: 4278 0f3a 0000 0000 05a7 7439 0000 0000
00000080: e99e 71ba 5f6f 3139 8975 0737 ba7a 29b9
00000090: baac cb38 a3d2 9d38 1627 d439 0000 0000
000000a0: 5ef9 1239 0000 0000 680b c139 0000 0000
000000b0: ea54 df37 0000 0000 dc16 f738 c85f 5c3a
000000c0: 0fbd 62b9 30ab b838 0000 0000 8509 1d39
000000d0: 281f d438 72f7 023a 0000 0000 4b16 a938
000000e0: 26e4 ab39 3f4c 1039 0000 0000 5024 92b8
000000f0: c898 10b9 0000 0000 0000 0000 6d6a 8a38
00000100: 8194 e938 0000 0000 0000 0000 d587 bf3a
00000110: 3906 1039 8d1c 2d3b 3aa4 3a39 8c95 fe37
00000120: 9c8a a038 2c52 2c38 95f0 9b38 3925 b639
00000130: faa7 6838 5af1 b63a eea4 b938 0468 aa38
00000140: 9800 1139 0000 0000 074f 643b 0000 0000
00000150: a20c b239 8265 7f3a 0000 0000 cb37 0439
00000160: 0c72 a238 0000 0000 e1bd 1c39 1908 6a3a
00000170: 5127 103a 0000 0000 0000 0000 6cfa 8f38
00000180: 608c ae38 023a ee38 0000 0000 0000 0000
00000190: 6e9f 2738 0000 0000 3508 c437 208c f43a
000001a0: d2d4 b838 5cdd 0739 8b98 1139 0000 0000
000001b0: 0000 0000 7c0a f737 505b 7538 3567 b038
000001c0: 17c9 9f38 2282 1938 0000 0000 659e 37b7
000001d0: 0000 0000 0000 0000 172b f038 0000 0000
000001e0: 4b09 6c3a 0000 0000 641a 1739 0000 0000
000001f0: 0000 0000 a6a6 e538 25c2 703a 0000 0000
-4.6513604e-05 0.0012446572 0.0 0.00069816434 8.054847e-05 0.0001358917 -7.141663e-05 -0.00011237902
0.00016925123 0.0057223663 0.00015417598 0.0004810553 0.0 0.00013381706 4.9961072e-05 9.084765e-05
9.01831e-05 -0.0006735192 6.0459824e-05 8.8664005e-05 0.00258866 0.0021200527 0.001225574 8.1965336e-05
0.0022508039 0.0009963386 -0.00012325497 0.0 0.0005472937 0.0 0.00023331873 0.0
-0.00092171 0.00016921524 8.073993e-06 -0.00016162815 9.711967e-05 7.5255775e-05 0.00040464912 0.0
0.00014016542 0.0 0.00036820327 0.0 2.6623213e-05 0.0 0.00011782136 0.00084066065
-0.0002162347 8.80569e-05 0.0 0.00014976233 0.00010114751 0.00049959787 0.0 8.0627e-05
0.00032785645 0.00013761314 0.0 -6.968586e-05 -0.00013789826 0.0 0.0 6.600176e-05
0.00011137967 0.0 0.0 0.0014612625 0.00013735228 0.0026414723 0.00017799521 3.0348798e-05
7.6552125e-05 4.1084524e-05 7.435788e-05 0.00034741478 5.546955e-05 0.0013957426 8.852208e-05 8.125606e-05
0.00013828499 0.0 0.0034837143 0.0 0.00033960218 0.0009742604 0.0 0.00012609285
7.746005e-05 0.0 0.00014948055 0.0008927598 0.00054990227 0.0 0.0 6.865416e-05
8.3231134e-05 0.00011359529 0.0 0.0 3.9964383e-05 0.0 2.3368842e-05 0.0018657483
8.8134446e-05 0.00012957066 0.00013885104 0.0 0.0 2.9449577e-05 5.8497593e-05 8.411558e-05
7.619167e-05 3.659924e-05 0.0 -1.0944529e-05 0.0 0.0 0.00011452118 0.0
0.00090040703 0.0 0.00014410313 0.0 0.0 0.000109506116 0.0009184203 0.0

exp_avg_sq f4 [128]
00000000: ec2b c736 c022 c736 0000 0000 ec4b 4e36
00000010: a804 7b35 8d59 6a34 50fa 0036 645a 0b37
00000020: a3df 5835 4c58 bd36 0808 b136 e41f 3c35
00000030: 0000 0000 45e8 5635 270a 4535 3972 f535
00000040: 0a01 c234 91d1 4c36 0209 4435 509d c436
00000050: 432a 2937 d3fe 1738 fb34 4737 e212 fc34
00000060: 658b 2938 897d 7536 d1f1 4235 0000 0000
00000070: 1354 7b35 0000 0000 7478 8637 0000 0000
00000080: 9d0e 9436 ff97 f736 c5bf fd36 9d1b 9b36
00000090: d936 1836 4a59 e534 a383 1236 0000 0000
000000a0: f863 2136 0000 0000 d89e a336 0000 0000
000000b0: 1478 0535 0000 0000 fe01 0d34 8f9f f535
000000c0: f728 7d36 1d9d c234 0000 0000 422b 8834
000000d0: fc5b e835 5acf 6e36 0000 0000 1ed4 fb33
000000e0: fef6 2f38 f177 1935 0000 0000 a67b 3c36
000000f0: 93f4 dc35 0000 0000 0000 0000 5b19 e634
00000100: c7eb 3a35 0000 0000 0000 0000 bd11 1637
00000110: 5d27 1035 0e12 4b37 282c d335 3d56 df33
00000120: 8ee9 4034 1bf7 8935 bc1f 0d35 88a2 1035
00000130: 303c 2236 2c6e ff36 0d3d b834 2a37 6a35
00000140: 8fa8 0536 0000 0000 07e7 3437 0000 0000
00000150: 2c64 da36 8a83 6a36 0000 0000 061e 6035
00000160: 0431 a234 0000 0000 b993 9c34 c856 9936
00000170: 62a5 c134 0000 0000 0000 0000 b3e8 7a34
00000180: b0ab ac37 2325 ed34 0000 0000 0000 0000
00000190: 9ad3 0f36 0000 0000 75be 2336 6d7c 4637
000001a0: 1448 2d35 c85e 9b35 624e cf35 0000 0000
000001b0: 0000 0000 0dc3 0d36 ba03 8734 3270 6d36
000001c0: ba09 8735 802e ea33 0000 0000 3ce4 4636
000001d0: 0000 0000 0000 0000 a1aa a335 0000 0000
000001e0: 992d 6f36 0000 0000 2baa 0136 0000 0000
000001f0: 0000 0000 b3f0 f035 53b2 9136 0000 0000
5.9357753e-06 5.9347076e-06 0.0 3.0740584e-06 9.351156e-07 2.1825527e-07 1.9219187e-06 8.306091e-06
8.0791705e-07 5.642918e-06 5.275946e-06 7.0081865e-07 0.0 8.005921e-07 7.340299e-07 1.8287166e-06
3.6136072e-07 3.0520353e-06 7.30288e-07 5.859569e-06 1.0083025e-05 3.623853e-05 1.187366e-05 4.6952397e-07
4.042256e-05 3.6580916e-06 7.262252e-07 0.0 9.362713e-07 0.0 1.6030135e-05 0.0
4.412445e-06 7.3788683e-06 7.5623125e-06 4.6225746e-06 2.268169e-06 4.271954e-07 2.1832318e-06 0.0
2.404906e-06 0.0 4.8762704e-06 0.0 4.97211e-07 0.0 1.3132373e-07 1.830036e-06
3.7723782e-06 3.624963e-07 0.0 2.5363448e-07 1.7312118e-06 3.5585458e-06 0.0 1.1726682e-07
4.195328e-05 5.717148e-07 0.0 2.8086156e-06 1.6462458e-06 0.0 0.0 4.2859287e-07
6.96335e-07 0.0 0.0 8.944827e-06 5.370146e-07 1.2103947e-05 1.5733576e-06 1.03999334e-07
1.796636e-07 1.0279213e-06 5.257277e-07 5.3880694e-07 2.4174915e-06 7.612418e-06 3.431709e-07 8.725207e-07
1.9916658e-06 0.0 1.0782626e-05 0.0 6.508568e-06 3.4945283e-06 0.0 8.349019e-07
3.0210515e-07 0.0 2.9164747e-07 4.569858e-06 3.6069383e-07 0.0 0.0 2.336772e-07
2.0583946e-05 4.417171e-07 0.0 0.0 2.1431829e-06 0.0 2.4399753e-06 1.183069e-05
6.455241e-07 1.1575985e-06 1.5445514e-06 0.0 0.0 2.1124172e-06 2.514842e-07 3.5381058e-06
1.0061115e-06 1.09049324e-07 0.0 2.963715e-06 0.0 0.0 1.2194106e-06 0.0
3.5640317e-06 0.0 1.9321549e-06 0.0 0.0 1.7951446e-06 4.3420964e-06 0.0

exp_avg f4 [128, 128]
00000000: 0000 0000 0000 0000 0000 0000 0000 0000
00000010: 0000 0000 0000 0000 0000 0000 0000 0000
00000020: 0000 0000 0000 0000 0000 0000 0000 0000
00000030: 0000 0000 0000 0000 0000 0000 0000 0000
00000040: 0000 0000 0000 0000 0000 0000 0000 0000
00000050: 0000 0000 0000 0000 0000 0000 0000 0000
00000060: 0000 0000 0000 0000 0000 0000 0000 0000
00000070: 0000 0000 0000 0000 0000 0000 0000 0000
00000080: 0000 0000 0000 0000 0000 0000 0000 0000
00000090: 0000 0000 0000 0000 0000 0000 0000 0000
000000a0: 0000 0000 0000 0000 0000 0000 0000 0000
000000b0: 0000 0000 0000 0000 0000 0000 0000 0000
000000c0: 0000 0000 0000 0000 0000 0000 0000 0000
000000d0: 0000 0000 0000 0000 0000 0000 0000 0000
000000e0: 0000 0000 0000 0000 0000 0000 0000 0000
000000f0: 0000 0000 0000 0000 0000 0000 0000 0000
00000100: 0000 0000 0000 0000 0000 0000 0000 0000
00000110: 0000 0000 0000 0000 0000 0000 0000 0000
00000120: 0000 0000 0000 0000 0000 0000 0000 0000
00000130: 0000 0000 0000 0000 0000 0000 0000 0000
00000140: 0000 0000 0000 0000 0000 0000 0000 0000
00000150: 0000 0000 0000 0000 0000 0000 0000 0000
00000160: 0000 0000 0000 0000 0000 0000 0000 0000
00000170: 0000 0000 0000 0000 0000 0000 0000 0000
00000180: 0000 0000 0000 0000 0000 0000 0000 0000
00000190: 0000 0000 0000 0000 0000 0000 0000 0000
000001a0: 0000 0000 0000 0000 0000 0000 0000 0000
000001b0: 0000 0000 0000 0000 0000 0000 0000 0000
000001c0: 0000 0000 0000 0000 0000 0000 0000 0000
000001d0: 0000 0000 0000 0000 0000 0000 0000 0000
000001e0: 0000 0000 0000 0000 0000 0000 0000 0000
000001f0: 0000 0000 0000 0000 0000 0000 0000 0000
00000200: 0cb5 161c 6890 a21b 0000 0000 9be5 c41b
00000210: 1cf7 891c 2231 971b a5b7 661b 9e55 691b
00000220: 0a60 ac1c 0000 0000 03cf 0c1c b9cf 0c1a
00000230: 0000 0000 dd6b c91c 5e2f 8b1b 0000 0000
00000240: 7c30 c71c 0000 0000 e852 9a1c f2a8 3b1b
00000250: 9b80 bb15 92ac a319 d4a8 bc1a 5c0c 8c1c
00000260: 0000 0000 0000 0000 6d85 b41b 0000 0000
00000270: 3da4 b31a 0000 0000 2427 ef18 0000 0000
00000280: 8a22 5718 38b1 e71b 76a5 901b 8bae d919
00000290: a712 f11b 2eb5 aa1c 5192 611b 0000 0000
000002a0: ace5 0f1c 0000 0000 4335 911b 0000 0000
000002b0: ecfa 041c 0000 0000 5b0d 1e1c f506 b217
000002c0: 7911 2e1a 028a c21c 0000 0000 3442 551c
000002d0: ed5c a11b 1d36 c51b 0000 0000 918a c41c
000002e0: 0e01 d617 b7bf 951b 0000 0000 0944 d61b
000002f0: e7a8 081b 0000 0000 0000 0000 eec7 851c
00000300: 7b81 7c1b 0000 0000 0000 0000 9d7f 5d1a
00000310: 5b6b de1b 0000 0000 89b9 9b1c 48ee 7918
00000320: 1f1e 8d1c daf0 ed1b 8955 131c 5c08 721b
00000330: 563e ef1b 68ba cc1a f3d9 d41c f430 741c
00000340: f6ef 8c1c 0000 0000 0000 0000 0000 0000
00000350: 5713 3b1b 2218 e617 0000 0000 5240 d31c
00000360: 7478 d21c 0000 0000 4e98 6b1c c778 111c
00000370: d7e7 b51a 0000 0000 0000 0000 c9a1 361c
00000380: 2a1a a91b b961 c01b 0000 0000 0000 0000
00000390: 9557 0f1c 0000 0000 fbed 3d1c b1b9 cb1a
000003a0: c16a 891c e1b3 d31c 8d61 a71c 0000 0000
000003b0: 0000 0000 fcd0 011c 073b a51c c7eb 921a
000003c0: f295 331c 25c6 411c 0000 0000 b43c a11b
000003d0: 0000 0000 0000 0000 48f5 1c1c 0000 0000
000003e0: 0000 0000 0000 0000 aca7 671c 0000 0000
000003f0: 0000 0000 ca9d a61c e84e 501a 0000 0000
0.0 0.0 0.0 0.0 0.0 0.0 0.0 0.0
0.0 0.0 0.0 0.0 0.0 0.0 0.0 0.0
0.0 0.0 0.0 0.0 0.0 0.0 0.0 0.0
0.0 0.0 0.0 0.0 0.0 0.0 0.0 0.0
0.0 0.0 0.0 0.0 0.0 0.0 0.0 0.0
0.0 0.0 0.0 0.0 0.0 0.0 0.0 0.0
0.0 0.0 0.0 0.0 0.0 0.0 0.0 0.0
0.0 0.0 0.0 0.0 0.0 0.0 0.0 0.0
0.0 0.0 0.0 0.0 0.0 0.0 0.0 0.0
0.0 0.0 0.0 0.0 0.0 0.0 0.0 0.0
0.0 0.0 0.0 0.0 0.0 0.0 0.0 0.0
0.0 0.0 0.0 0.0 0.0 0.0 0.0 0.0
0.0 0.0 0.0 0.0 0.0 0.0 0.0 0.0
0.0 0.0 0.0 0.0 0.0 0.0 0.0 0.0
0.0 0.0 0.0 0.0 0.0 0.0 0.0 0.0
0.0 0.0 0.0 0.0 0.0 0.0 0.0 0.0
4.9864834e-22 2.6893972e-22 0.0 3.257386e-22 9.129776e-22 2.5012606e-22 1.9084493e-22 1.9300973e-22
1.1406831e-21 0.0 4.658967e-22 2.911912e-23 0.0 1.3328946e-21 2.3026231e-22 0.0
1.3181248e-21 0.0 1.0212296e-21 1.5522867e-22 7.57316e-26 1.6923506e-23 7.8027734e-23 9.267618e-22
0.0 0.0 2.9864726e-22 0.0 7.4298006e-23 0.0 6.1819574e-24 0.0
2.7805536e-24 3.833027e-22 2.3929728e-22 2.2507771e-23 3.988216e-22 1.129649e-21 1.8658841e-22 0.0
4.7611575e-22 0.0 2.4022657e-22 0.0 4.3999445e-22 0.0 5.2295076e-22 1.1504737e-24
3.599647e-23 1.2873517e-21 0.0 7.0561354e-22 2.6695268e-22 3.2625886e-22 0.0 1.3006011e-21
1.3829692e-24 2.4773875e-22 0.0 3.5447297e-22 1.1304232e-22 0.0 0.0 8.852882e-22
2.0886789e-22 0.0 0.0 4.5804814e-23 3.6796196e-22 0.0 1.0304999e-21 3.2302797e-24
9.338383e-22 3.9364008e-22 4.874877e-22 2.0020472e-22 3.9579517e-22 8.467358e-23 1.4085322e-21 8.07961e-22
9.326451e-22 0.0 0.0 0.0 1.5474526e-22 1.4869494e-24 0.0 1.3979435e-21
1.3927771e-21 0.0 7.7951827e-22 4.8132577e-22 7.52344e-23 0.0 0.0 6.042785e-22
2.7975613e-22 3.1826887e-22 0.0 0.0 4.742793e-22 0.0 6.2842437e-22 8.425883e-23
9.093495e-22 1.4009306e-21 1.1076349e-21 0.0 0.0 4.2952626e-22 1.0934042e-21 6.0765104e-23
5.941993e-22 6.411444e-22 0.0 2.6674444e-22 0.0 0.0 5.193309e-22 0.0
0.0 0.0 7.66482e-22 0.0 0.0 1.1025746e-21 4.3077132e-23 0.0
