models/ppo_agent.pt (torch, 221178 bytes, 18 tensors)

feature_extractor.0.weight f4 [128, 5]
000000 68 2c ad 3e 7c 4c 5e 3e d6 50 ff bd 1f ce ac 3c
       0.33822942 0.21708864 -0.1246659 0.02109438
000010 81 79 ba 3d 28 d8 2b 3e a7 2b e2 be e8 3d 49 3e
       0.09105206 0.16781676 -0.4417393 0.19652522
000020 fb 0b c8 be 78 d1 72 bd fc 59 a4 be 6c 2c 8a be
       -0.3907164 -0.059281796 -0.32099903 -0.26987016
000030 08 0e 48 be d2 6b 35 3e 22 60 8a be 80 76 ac 3e
       -0.19536602 0.17716911 -0.2702647 0.33684158
000040 a5 e3 42 3e f0 f9 e4 3e 1a 51 09 3e 5c 10 b4 bd
       0.19032152 0.44721937 0.13409844 -0.08792183
000050 68 33 ae be 0a 68 2a be 2c 73 50 3e b7 23 61 be
       -0.34023595 -0.1664125 0.20356435 -0.2198628
000060 eb d4 d8 be 72 a8 a3 3c d4 e0 99 3d bc 9b c1 3e
       -0.42349944 0.019977782 0.07513586 0.37814128
000070 d3 3f 85 bc df fe c3 be 9c e4 13 3e b2 30 42 be
       -0.016265785 -0.3828039 0.14442676 -0.18963888
000080 e4 33 bb be 20 18 79 bc 20 18 a2 3d 2c 1e 81 be
       -0.36563027 -0.015203506 0.07914758 -0.25218332
000090 28 fe 42 be 88 03 94 3e 3f 6f 02 3f 82 d2 a4 be
       -0.19042265 0.28908944 0.50951 -0.32191855
0000a0 d1 cf 8e be d0 59 bd 3c 76 77 02 be 40 5c e2 bb
       -0.27892926 0.023114115 -0.12740883 -0.0069079697
0000b0 24 86 8b 3e 10 0b 5b 3e 4d 42 4f be d2 e0 a8 be
       0.2725078 0.21390939 -0.20240135 -0.32984024
0000c0 ed 2b 86 be 88 aa 39 3d ca 4f 95 be 53 a3 58 be
       -0.26205388 0.045328647 -0.29162437 -0.21156053
0000d0 42 94 de be 32 dc 4e 3e 86 34 aa 3e 8e 75 ae 3e
       -0.43472487 0.20201185 0.33243197 0.34074062
0000e0 2f d9 50 3d f3 3d 67 be 32 8e 5a bd 5a 80 01 3e
       0.050988372 -0.22582226 -0.053358264 0.12646618
0000f0 53 3c 8e be 56 66 d3 3e cd f8 58 3e 2a 8f 9e be
       -0.277804 0.41289014 0.2118866 -0.309686
000100 f7 4d a0 be 44 b4 df 3e 86 af 33 be 02 34 b2 be
       -0.31309482 0.4369222 -0.17547426 -0.34805304
000110 7e 89 c7 be 00 d3 6b 3d 9d 26 c2 be 7c 99 87 bd
       -0.38972086 0.057574272 -0.37920085 -0.06621072
000120 9f cd 80 3e c5 c1 eb bd da 3f 87 be 83 70 f8 3e
       0.25156876 -0.11511568 -0.26415902 0.4852334
000130 0f 4b ce 3e a0 96 ac 3e ba 97 c0 3e 99 6b 1f 3e
       0.4029164 0.33708668 0.37615758 0.15568389
000140 e3 16 a5 be 07 80 74 be d0 7d dd 3d 98 02 c5 bd
       -0.32244024 -0.23876964 0.108150125 -0.09619635
000150 82 f2 b7 be 80 c4 3a 3d ac dd b6 bd b9 cc cd be
       -0.35927206 0.045597553 -0.08928999 -0.40195253
000160 54 e4 17 be 1c be 72 3e 98 2c ce be 58 29 b6 3e
       -0.14833194 0.23705333 -0.40268397 0.35578418
000170 21 b1 00 be 3e 39 dc 3d 7a f6 bc be de 8f 3e be
       -0.1256757 0.107531056 -0.36906797 -0.18609568
000180 04 7a 32 be ef 9f 6b be 90 e9 20 3e 2b 70 d4 3e
       -0.17429358 -0.23010229 0.15714097 0.41491827
000190 9a 67 bd be f4 62 ac 3d 7f 94 43 bc 7d 54 96 3e
       -0.36993104 0.08417311 -0.01193726 0.29361334
0001a0 fc aa 54 3e 20 af 91 3d 94 d6 9f 3e 3e 19 66 be
       0.2076835 0.071134806 0.31218398 -0.22470567
0001b0 72 d2 d8 be 60 82 62 bc 5a ac b6 be d3 26 28 3e
       -0.42348057 -0.013825029 -0.3567837 0.1642106
0001c0 93 30 f8 be 0b 4a 9d 3d 78 26 ce 3e f3 2b 1f 3e
       -0.4847456 0.07680138 0.40263724 0.15544109
0001d0 79 61 8d be 9e e5 e4 be 90 b2 24 3e 4c 1b 7d 3e
       -0.27613428 -0.44706434 0.16083741 0.24717444
0001e0 c7 a3 cf 3c ad e7 3b 3d 09 db aa 3e 8b 33 ff 3e
       0.02534665 0.04587524 0.33370236 0.49844012
0001f0 43 db de 3e 57 9e 93 3e 22 06 d4 bc fe 27 68 be
       0.43526658 0.2883174 -0.02588183 -0.22671506
000200 9b 98 44 3e 40 e9 21 3e 59 41 df 3e 3f 15 99 be
       0.1919884 0.15811634 0.43604544 -0.29899022
000210 15 bb 30 bc 40 e9 df 3e be d4 92 3e d7 cc ae be
       -0.010786791 0.43732643 0.28677934 -0.34140655
000220 70 a1 23 be cc 37 a3 3e a8 1c d6 be 76 45 8a 3e
       -0.15979552 0.31878507 -0.41818738 0.2700612
000230 eb 2e e3 3e 59 3e b0 3e c6 94 26 3e ef 88 3e be
       0.44371733 0.34422567 0.1626769 -0.18606924
000240 de 2e 88 bc 8b 46 5a be 99 17 64 bd d6 12 c4 3e
       -0.01662391 -0.21315973 -0.055686567 0.3829562
000250 e3 3a 00 3f 68 23 de 3e bd 7f 52 3e 21 24 01 3e
       0.50089854 0.43386388 0.20556541 0.12611438
000260 6a 0b 17 be cc 32 77 3e ec 62 09 3e 94 08 02 3e
       -0.14750448 0.24140471 0.13416642 0.12698585
000270 20 8f 2d bc 21 47 b1 be dd ed 9a be ca 3d 06 be
       -0.010593206 -0.3462458 -0.302596 -0.13109508
000280 e0 1d 6e 3c 70 ea 11 be 00 6f 06 be 90 88 3c bd
       0.01453349 -0.14249587 -0.1312828 -0.046028674
000290 10 dc ea bc da 5f 42 3d 1b b5 cf 3e d2 83 68 3e
       -0.028669387 0.047454692 0.4056786 0.22706535
0002a0 48 ef ce 3e bf 5a 86 3e 10 e6 a1 bb 4a 20 5d bd
       0.40416932 0.2624111 -0.0049407557 -0.05398587
0002b0 2f d4 3f 3e 0f 17 33 bd 46 de 0e bd 57 ab 6f 3b
       0.18733285 -0.043723162 -0.034879945 0.0036570632
0002c0 1c a6 58 3d bc ca c7 be bc d5 be 3e 98 ee 95 3e
       0.05289279 -0.39021862 0.3727244 0.29283595
0002d0 46 ba 68 3e ba 43 a3 3e 55 fe b9 be 23 c9 b8 3e
       0.22727308 0.3188761 -0.36326852 0.36090955
0002e0 b0 95 c2 be 5d cc aa bd 0a 06 cc be 6a 24 88 3e
       -0.38004827 -0.083397605 -0.39848357 0.26590282
0002f0 76 33 88 be fd ef 45 be 81 42 3a 3e b7 30 e4 bd
       -0.26601762 -0.1932983 0.18189432 -0.11142104
000300 15 8f bd 3e e8 84 b5 3e a4 9b 36 3e 02 36 f5 3e
       0.37023225 0.35452962 0.1783281 0.47892767
000310 2f eb e9 3e 7a 7f 20 bd eb 78 f6 3d 1d 69 c3 3e
       0.45687243 -0.03918407 0.12034782 0.38166133
000320 dd 51 18 be 32 ef 3c be e0 1f 0e 3e 3f 37 e6 3e
       -0.14874978 -0.18450621 0.13879347 0.44964024
000330 36 1e d6 3d 6c 19 39 3e 03 16 5f bd ba cb b3 3d
       0.10454981 0.18076104 -0.05446435 0.08779092
000340 a8 ad a4 3d 59 48 93 3d d0 77 98 3c 8a c5 72 be
       0.08040935 0.071915336 0.018611819 -0.23708168
000350 28 a8 f2 3d 52 39 52 be c0 4a a6 bb 9d 4e d5 3e
       0.118484795 -0.20529678 -0.005074829 0.4166154
000360 45 2d a3 3e c2 9f ad 3e cd a4 31 3e c0 fb e2 bd
       0.31870475 0.33910948 0.17348023 -0.11083174
000370 2e 8c a1 3e 6b 80 b0 3d 2e d2 27 be ec dc cd 3e
       0.3155226 0.08618244 -0.16388771 0.40207613
000380 56 b8 79 3d 23 21 4d 3d b1 64 b3 3e 68 bf 42 bd
       0.060966812 0.05008043 0.3503776 -0.04754582
000390 e4 fc 82 bd 98 28 e6 be 76 2c c8 3e c6 17 6e be
       -0.06395891 -0.44952846 0.3909642 -0.23251256
0003a0 3f d4 75 be 71 fa 8a be f0 d0 88 3d c7 51 53 3e
       -0.24006747 -0.27144197 0.06680477 0.20636664
0003b0 97 08 ae ba 53 5d 8b 3e 61 17 f4 3e 5e bf bf 3e
       -0.0013277706 0.27219638 0.47674087 0.3745069
0003c0 0c 0d dc bc 5f 6a 04 bc a4 94 5f 3e 70 42 c2 3e
       -0.02686169 -0.0080820015 0.21834046 0.37941313
0003d0 cf d7 a1 3e 7f 53 03 3e 5a af aa 3e 8d f2 d9 be
       0.3160996 0.1282482 0.33336908 -0.42567864
0003e0 72 e6 d0 3e a4 41 fa bd dd 82 7b 3e 7f a5 ab bd
       0.40800816 -0.12219551 0.24561639 -0.08381175
0003f0 46 30 6b 3e c7 00 aa 3d d2 d4 aa bd 03 64 9a 3c
       0.22967634 0.083009295 -0.083413735 0.018846517

feature_extractor.0.bias f4 [128]
000000 67 cb c8 3e f0 ad e9 3d ed 44 53 be fb b8 6e 3e
       0.39217684 0.11410129 -0.20631762 0.23312752
000010 76 9b 36 be 41 b6 81 3d 90 50 be bc 49 2f d1 bd
       -0.17832741 0.0633359 -0.023231775 -0.10214097
000020 c4 f1 a6 be d2 f9 cf 3e a6 4f b8 be 83 7f df 3e
       -0.32606328 0.40620285 -0.35998267 0.4365197
000030 f4 c1 34 3e 85 ce e0 be ee 9a b7 be 9c f3 81 3e
       0.17652112 -0.43907562 -0.3586039 0.25381172
000040 30 84 63 3d 50 c7 c3 bd 7c 94 ad 3a df 5a f9 3d
       0.055545986 -0.095595 0.0013243104 0.121755354
000050 87 0b a9 3e a0 ef 1d 3e 48 7b 6c be 5a dd 5f 3e
       0.33016607 0.15423441 -0.23093903 0.21861783
000060 e1 6b a7 be 50 f2 10 bb 76 ca fa 3e 8a 16 9b 3e
       -0.32699493 -0.0022117086 0.4898259 0.30290633
000070 f4 71 c2 3e a2 10 97 be 4f a4 f2 3c 6e 31 36 be
       0.37977564 -0.29504877 0.029619364 -0.17792293
000080 cc 00 a0 be cf d5 27 be 78 ae e1 be 10 1f ea 3e
       -0.31250608 -0.16390155 -0.44078422 0.45726824
000090 2b 37 90 3d bb 2f 95 3e 1a 7c a4 3e ae 4e 4c 3e
       0.070417725 0.29137978 0.32125932 0.19951889
0000a0 7e 43 a3 be 2c c5 46 3e f7 80 b3 be 13 20 c4 bc
       -0.3188743 0.19411153 -0.3505933 -0.023941075
0000b0 91 d2 4e 3e f8 a1 1a bd 00 e6 09 ba 8d fa 9d be
       0.20197512 -0.03775212 -0.0005260408 -0.30855218
0000c0 07 00 53 3e ad c7 d2 3d e7 7d 84 3e c5 71 a2 3e
       0.20605479 0.102919914 0.25877306 0.31727424
0000d0 d0 64 96 3e 8e a5 b7 3e cc eb 96 be 9a 00 c5 3e
       0.2937379 0.35868496 -0.29476774 0.3847702
0000e0 e6 0c 0d be 28 3e df bd 6c 71 c2 3e da f3 bf 3e
       -0.13774452 -0.10900527 0.3797716 0.3749073
0000f0 15 21 81 be 7a 39 2a 3d 26 03 84 3e a8 c1 04 bd
       -0.25220552 0.04155872 0.25783652 -0.032411247
000100 d4 bd fb bd f0 db 7a 3d eb 1c d4 be aa 5e b8 bc
       -0.12292066 0.061244905 -0.41428313 -0.022506077
000110 6c dc 33 be 20 cd 79 bc 96 e4 72 3e fc 0d fe 3d
       -0.17564553 -0.0152466595 0.23720011 0.12405011
000120 f0 94 c2 be fb 14 99 be c0 2e 90 bc 71 da 47 3e
       -0.38004255 -0.2989882 -0.017600417 0.19516923
000130 87 1e bf 3b 44 bf 91 be 91 56 69 be 3a 6e 99 be
       0.0058324966 -0.28466237 -0.22786929 -0.2996691
000140 a0 2b 66 3d 1e 51 52 3d d4 a3 ea 3d 60 bf 1f be
       0.056193948 0.05134689 0.11457029 -0.15600348
000150 5a b7 a7 3b 30 29 ce 3e 3b fb c9 3e a6 d8 70 3e
       0.0051182928 0.402658 0.39449486 0.23520145
000160 9a ff b7 3e b0 e6 22 3e 2d 46 b5 3e 5f 57 4a 3e
       0.35937196 0.15908313 0.35405102 0.19759892
000170 06 c7 00 be 3b b3 dc be 8a a5 47 be 47 7a 3d 3d
       -0.12575921 -0.43105492 -0.19496742 0.04625919
000180 c8 a2 c5 3e 97 63 83 3d ab 99 93 3e 42 88 b2 3e
       0.38600755 0.0641548 0.28828177 0.3486958
000190 a7 9b 6e 3e 4b 96 d3 3e 0b f4 28 be d3 36 64 bd
       0.23301564 0.41325602 -0.16499345 -0.055716347
0001a0 54 65 a9 be 5e 92 b5 3e f3 64 f9 bd 20 6f ca 3d
       -0.3308512 0.35463232 -0.12177458 0.09884477
0001b0 d3 f0 c1 3d 8a ab b7 be ad 2c 0c 3e fc 47 dc 3e
       0.09469762 -0.3587306 0.13688917 0.4302367
0001c0 d9 7a 85 3e e0 8d 46 3c 88 5d 5c bd a4 45 c8 3e
       0.26070288 0.012118787 -0.053800136 0.39115632
0001d0 50 7f 0a bd 43 4e 91 3d c9 89 da 3e b8 3c 22 3e
       -0.03381282 0.07095005 0.42683247 0.15843475
0001e0 00 80 b9 be 36 09 8e be 0d ff e0 bd 69 6a 44 be
       -0.3623047 -0.27741402 -0.10986147 -0.19181217
0001f0 47 2b 8c be d9 81 c8 bd d6 4e e4 3e 00 49 b6 3e
       -0.27376768 -0.097903915 0.44591397 0.3560257

feature_extractor.2.weight f4 [128, 128]
000000 3d 01 76 3d 55 ce 20 bd 6f 7a 55 bd a2 7b 43 bc
       0.060059775 -0.039259274 -0.052118715 -0.011931332
000010 48 19 6f 3c 2a 0f 9b bd 1a 33 17 3d 74 ee 83 3c
       0.01459343 -0.07571252 0.03691397 0.016104914
000020 d8 49 91 bd 1e 8f 4a 3d 17 50 cb 3d 8c 22 f9 bc
       -0.07094163 0.049452893 0.09927385 -0.030411981
000030 a0 dd 37 3d 26 d1 0d 3d d5 89 ed bc fc 93 b3 b9
       0.044889092 0.034623288 -0.028996387 -0.00034251797
000040 9b 18 50 bd 40 ff 91 3a a3 91 30 3d dd 9c a7 3c
       -0.050804716 0.0011138692 0.04310764 0.02046054
000050 4f 87 b0 bc f0 00 91 bd e8 e0 05 3e 9e c9 f6 3d
       -0.021548895 -0.07080257 0.13074076 0.12050174
000060 b0 3c 06 bd 30 17 fe 3c 07 80 54 3d 7e 5e 55 bd
       -0.03277272 0.031016916 0.05187991 -0.052092068
000070 45 86 85 3d 7d 67 81 3d 5e a6 f9 bc 80 01 b1 bb
       0.065197505 0.06318567 -0.030474838 -0.00540179
000080 2a 4b 0d 3d c1 c8 f8 bc 37 e7 2f bd 55 ac 92 bb
       0.03449551 -0.030369164 -0.042945113 -0.00447611
000090 ef b8 b3 bc 32 cd b0 3d 93 9b 0d bd 9b 63 82 bd
       -0.02193877 0.08632888 -0.034572195 -0.063666545
0000a0 ee c8 ab bd d1 76 20 3c 60 c0 46 bb d5 c9 82 3d
       -0.08387934 0.009793953 -0.0030327067 0.06386153
0000b0 b8 cb b1 bd 7d 15 a3 3c 6d ba a7 3d 31 29 13 3d
       -0.086814344 0.019907707 0.08189855 0.035927955
0000c0 c2 a4 06 3d f7 1b 3b bb 59 d6 71 bd 24 80 b9 bd
       0.03287197 -0.0028550604 -0.05904231 -0.09057644
0000d0 08 13 3e 3d 90 dd fe bb 70 9a 09 3d b0 90 b5 3c
       0.04640487 -0.007777877 0.03359455 0.022163719
0000e0 dc 47 ad 3d a4 cc d8 3c 90 61 46 bc b7 33 9c bd
       0.08460972 0.026464768 -0.012108222 -0.07627051
0000f0 e7 e9 72 3a d8 34 bb 3c c8 84 6b bd 60 05 d9 3b
       0.00092664215 0.022852346 -0.057499677 0.006622955
000100 72 d8 30 3d 7e c1 1c bd 1f 9e ba 3d 4c 3b 55 bc
       0.04317517 -0.038270466 0.091121905 -0.013014626
000110 13 4a 41 3d 94 91 ab bc a1 07 3f bd a6 8d f5 bd
       0.047189783 -0.02094344 -0.046638135 -0.11989908
000120 62 e1 f9 3c 33 2c f1 bc c9 b6 9e bd 40 f6 4b bd
       0.030502979 -0.029440021 -0.07749707 -0.04979539
000130 3d c6 3a 3c 47 f0 a1 bd 08 83 09 bd 10 f8 ce 3b
       0.011399803 -0.079071574 -0.033572227 0.0063161924
000140 8a 3d 99 bd 79 42 3e 3b ae 6b 84 3d d0 19 49 bd
       -0.07482441 0.002903132 0.06465851 -0.049096882
000150 2f bf 5c 3d 8c 03 fb bb 55 6f cb 3c 3f 99 25 3d
       0.053893264 -0.007660335 0.02483336 0.04042935
000160 89 18 a3 3d 99 c5 b1 bd 04 66 97 bd f5 fd 50 bd
       0.07963664 -0.08680267 -0.07392505 -0.051023442
000170 f9 c3 9c 3d a9 41 40 bd 54 67 fc 3c f0 47 8b 3c
       0.07654566 -0.04693762 0.03081099 0.017002076
000180 4a 34 89 3d 48 0a 8b 3c 2f e9 5d 3d fa c2 93 bd
       0.066994265 0.016972676 0.05417746 -0.07214923
000190 28 6f 56 3d f6 2d fc bc 82 66 1d bd b6 22 c1 bd
       0.0523521 -0.030783635 -0.038427837 -0.09430449
0001a0 e9 cd d7 bb 15 63 a1 3c 84 78 2e bc 1b 43 a7 3d
       -0.0065858257 0.019700566 -0.01064885 0.08167096
0001b0 4b 04 8e bb c7 73 9c 3d be e5 db 3b c4 31 89 bd
       -0.004334008 0.0763927 0.006710737 -0.06698945
0001c0 c3 e7 fe 3c 18 e5 ab bd be cf a2 bd c4 94 8d bd
       0.031116372 -0.083933055 -0.0794978 -0.069131404
0001d0 f8 0d e7 3c 3d b6 1c 3b 03 02 cf bd 50 8d 7d bc
       0.028204903 0.0023912333 -0.101078056 -0.015475586
0001e0 c2 55 a1 bd 06 0b 97 bd 09 de 8d bd a3 f3 04 3d
       -0.07877685 -0.073751494 -0.069271155 0.032458913
0001f0 13 6c 53 3c eb 17 5c bc 9d b9 ec 3b e8 ed bb 3c
       0.012904185 -0.013433437 0.0072242753 0.022940591
000200 a6 be 1d bd dc ae 8e 3c 25 a5 02 bd e7 44 5a bd
       -0.038511895 0.017417364 -0.031895775 -0.053288367
000210 41 e5 7f bd ec eb e2 3c f0 15 ae 3c 7e 03 fc bc
       -0.062474493 0.027700387 0.021250695 -0.030763384
000220 31 48 99 3d f6 6f 6f 3d 21 fd 25 bd 36 59 20 3d
       0.074844725 0.058456384 -0.040524606 0.03914758
000230 66 ad 3f bd 90 29 d7 3c 54 1d c1 bc 84 4c ce bc
       -0.046796225 0.026264936 -0.023573555 -0.02518297
000240 39 42 33 bd 00 54 b6 3a 86 7e 84 bd 6c 82 e6 bc
       -0.043764327 0.0013910532 -0.06469445 -0.028138362
000250 3c cf 01 bd b0 17 61 bd f2 43 31 bd 09 2d 8f bd
       -0.031691775 -0.05495423 -0.04327769 -0.06991012
000260 e7 ed ad 3d b8 fe 75 bd c8 d7 93 bc 70 31 03 3d
       0.08492642 -0.06005737 -0.018047228 0.03202957
000270 e3 2f 45 bd fb a4 8a 3d 46 1a 5d 3d 9f 4e a7 bd
       -0.04814137 0.06769749 0.053980134 -0.08169293
000280 28 ca 2e bc 00 e6 cf bc 78 c8 03 3c 3c 38 2b bd
       -0.010668315 -0.025378227 0.008043401 -0.041801676
000290 0c e4 6b bd 88 d2 11 3d d8 c1 79 bd b5 dc 22 bd
       -0.05759053 0.03560117 -0.06097588 -0.039761264
0002a0 e7 6f 41 bd a3 76 9d 3d 8f 44 88 bd c4 4f 0a 3d
       -0.04722586 0.07688644 -0.066537015 0.033767477
0002b0 aa df 17 3d 84 e7 de 3c c5 b8 9a bd ea 9f 3f 3d
       0.037078537 0.027210005 -0.07554773 0.046783365
0002c0 60 4f 2d bc 04 b1 53 bd 60 64 9b bd 86 29 15 3d
       -0.0105780065 -0.051682487 -0.075875044 0.036416553
0002d0 b8 9f 42 3c 03 11 09 bd f0 12 82 bc 38 c5 67 bd
       0.0118789 -0.03346349 -0.01587817 -0.056584567
0002e0 a0 93 4e bc 98 2e d1 bc f4 d8 f3 bc ba bc 6a 3d
       -0.012608439 -0.025534913 -0.029766537 0.05730889
0002f0 4b 72 aa bd 80 08 94 bd fc e6 93 bc e0 94 61 3c
       -0.08322581 -0.07228184 -0.018054478 0.013768405
000300 c1 46 4e bd 18 56 2e bd 67 aa 3b bd 14 8d a6 bc
       -0.050360445 -0.042562574 -0.045816805 -0.020330943
000310 2e 39 b2 bd e5 26 54 bd 60 ae 07 3d 9b 85 95 3d
       -0.087023124 -0.051794905 0.03312528 0.07300874
000320 b3 d9 a6 3d 31 90 93 3d 3a 7f 53 3d 00 5e 0b b9
       0.081469916 0.07205237 0.051635005 -0.0001329109
000330 3a 9a 26 bd d2 19 58 3d 00 f6 94 b9 e4 d9 e5 bc
       -0.040674426 0.052759 -0.00028412044 -0.028058
000340 1c 6a 1c bd 88 04 6a 3c 64 67 ac bd 40 58 57 bc
       -0.03818713 0.014283307 -0.08418158 -0.013143599
000350 18 55 1c bc 40 18 f8 ba 67 5b 6c bd 6e 42 4b 3d
       -0.009541772 -0.0018928126 -0.057704356 0.0496239
000360 b8 65 8a bc 50 14 5c bc b8 c1 93 3c 61 a1 54 bd
       -0.016894206 -0.013432577 0.018036708 -0.051911715
000370 e0 73 05 bb da bc f6 bc 41 e9 4f bd ba 8b 97 bd
       -0.0020363256 -0.030119348 -0.050759558 -0.073996976
000380 1c ce 95 3c 70 72 bf 3c 78 df 93 bc 02 8c 91 bd
       0.018286757 0.023369998 -0.018050894 -0.071067825
000390 a3 ee a2 bd 17 5f b3 3d 8c 6e f5 bc 14 da 3d bd
       -0.079556726 0.08758371 -0.02995994 -0.046350554
0003a0 a0 88 1a 3b 93 40 9f 3d cd b9 9d bd 58 6e e5 3c
       0.002357997 0.077759884 -0.07701454 0.028006718
0003b0 9a fd 5c bd f8 5e d6 3c f0 d6 22 bc 92 9a 33 3d
       -0.05395279 0.026168332 -0.00993894 0.04384858
0003c0 c0 ec 33 bc 7c 47 c1 3c 80 27 6b bd b6 e6 95 bd
       -0.010981739 0.023593657 -0.057410717 -0.07319395
0003d0 6a 10 10 bd 7b 66 1f bd a8 19 27 3c 22 53 74 3d
       -0.035171904 -0.038916092 0.010198988 0.059649594
0003e0 88 5b 91 bc 09 e8 5a bd 17 0f b1 bd 14 ce 8b bd
       -0.01774384 -0.053443942 -0.08645456 -0.06826416
0003f0 39 f1 ad 3d 97 77 87 3d f0 ad b2 bc 45 dd 3f bd
       0.08493275 0.06614607 -0.021811455 -0.04684188

feature_extractor.2.bias f4 [128]
000000 10 09 9f 3c 8c 76 cc bc 5e 02 c3 bd f2 8e 47 3d
       0.019413501 -0.024958871 -0.09521936 0.048720308
000010 6a 91 4b bd b2 01 6e bd ff 92 05 bd 83 6e 8a 3b
       -0.049699225 -0.058107086 -0.03261089 0.0042246
000020 81 e5 82 3d 08 60 02 bd c3 4c 94 bd 5c a7 09 3d
       0.06391431 -0.031829864 -0.07241204 0.033606872
000030 20 72 ad bc fb 45 8b bd 73 3d 3f 3d 21 11 99 bd
       -0.021172583 -0.06800457 0.046689462 -0.0747397
000040 7a 73 ab bd 28 16 a8 bd 0e 31 54 bd b0 80 d2 bc
       -0.08371635 -0.08207351 -0.051804595 -0.025696129
000050 18 67 43 3c cd b6 19 3e b0 6c 9a bd fc c6 32 39
       0.011926435 0.15011139 -0.07540262 0.0001704953
000060 da 49 18 3d 7c a0 9d bd 56 c7 31 bd 1d 84 86 3d
       0.037179805 -0.076966256 -0.043402992 0.06568167
000070 52 fc f1 3c 68 28 4d bc ea 23 a4 bd 55 01 3b 3d
       0.029539261 -0.012521841 -0.080146626 0.045655567
000080 f4 52 e6 3c be 7c 4a 3d df ed 92 bd 7e 66 d6 bc
       0.028115727 0.04943537 -0.071742766 -0.026171919
000090 5f 15 ab bd 00 f0 9b 3b 04 02 a2 bd 01 4d 05 3d
       -0.083536856 0.004758835 -0.07910541 0.03254414
0000a0 b5 25 22 bd 57 15 af bd 32 18 04 3d ca d3 f3 3d
       -0.03958674 -0.08548992 0.032249637 0.1190563
0000b0 2d 42 8e 3d 74 8b 8f bc cd 45 8e bd f2 13 00 3d
       0.06946216 -0.017522551 -0.06946907 0.03126902
0000c0 9a 67 2f bd e0 49 c7 bd e0 ea 3b bd cf 48 ce bc
       -0.04282341 -0.097308874 -0.04587829 -0.025181202
0000d0 8a 66 3c 3d 5a 78 4a bd 54 1e 91 bd b8 88 15 3d
       0.045996226 -0.049431182 -0.07085863 0.03650734
0000e0 80 7d be 3b 54 ef 97 bd c3 af 43 bd 23 bf 91 3d
       0.0058133006 -0.07418695 -0.04777504 0.071165346
0000f0 90 c8 7d bd 30 43 de 3b 5a 4b ab bd 55 cd 90 3d
       -0.06195885 0.0067829117 -0.083639815 0.07070414
000100 12 5f 8b bd c4 13 80 bd 4f 43 d0 3c 00 d5 b1 39
       -0.068052426 -0.0625377 0.02542272 0.00033918768
000110 60 a1 fd 3b 1f 25 82 3d 80 04 f2 3c ce d5 4c 3d
       0.0077401847 0.063547365 0.029543161 0.050008588
000120 20 79 65 bd 67 af c3 3d 28 96 81 bd 1c 86 91 3c
       -0.056023717 0.0955494 -0.06327468 0.017764144
000130 4a a4 ad bd e2 4f 57 3d 5d 22 cd ba ba 7e b1 bd
       -0.08478601 0.052566417 -0.00156505 -0.08666749
000140 f2 20 54 3d 88 4b d7 bd 45 23 17 bd 6c 77 0b 3d
       0.05178923 -0.10512453 -0.03689887 0.034049436
000150 3a ce 80 3d 36 10 5c bd 34 1a f0 bc 0c bf 08 bd
       0.062893346 -0.053726397 -0.02930937 -0.03338532
000160 d1 53 39 bc b3 16 5f bd d6 72 42 bd 9c 36 7a bd
       -0.011311487 -0.054465007 -0.047472797 -0.061087236
000170 8c d5 3b bd 0f 42 b3 bc 1f ab 67 bc 63 d2 81 ba
       -0.04585795 -0.021882085 -0.01413992 -0.0009904619
000180 18 a6 b8 3c 69 d6 d4 3d e9 fa 5f 3d 70 6e 2a 3d
       0.022540137 0.10392458 0.054682646 0.041609228
000190 4b db 58 3d f0 7f 22 bc 13 c9 9a bd c2 3f 0e bd
       0.05294351 -0.009918198 -0.07557883 -0.034728773
0001a0 3a 0c c0 bb 27 0d 2a bd ff 1c 70 3d b6 9e 99 3d
       -0.0058608325 -0.04151645 0.058621403 0.07500975
0001b0 7b 89 18 3d 01 7c 5c bd 3e 9f f6 bc d0 b4 23 bd
       0.037240487 -0.053829197 -0.03010523 -0.039967358
0001c0 69 15 0e bc 74 fa 21 bd 88 18 53 bd 3e 69 fb 3d
       -0.008672097 -0.03954549 -0.051537067 0.12275933
0001d0 e8 84 4e bd e8 70 c0 3c d4 18 8d bd 9c 02 95 bd
       -0.050419718 0.023491338 -0.06889501 -0.07275888
0001e0 6d f8 be 3d 9c 50 1a 3d 32 43 4f 3d f6 69 4f bd
       0.09324727 0.03767453 0.05060119 -0.05063816
0001f0 f9 79 b3 3d 11 80 03 3e 43 39 8e 3d da 89 30 3d
       0.08763499 0.12841822 0.069445156 0.043100215

policy_mean.weight f4 [1, 128]
000000 a9 16 5d bd e9 18 9c 3d 1f 90 ff 3b df 5e a2 3d
       -0.05397669 0.07621939 0.007799163 0.079282515
000010 50 dc 96 bb cc f9 8e bd d0 b7 bb 3d 3a 22 85 3d
       -0.0046039 -0.06981239 0.09165919 0.06500669
000020 e4 13 22 3d 03 30 72 bd 77 37 98 3d 16 ef 5f bc
       0.03956975 -0.05912782 0.07432454 -0.013667842
000030 a9 d5 94 3b cc 5e 96 3d 57 bd 53 bc d0 0a e2 3b
       0.004542072 0.073423 -0.01292356 0.0068982616
000040 d4 0c af 3c 8b 2f 8c bd 9e e1 5d 3d 24 99 b2 bc
       0.021368422 -0.068450056 0.054170243 -0.021801539
000050 29 37 a4 bd ca 29 87 bc f2 e6 20 bd 33 56 04 3d
       -0.080183335 -0.016499419 -0.039282747 0.03230877
000060 fe 56 1f 3d b5 8b b3 3d 61 7a 98 3c b8 c4 16 3c
       0.03890132 0.087668814 0.018613042 0.009202175
000070 9f 65 45 bd 67 b9 ae bd d5 06 94 3d 76 c4 5c 3d
       -0.048192617 -0.085314564 0.072278656 0.053898297
000080 10 f8 72 3b 62 d1 2e 3d 28 f2 67 3c 72 97 7a 3d
       0.0037074126 0.04268015 0.014156856 0.061179586
000090 d3 78 a0 3d d0 a2 a8 bd 48 8f 85 3c 08 51 fc 3c
       0.078355454 -0.08234179 0.016303673 0.030800357
0000a0 b9 de 52 3c 05 ac 12 3d 72 a1 5e 3d 01 e5 80 3d
       0.012870484 0.03580858 0.054353185 0.06293679
0000b0 8a f1 e6 bb a1 94 9c bd eb b8 93 bc b3 c3 15 3c
       -0.0070478367 -0.07645536 -0.018032512 0.009140897
0000c0 63 f0 9d 3c ee b7 0d bd b5 39 f5 3c 30 c4 3d 3d
       0.019279664 -0.034599237 0.029934743 0.046329677
0000d0 5a 3a 8b bd 42 77 94 bd 65 8d 58 bd aa 66 30 3d
       -0.06798239 -0.07249309 -0.05286922 0.043066658
0000e0 b6 b2 69 3d 71 3e 45 bb 6e 19 11 bc 9f 8b 31 bd
       0.057055198 -0.0030097032 -0.008856161 -0.043346044
0000f0 f8 0c f5 bc e0 5c 3e bb 28 5b 3f bc cc 2d 2c bd
       -0.02991341 -0.0029047057 -0.011679448 -0.042035863
000100 6a b1 58 3d e5 7c 67 bd 8f ae a0 3d 2e ad 98 bd
       0.05290357 -0.056515593 0.078457944 -0.074549064
000110 b0 22 07 3d 80 ea d3 3b 66 50 ee bc 84 7e cc 3c
       0.032992065 0.0064671636 -0.029091071 0.024962671
000120 6a f3 7b 3d bc e9 87 3d 0d 42 fe bb 46 10 6c bd
       0.061511435 0.06636378 -0.0077593387 -0.057632707
000130 5a d0 2c 3d a5 ff 2e bd 88 9b 1b bd 95 fd ad 3d
       0.042190887 -0.04272427 -0.037990123 0.084956326
000140 2a 4b 60 3d 4f 58 d0 bc bf 3c 4f 3d f9 99 8f 3d
       0.054759182 -0.025432734 0.05059504 0.0701179
000150 bf ee bf 3c b2 11 76 bd 70 55 cf 3b a6 bb 55 bb
       0.023429273 -0.06007547 0.0063273236 -0.0032613068
000160 a0 bf 1f 3d 31 38 a5 bc 42 8e 51 bd dd 4d 50 3d
       0.039001107 -0.020168396 -0.05116106 0.050855506
000170 50 fe 76 bc fd 68 13 bd a2 b7 f9 38 5c ed 06 3d
       -0.015075281 -0.035988797 0.000119074495 0.032941207
000180 2e 3d 30 3d 1c c7 4a 3d 9e 09 e9 bb 4a df ba 3c
       0.043027095 0.04950629 -0.007111742 0.02281155
000190 66 91 83 3d 30 de a3 3c ea 2e ec 3c c6 d9 89 bd
       0.06424217 0.020003408 0.028830964 -0.0673099
0001a0 f6 22 1f 3d 45 2f 31 bd 0b 34 57 bd 4d 41 3c bd
       0.0388517 -0.04325797 -0.052539866 -0.045960713
0001b0 3f 85 5f bd 43 81 ab 3d 80 41 37 bb 82 7c a0 3c
       -0.054570433 0.08374264 -0.0027962625 0.01959062
0001c0 88 b8 9b bc df 84 83 3d 0f b3 96 bd ce 78 d6 bd
       -0.01900889 0.064218275 -0.073583715 -0.104722604
0001d0 89 34 88 bd a8 fc 66 bd 3c 8e 43 3d 54 62 a0 bc
       -0.06650645 -0.056393296 0.047743067 -0.019578137
0001e0 a3 c6 bf 3c 8b e1 92 3b b7 1b 0b 3d 70 91 2d 3d
       0.023410147 0.004482453 0.033961978 0.042375028
0001f0 40 69 a3 3c e1 c0 26 3d a0 b6 95 3c ce 3e 2c 3d
       0.019947648 0.040711287 0.018275559 0.042052083

value.weight f4 [1, 128]
000000 9d 61 0e bd d6 e8 9f bd 8d 49 35 39 31 9e ab 3d
       -0.03476106 -0.07808082 0.00017288905 0.08379782
000010 dc 4e 04 3d ee 3e d6 bb 60 04 d1 3b 48 c7 42 3d
       0.03230177 -0.0065382635 0.0063786954 0.04755333
000020 08 e8 43 3a 35 b1 19 bc 17 f5 b3 3c 8c 45 b6 3c
       0.0007473235 -0.009380628 0.021967454 0.02224996
000030 1d 70 93 3d 33 29 81 3c 9b f7 69 3c 0f 09 8c bd
       0.07199118 0.015766716 0.014280225 -0.06837665
000040 2f 80 92 3d 66 ef 29 3d 79 13 cd 3c a9 ca 84 bd
       0.07153355 0.041488074 0.0250337 -0.06483967
000050 05 c1 58 3d 7c 66 03 3e d6 46 39 3d ac 3f 96 bd
       0.052918453 0.12832063 0.04523357 -0.07336363
000060 3a c8 6f 3d 48 ac 2b 3c 36 7f 6a bb 1e 42 2d 3d
       0.05854056 0.010478087 -0.003578139 0.042299382
000070 f5 8e b0 3b 51 04 87 3d 80 c6 65 bd ac 0a 9e 3c
       0.0053881356 0.0659262 -0.056097507 0.019292198
000080 37 45 89 3d 9f b2 39 bd 11 43 9a 3a 23 3b 25 bd
       0.06702655 -0.045336362 0.0011769255 -0.0403396
000090 30 a7 9a bc b0 35 fd 3b 9b 22 61 bd 3c 0b 50 3d
       -0.01887855 0.0077273473 -0.054964643 0.050791964
0000a0 22 9c 11 3b 08 71 b8 bb 56 47 1d 3d 15 b6 0e 3e
       0.0022218307 -0.0056287088 0.03839811 0.13936646
0000b0 56 dd b2 3b 7e 09 65 bd 2e 9b 92 bd 04 c1 92 3d
       0.005458514 -0.055917256 -0.071585044 0.07165721
0000c0 8c 74 d2 3c 72 3d 18 bc 0e b7 27 3d 1e 80 78 3d
       0.02569034 -0.009291993 0.04094606 0.060669057
0000d0 32 cd 86 bb d5 b7 95 bd 78 5c 74 bd 48 bf d9 3c
       -0.0041138167 -0.07310454 -0.059658498 0.026580468
0000e0 12 76 d9 bc 2b f7 2c 3d 08 5b 1d bd 35 e1 c2 bc
       -0.026545558 0.042227905 -0.038416892 -0.023789028
0000f0 40 9a 5d bb 40 e5 c6 ba 11 8c 04 bd cc 5a 6a 3d
       -0.0033813864 -0.0015174523 -0.03236014 0.057215497
000100 ae bf 47 bc 58 bf a7 bc 6e 8d 07 3d e2 25 74 bd
       -0.012191696 -0.020476982 0.033093862 -0.05960644
000110 f4 ad 06 bd d8 6e 0b 3c b4 ea 8e 3c b6 b9 68 3d
       -0.03288074 0.008510314 0.0174459 0.056817733
000120 7c 2f d2 bc 96 84 b4 3d b0 04 9a 3d f8 50 5d bc
       -0.025657408 0.08814351 0.07520425 -0.013508074
000130 8c f7 87 bc e4 a9 89 bd 8a 23 a3 3d ac 29 a5 3d
       -0.016597532 -0.06721857 0.07965763 0.08064589
000140 18 07 c1 3c 3e 86 48 3d 6d b5 97 bd 48 cb 53 bc
       0.023562953 0.04895615 -0.07407651 -0.012926884
000150 b0 52 da 3c f1 97 bb bb d4 de b9 bc b3 a9 64 bd
       0.026650757 -0.0057249 -0.02268926 -0.0558259
000160 ad 60 11 3c cb 88 60 bd 7e 02 4f bd fb 7e b2 3b
       0.008873147 -0.054817956 -0.050539486 0.005447266
000170 d5 e5 63 bd 44 f8 8e 3b 47 1e 6f bd c5 12 94 3d
       -0.055639107 0.0043630917 -0.058378484 0.072301425
000180 80 ac cc 3b 9c c9 10 3e b9 3b a7 3c f8 d7 6c bb
       0.0062461495 0.14139408 0.02041422 -0.003613947
000190 4f 55 1e bd 4c b3 90 bc 8a 5e 96 3d 61 98 a0 3b
       -0.038655575 -0.01766362 0.07342251 0.0049009775
0001a0 87 e9 5f 3c b0 7e 77 bc 94 14 19 3a 03 37 44 bc
       0.013666517 -0.015105888 0.0005839553 -0.011976006
0001b0 24 5f 69 bb c8 4c 75 bc 1b 0b 94 3d 00 a4 a4 bd
       -0.0035609687 -0.014971919 0.07228681 -0.08039093
0001c0 4b f4 d9 bc 2c ca a4 3d 24 84 02 bd 2e 2b 17 3e
       -0.026605746 0.08046374 -0.0318643 0.14762565
0001d0 20 4e 4f bd 8b 2e 67 3b c2 3e ec 3b 50 62 0f bc
       -0.050611615 0.0035275545 0.0072096298 -0.008751467
0001e0 84 fc 56 3e e2 72 5a 3d 7b 85 06 3d c0 ed 8c 3d
       0.20994765 0.053332217 0.03284214 0.06881285
0001f0 cf c5 b2 3d 1c bd 42 3e aa 72 31 3d 7b 18 2e bd
       0.08729135 0.19017452 0.043322243 -0.042503815

exp_avg f4 [128, 5]
000000 b3 b4 5a 38 8a 74 74 3a 4a 8a b7 39 f4 2c f8 b8
       5.214354e-05 0.0009325227 0.00035007513 -0.00011833935
000010 04 fe 80 b7 00 00 00 00 00 00 00 00 00 00 00 00
       -1.5377074e-05 0.0 0.0 0.0
000020 00 00 00 00 00 00 00 00 ed 87 ef b8 c9 73 98 b8
       0.0 0.0 -0.00011421726 -7.2694915e-05
000030 17 31 b1 ad 30 53 e4 b9 00 00 00 00 07 bb 20 38
       -2.014437e-11 -0.00043549528 0.0 3.8321155e-05
000040 f2 8c 51 3a 31 7b a8 39 fd 69 ce b8 1d 5a a7 b7
       0.000799372 0.00032135242 -9.842587e-05 -1.9949914e-05
000050 00 00 00 00 00 00 00 00 00 00 00 00 00 00 00 00
       0.0 0.0 0.0 0.0
000060 00 00 00 00 4f eb 12 37 2d 4a 85 39 2a d3 eb 38
       0.0 8.757065e-06 0.00025423002 0.000112450056
000070 88 1a fc b7 e5 90 22 b7 00 00 00 00 00 00 00 00
       -3.0053096e-05 -9.689688e-06 0.0 0.0
000080 00 00 00 00 00 00 00 00 00 00 00 00 04 af 22 38
       0.0 0.0 0.0 3.8786806e-05
000090 29 b1 39 3a f1 08 8f 39 ca e6 b7 b8 28 55 5d b7
       0.0007083589 0.00027281747 -8.769108e-05 -1.31924535e-05
0000a0 00 00 00 00 00 00 00 00 00 00 00 00 00 00 00 00
       0.0 0.0 0.0 0.0
0000b0 00 00 00 00 00 00 00 00 00 00 00 00 00 00 00 00
       0.0 0.0 0.0 0.0
0000c0 00 00 00 00 00 00 00 00 02 81 02 b8 99 88 58 36
       0.0 0.0 -3.1114563e-05 3.2266018e-06
0000d0 98 6f 96 28 b0 51 bc b8 00 00 00 00 ae 01 77 38
       1.6701741e-14 -8.979754e-05 0.0 5.8890953e-05
0000e0 2f 62 74 39 e4 94 5d 39 80 7b 80 39 de 56 f8 20
       0.0002330623 0.00021131668 0.00024506077 4.2070318e-19
0000f0 0d a2 dc 34 04 b0 2a 35 2d f5 11 36 4c 43 f3 35
       4.10961e-07 6.358607e-07 2.1749395e-06 1.8124497e-06
000100 3f 9c c2 34 00 00 00 00 00 00 00 00 00 00 00 00
       3.6249e-07 0.0 0.0 0.0
000110 00 00 00 00 00 00 00 00 ca 04 25 21 ff 46 bd 20
       0.0 0.0 5.5910513e-19 3.2064827e-19
000120 ef c6 03 23 3c 35 dd 22 7c c4 ad 21 7d 62 22 38
       7.14365e-18 5.9958534e-18 1.1774945e-18 3.8715534e-05
000130 67 37 4f 3a c3 da a4 39 bd 4d cd b8 a3 e2 9e b7
       0.0007904679 0.00031443508 -9.7896416e-05 -1.8940604e-05
000140 00 00 00 00 00 00 00 00 00 00 00 00 00 00 00 00
       0.0 0.0 0.0 0.0
000150 00 00 00 00 00 00 00 00 00 00 00 00 00 00 00 00
       0.0 0.0 0.0 0.0
000160 00 00 00 00 00 00 00 00 88 26 54 38 b6 36 64 39
       0.0 0.0 5.0580624e-05 0.00021764156
000170 6e 49 9f 38 df 8e 76 38 e4 a3 01 a4 15 59 32 b8
       7.595388e-05 5.878403e-05 -2.8111237e-17 -4.252147e-05
000180 a9 93 13 39 71 8f 23 38 4c ea e4 b8 2d 9d 9f 26
       0.0001407402 3.899582e-05 -0.000109155284 1.1075444e-15
000190 cc 47 0e 37 75 23 ea 39 e1 38 65 39 1b ee 39 b8
       8.480576e-06 0.00044658376 0.00021860331 -4.432919e-05
0001a0 46 29 de b7 00 00 00 00 00 00 00 00 00 00 00 00
       -2.6483682e-05 0.0 0.0 0.0
0001b0 00 00 00 00 00 00 00 00 f8 35 9a b4 1e 02 ec b4
       0.0 0.0 -2.8724003e-07 -4.3959966e-07
0001c0 03 39 46 27 28 8b ab b5 00 00 00 00 1f f9 e1 37
       2.7508926e-15 -1.2780993e-06 0.0 2.6938096e-05
0001d0 2f 35 76 39 70 9f 74 38 65 83 1a 39 00 00 00 00
       0.000234802 5.832262e-05 0.00014735533 0.0
0001e0 82 e1 09 38 46 b6 50 3a 38 63 b0 39 a9 55 c5 b8
       3.2873366e-05 0.0007961731 0.0003364326 -9.4096475e-05
0001f0 b2 09 db b7 18 b2 fe b9 48 84 0a 3a 0d 80 0e bb
       -2.611135e-05 -0.00048579345 0.00052839937 -0.0021743805
000200 5d b1 13 bb 05 69 ed b9 79 ac d5 37 ab c2 39 3a
       -0.0022536137 -0.00045282408 2.5471893e-05 0.0007086198
000210 80 6d a5 39 31 a1 9e b8 85 ef f4 b7 c0 4f ad a3
       0.00031552836 -7.564051e-05 -2.9198602e-05 -1.8790473e-17
000220 a9 3a 88 22 28 ae fd a4 91 66 d3 a4 d5 1e a9 a3
       3.6924983e-18 -1.1001629e-16 -9.168042e-17 -1.8336075e-17
000230 ce c5 8f 37 5f 80 0b 3a e8 11 71 39 37 1e 8e b8
       1.7139038e-05 0.0005321558 0.00022990222 -6.7767156e-05
000240 99 5a a4 b7 b0 1f 45 38 0a 29 31 3a 72 bc 71 39
       -1.9592511e-05 4.699797e-05 0.00067581295 0.00023053752
000250 2a 6b c0 b8 1b c2 17 b5 ba ae 1d 38 50 7e 41 3a
       -9.175234e-05 -5.6534344e-07 3.7594444e-05 0.0007381188
000260 89 9e 98 39 01 b8 ba b8 29 56 8f b7 00 00 00 00
       0.00029109817 -8.9034445e-05 -1.708705e-05 0.0
000270 00 00 00 00 00 00 00 00 00 00 00 00 00 00 00 00
       0.0 0.0 0.0 0.0
000280 00 00 00 00 00 00 00 00 00 00 00 00 00 00 00 00
       0.0 0.0 0.0 0.0
000290 00 00 00 00 c0 ea 00 38 fd c3 18 3a 3c 03 6d 39
       0.0 3.0736206e-05 0.00058275444 0.00022603286
0002a0 36 35 99 b8 bb 50 3f b7 f1 8e 52 b8 cc 36 cf b8
       -7.30552e-05 -1.1403284e-05 -5.0201026e-05 -9.880736e-05
0002b0 79 91 c8 b8 fa f5 44 b9 08 48 b3 37 ec 03 4b 38
       -9.5638396e-05 -0.0001878365 2.1372005e-05 4.8402624e-05
0002c0 52 fc 63 3a 4b 65 ad 39 97 3a e1 b8 1f fe 84 b7
       0.00086969614 0.000330726 -0.00010739749 -1.585396e-05
0002d0 87 fe 9d 39 65 11 8b 3a 34 e2 c6 3a 90 0b 5c 3a
       0.0003013501 0.0010610042 0.0015173615 0.0008394057
0002e0 5a f7 2d 39 12 e7 98 ac 74 42 2b ac 8b e9 da ad
       0.00016590711 -4.345754e-12 -2.433745e-12 -2.4887445e-11
0002f0 4b 6d b6 ad 09 f1 91 ac 77 e4 2a 38 06 af 48 3a
       -2.073954e-11 -4.147908e-12 4.0743933e-05 0.0007655475
000300 5d 2a 9c 39 6f af c7 b8 e7 cc 7c b7 94 70 72 38
       0.00029786202 -9.5217365e-05 -1.5068078e-05 5.7802143e-05
000310 12 f4 3c 3a 39 b1 65 39 e1 8b dd b8 78 9d 17 37
       0.0007208 0.00021905162 -0.00010564156 9.036965e-06
000320 3f 26 19 38 e1 67 39 3a 99 aa 92 39 4e 25 b5 b8
       3.6513662e-05 0.0007072669 0.00027974395 -8.637701e-05
000330 8b 3e 82 b7 57 86 db 37 ac c0 04 3a 1f 25 54 39
       -1.5526331e-05 2.6169391e-05 0.0005064111 0.00020231724
000340 e0 d5 79 b8 41 f3 41 b7 00 00 00 00 00 00 00 00
       -5.9565413e-05 -1.1560333e-05 0.0 0.0
000350 00 00 00 00 00 00 00 00 00 00 00 00 c5 e3 f5 37
       0.0 0.0 0.0 2.931234e-05
000360 a9 27 d0 39 a8 09 07 39 17 82 6d b8 8c 67 0f 36
       0.000397024 0.000128782 -5.662636e-05 2.1368933e-06
000370 ef 71 45 38 ad b9 7e 3a 0f ac cc 39 3e 5f f4 b8
       4.707457e-05 0.0009716999 0.00039038106 -0.00011652567
000380 5a a7 d2 b7 ee 01 c4 39 c8 e8 ce 39 fb 57 32 3a
       -2.511188e-05 0.0003738547 0.00039464817 0.0006803271
000390 93 3d ca 3a 8b 21 af 21 00 00 00 00 00 00 00 00
       0.0015429728 1.186734e-18 0.0 0.0
0003a0 00 00 00 00 00 00 00 00 00 00 00 00 08 3d 22 38
       0.0 0.0 0.0 3.868065e-05
0003b0 76 88 02 3a 71 ee 25 39 e4 31 93 b8 b0 1e 8b 36
       0.0004979441 0.00015824453 -7.018799e-05 4.1460953e-06
0003c0 e5 47 06 38 47 91 2f 3a b5 dc 8d 39 2c bf aa b8
       3.2015047e-05 0.0006697368 0.00027058055 -8.14184e-05
0003d0 4c 90 90 b7 9f ce b7 b8 e8 ba 32 3a ec f7 ad b9
       -1.7233331e-05 -8.764606e-05 0.00068180123 -0.00033181848
0003e0 b6 fc 2f ba 5e 09 0a b9 2f 87 18 38 01 3c 24 3a
       -0.0006713377 -0.00013164195 3.6365524e-05 0.0006265045
0003f0 55 ea 77 39 cf 37 a5 b8 7c 2d 1a b7 fa 29 20 38
       0.00023643051 -7.878208e-05 -9.189705e-06 3.8186066e-05

exp_avg_sq f4 [128, 5]
000000 02 82 2e 34 51 ff 4f 35 12 e7 27 36 6e 3a b6 36
       1.625231e-07 7.7485043e-07 2.501944e-06 5.430825e-06
000010 7f 84 ef 32 00 00 00 00 00 00 00 00 00 00 00 00
       2.7883514e-08 0.0 0.0 0.0
000020 00 00 00 00 00 00 00 00 bd 69 88 33 e1 84 85 34
       0.0 0.0 6.352227e-08 2.4869863e-07
000030 f7 a3 58 34 08 e7 63 36 00 00 00 00 ba 56 8e 34
       2.0176218e-07 3.3960114e-06 0.0 2.6512663e-07
000040 de 3a 3e 35 21 37 4a 36 f8 d8 e5 36 5c 7b 09 33
       7.086618e-07 3.0132435e-06 6.8499903e-06 3.2009993e-08
000050 00 00 00 00 00 00 00 00 00 00 00 00 00 00 00 00
       0.0 0.0 0.0 0.0
000060 00 00 00 00 f9 7d 7b 33 3b 0b d4 34 2e ea e5 35
       0.0 5.8555063e-08 3.9496248e-07 1.7129985e-06
000070 93 2d 49 36 92 86 be 32 00 00 00 00 00 00 00 00
       2.9977862e-06 2.2180107e-08 0.0 0.0
000080 00 00 00 00 00 00 00 00 00 00 00 00 1a 97 9d 34
       0.0 0.0 0.0 2.935347e-07
000090 96 55 97 35 18 ed a2 36 9e c0 2e 37 ec f2 82 33
       1.1275285e-06 4.8555776e-06 1.0416055e-05 6.097784e-08
0000a0 00 00 00 00 00 00 00 00 00 00 00 00 00 00 00 00
       0.0 0.0 0.0 0.0
0000b0 00 00 00 00 00 00 00 00 00 00 00 00 00 00 00 00
       0.0 0.0 0.0 0.0
0000c0 00 00 00 00 00 00 00 00 76 bf 1f 33 ef 43 0b 34
       0.0 0.0 3.7194205e-08 1.2970098e-07
0000d0 0f 6a 8f 32 3a 4d ee 35 00 00 00 00 48 30 9a 33
       1.669562e-08 1.7754858e-06 0.0 7.179966e-08
0000e0 cd a1 d5 34 38 33 31 35 54 97 70 36 9c 1c 9b 31
       3.9792067e-07 6.601217e-07 3.5850871e-06 4.5143462e-09
0000f0 a1 0e 21 32 ae d1 03 34 9b 28 26 35 96 fc 58 35
       9.37476e-09 1.2276607e-07 6.189891e-07 8.083383e-07
000100 f1 83 0d 32 00 00 00 00 00 00 00 00 00 00 00 00
       8.23728e-09 0.0 0.0 0.0
000110 00 00 00 00 00 00 00 00 b1 75 9c 30 dc 2a bb 32
       0.0 0.0 1.1383944e-09 2.1789155e-08
000120 a7 df f2 33 34 38 ee 33 c9 97 13 31 96 38 9a 34
       1.1309685e-07 1.1092962e-07 2.1477595e-09 2.8725907e-07
000130 79 32 8a 35 17 ea 8d 36 b6 61 1f 37 f2 03 3c 33
       1.0296491e-06 4.229379e-06 9.499889e-06 4.377575e-08
000140 00 00 00 00 00 00 00 00 00 00 00 00 00 00 00 00
       0.0 0.0 0.0 0.0
000150 00 00 00 00 00 00 00 00 00 00 00 00 00 00 00 00
       0.0 0.0 0.0 0.0
000160 00 00 00 00 00 00 00 00 e6 c3 37 33 f5 52 a9 34
       0.0 0.0 4.2786176e-08 3.1539062e-07
000170 34 1f 7f 35 99 14 22 36 be af 0e 32 d2 f4 cc 33
       9.504031e-07 2.415187e-06 8.305447e-09 9.544023e-08
000180 22 8b fd 34 ec 3c 98 35 3b 17 ab 36 04 69 5c 32
       4.7226155e-07 1.1342613e-06 5.0989015e-06 1.2829563e-08
000190 81 0e c0 33 51 89 0a 35 9c 87 07 36 56 e2 92 36
       8.943335e-08 5.160883e-07 2.0195503e-06 4.377488e-06
0001a0 65 e4 b7 32 00 00 00 00 00 00 00 00 00 00 00 00
       2.1407866e-08 0.0 0.0 0.0
0001b0 00 00 00 00 00 00 00 00 cf 53 52 32 64 82 51 33
       0.0 0.0 1.2242665e-08 4.8780194e-08
0001c0 20 45 82 31 01 72 12 35 00 00 00 00 65 fc ec 32
       3.7913566e-09 5.4555136e-07 0.0 2.7588792e-08
0001d0 9d c4 2f 33 d1 0d 38 31 31 68 03 35 00 00 00 00
       4.092418e-08 2.6783378e-09 4.895292e-07 0.0
0001e0 dd 14 ad 34 c9 41 9c 35 fb e6 a4 36 79 e6 36 37
       3.223894e-07 1.1642052e-06 4.9144705e-06 1.0901706e-05
0001f0 e7 a4 5c 33 a7 3c 9f 34 13 ec 1b 35 a0 91 39 36
       5.137272e-08 2.9660188e-07 5.808553e-07 2.7651913e-06
000200 a7 ca f5 36 57 b5 8e 33 4e 81 0f 34 cf db f1 34
       7.325161e-06 6.645376e-08 1.3364954e-07 4.504968e-07
000210 4f a4 f1 35 2a ec 73 36 fb 55 b4 32 7a b6 30 2e
       1.8003719e-06 3.6347287e-06 2.0993857e-08 4.017984e-11
000220 61 e6 82 2f 19 4a 92 31 11 2e 4b 31 09 09 02 2f
       2.3810556e-10 4.257583e-09 2.9566574e-09 1.1826641e-10
000230 62 59 27 33 01 93 27 34 c6 58 33 35 b3 14 57 35
       3.896401e-08 1.5606567e-07 6.681188e-07 8.012386e-07
000240 68 78 27 32 36 db a4 34 6e f1 9a 35 e7 7d a1 36
       9.748057e-09 3.0706877e-07 1.1544159e-06 4.812831e-06
000250 c7 65 39 37 c1 3c 5c 33 5e a0 49 34 09 ff 6e 35
       1.1050556e-05 5.1277997e-08 1.8777925e-07 8.9033034e-07
000260 b6 ad 62 36 c1 db ff 36 ed 2e 1b 33 00 00 00 00
       3.3777737e-06 7.625175e-06 3.613143e-08 0.0
000270 00 00 00 00 00 00 00 00 00 00 00 00 00 00 00 00
       0.0 0.0 0.0 0.0
000280 00 00 00 00 00 00 00 00 00 00 00 00 00 00 00 00
       0.0 0.0 0.0 0.0
000290 00 00 00 00 bf 07 ef 33 43 e2 e9 34 d3 3c da 35
       0.0 1.1130714e-07 4.356426e-07 1.6259968e-06
0002a0 19 09 69 36 71 9a a7 32 5b bc a6 32 15 18 47 34
       3.4725e-06 1.951159e-08 1.9410598e-08 1.854208e-07
0002b0 06 f3 85 35 a4 9c a5 35 89 2b 92 32 71 e0 87 34
       9.980001e-07 1.2339046e-06 1.7016434e-08 2.5309012e-07
0002c0 41 39 92 35 06 8a 8c 36 59 bc 24 37 7b 5b 2a 33
       1.0894511e-06 4.188393e-06 9.819015e-06 3.966441e-08
0002d0 dc c3 26 34 91 93 56 35 e3 2e 10 36 dd f3 a7 36
       1.5531208e-07 7.993595e-07 2.1484964e-06 5.0053773e-06
0002e0 04 22 e2 32 12 6c 25 31 22 ac 54 32 a7 07 59 34
       2.6325331e-08 2.407209e-09 1.2379163e-08 2.0212484e-07
0002f0 ac 59 21 34 5d 01 dc 31 00 13 eb 34 46 6f f1 35
       1.5026916e-07 6.4029977e-09 4.3785985e-07 1.7988284e-06
000300 bf 32 fd 36 95 15 94 37 e2 0b 9b 33 c2 b3 3b 34
       7.545895e-06 1.7653025e-05 7.2199114e-08 1.7481128e-07
000310 cd ba 1d 35 e0 94 1e 36 83 fd a5 36 0a 5c 15 33
       5.875889e-07 2.3630491e-06 4.946896e-06 3.4775475e-08
000320 ae bd c8 34 b9 1c cb 35 53 d8 dc 36 0b 88 7a 37
       3.7390913e-07 1.5133038e-06 6.5816944e-06 1.4932836e-05
000330 b4 05 8c 33 8a 3f 4f 34 31 f1 87 35 7f 1c 87 36
       6.5202954e-08 1.9301493e-07 1.012848e-06 4.026631e-06
000340 68 57 18 37 ab d0 27 33 00 00 00 00 00 00 00 00
       9.080257e-06 3.90725e-08 0.0 0.0
000350 00 00 00 00 00 00 00 00 00 00 00 00 8e 90 14 34
       0.0 0.0 0.0 1.3836163e-07
000360 a3 0d 48 35 51 d6 43 36 3e db e0 36 5d 19 fd 32
       7.452565e-07 2.9182013e-06 6.7012434e-06 2.946461e-08
000370 af 24 8b 34 c9 af 58 35 b0 87 59 36 07 04 e5 36
       2.5917458e-07 8.072207e-07 3.24145e-06 6.8252007e-06
000380 41 ba 22 33 31 a6 8a 33 e1 65 fb 34 1d 4b 9d 35
       3.788796e-08 6.456356e-08 4.682652e-07 1.1719272e-06
000390 79 a3 67 36 b6 55 2a 32 00 00 00 00 00 00 00 00
       3.4516836e-06 9.914791e-09 0.0 0.0
0003a0 00 00 00 00 00 00 00 00 00 00 00 00 c4 29 5f 34
       0.0 0.0 0.0 2.0783688e-07
0003b0 b5 f0 8c 35 9a 0d 89 36 a8 96 20 37 41 3c 31 33
       1.0500868e-06 4.0845016e-06 9.571821e-06 4.1265825e-08
0003c0 b2 da 93 34 65 0a 9f 35 c2 d4 a0 36 90 d7 39 37
       2.7540005e-07 1.1849448e-06 4.79314e-06 1.1077049e-05
0003d0 e2 21 51 33 8e 8c 90 34 b2 34 9f 35 3f 51 97 36
       4.869242e-08 2.6924357e-07 1.186176e-06 4.509609e-06
0003e0 07 7a 34 37 0a 9e 4b 33 ff 23 8d 34 37 04 92 35
       1.0757248e-05 4.7408356e-08 2.6289487e-07 1.0879074e-06
0003f0 6f 3b 97 36 e9 99 28 37 4e 1a 4e 33 be ab 97 34
       4.5070697e-06 1.0049415e-05 4.7987037e-08 2.82509e-07

exp_avg f4 [128]
000000 52 8a c6 b7 00 00 00 00 f3 a8 b6 b8 70 21 a5 b7
       -2.366785e-05 0.0 -8.7099055e-05 -1.9685103e-05
000010 00 00 00 00 d8 ae c9 b6 00 00 00 00 ea 1e 93 b7
       0.0 -6.0106213e-06 0.0 -1.7538161e-05
000020 00 00 00 00 00 00 00 00 bd a7 96 b7 67 92 4d 38
       0.0 0.0 -1.7959503e-05 4.9012157e-05
000030 3f 9c c2 34 00 00 00 00 5e f7 b0 21 2d 3e a4 b7
       3.6249e-07 0.0 1.1991701e-18 -1.9579276e-05
000040 00 00 00 00 00 00 00 00 26 3f 45 37 d9 21 b7 b7
       0.0 0.0 1.1756818e-05 -2.1831062e-05
000050 a4 be 14 b7 00 00 00 00 1e 3c 89 b4 ab 38 f7 37
       -8.865874e-06 0.0 -2.556198e-07 2.9471083e-05
000060 04 de 9d b7 01 4f ec b9 d6 ce 7d b7 d5 1e a9 a3
       -1.8819243e-05 -0.0004507229 -1.5128133e-05 -1.8336075e-17
000070 b0 63 63 b7 58 ef 99 b7 30 60 95 b7 00 00 00 00
       -1.3553465e-05 -1.8350474e-05 -1.7806975e-05 0.0
000080 00 00 00 00 0f 22 75 b7 95 91 1d b8 02 2f b4 b7
       0.0 -1.4611068e-05 -3.75673e-05 -2.1479562e-05
000090 3e 09 30 39 09 f1 91 ac 70 bf 9f b7 b4 3c b1 b7
       0.00016788111 -4.147908e-12 -1.9043422e-05 -2.1128311e-05
0000a0 a1 ea 90 b7 47 de 47 b7 00 00 00 00 b9 01 3e b7
       -1.7275395e-05 -1.1913077e-05 0.0 -1.1325284e-05
0000b0 69 7f c3 b7 da ca a1 39 00 00 00 00 ec 82 6b b7
       -2.3305141e-05 0.0003085945 0.0 -1.4037574e-05
0000c0 fb 98 88 b7 2b ca 0c b9 92 2c 84 b7 93 f0 99 b7
       -1.62837e-05 -0.00013426754 -1.575638e-05 -1.8351047e-05
0000d0 67 04 92 b7 00 00 00 00 00 00 00 00 00 00 00 00
       -1.7406606e-05 0.0 0.0 0.0
0000e0 19 9e f7 b5 00 00 00 00 00 00 00 00 00 00 00 00
       -1.8448947e-06 0.0 0.0 0.0
0000f0 bc a7 5e b7 b6 5a 4c b7 a1 c5 45 b7 00 00 00 00
       -1.3271285e-05 -1.2180468e-05 -1.1788129e-05 0.0
000100 00 00 00 00 00 00 00 00 63 69 6c 36 16 a7 25 b7
       0.0 0.0 3.5228084e-06 -9.873669e-06
000110 51 2a ad b7 ea ec 6e b7 01 a6 00 ba ca 53 79 b7
       -2.0642912e-05 -1.4241066e-05 -0.0004907549 -1.4861065e-05
000120 1c d5 9c 27 25 04 d1 35 00 00 00 00 86 a4 38 b7
       4.352975e-15 1.557292e-06 0.0 -1.1005561e-05
000130 35 2f d1 24 00 00 00 00 cf 45 24 37 00 00 00 00
       9.0719273e-17 0.0 9.791415e-06 0.0
000140 00 00 00 00 fa 50 89 28 a4 12 ed b7 00 00 00 00
       0.0 1.5245173e-14 -2.8261282e-05 0.0
000150 01 2a 3f b7 6c aa 67 b7 ed f2 9e 38 ef ce 76 b8
       -1.1394267e-05 -1.3808352e-05 7.5792756e-05 -5.8843692e-05
000160 00 00 00 00 00 00 00 00 d2 ec 38 b7 43 e5 3a b7
       0.0 0.0 -1.1022394e-05 -1.1139843e-05
000170 00 00 00 00 00 00 00 00 00 00 00 00 7d af 85 b9
       0.0 0.0 0.0 -0.00025498486
000180 14 1f a8 b7 cd 00 45 37 f6 75 89 b7 89 27 24 b7
       -2.0041633e-05 1.17423015e-05 -1.6386603e-05 -9.784367e-06
000190 9d be 75 38 a0 a0 63 38 8e 30 ff b8 e7 94 5c b7
       5.8590074e-05 5.427061e-05 -0.000121683915 -1.3147691e-05
0001a0 ae c7 9e b7 43 49 af b7 42 5f e9 26 00 00 00 00
       -1.892805e-05 -2.089574e-05 1.6193442e-15 0.0
0001b0 90 f2 e9 26 09 bd 3d 1a ce 43 74 39 00 00 00 00
       1.623337e-15 3.9236985e-23 0.00023294913 0.0
0001c0 b5 b9 16 b7 00 00 00 00 2f 4a ae b7 c8 73 51 b7
       -8.983935e-06 0.0 -2.077696e-05 -1.2484328e-05
0001d0 00 00 00 00 ed 5d 08 b8 34 a1 3e b7 00 00 00 00
       0.0 -3.2512402e-05 -1.13624155e-05 0.0
0001e0 71 61 ae b7 6d af 16 b7 e7 3e 6e b7 05 ff 8f b7
       -2.0787791e-05 -8.981541e-06 -1.4200551e-05 -1.7165681e-05
0001f0 e1 85 47 b7 73 c3 2b b7 bb 21 49 b7 00 00 00 00
       -1.1892495e-05 -1.0237901e-05 -1.1988387e-05 0.0

exp_avg_sq f4 [128]
000000 98 40 69 34 00 00 00 00 8b db 11 34 2a 1a 93 34
       2.1723315e-07 0.0 1.3584047e-07 2.739992e-07
000010 00 00 00 00 fe c0 00 34 00 00 00 00 bf ae df 34
       0.0 1.1991139e-07 0.0 4.166413e-07
000020 00 00 00 00 00 00 00 00 59 83 98 33 71 fa 19 34
       0.0 0.0 7.1019436e-08 1.4340345e-07
000030 17 df 0a 33 00 00 00 00 e7 75 98 31 2f 02 cc 34
       3.2333528e-08 0.0 4.437186e-09 3.799955e-07
000040 00 00 00 00 00 00 00 00 8e 76 cf 33 0c ff 5a 34
       0.0 0.0 9.6607536e-08 2.0395618e-07
000050 08 03 3c 34 00 00 00 00 35 73 bb 32 6e 33 a8 32
       1.7509967e-07 0.0 2.1822055e-08 1.9581162e-08
000060 bf 1c ea 34 7f 4e 9d 34 42 1c 1c 34 09 09 02 2f
       4.3606812e-07 2.9300642e-07 1.4538912e-07 1.1826641e-10
000070 d0 a6 09 33 11 4f ed 34 c6 bf a3 34 00 00 00 00
       3.2049513e-08 4.4202218e-07 3.050065e-07 0.0
000080 00 00 00 00 87 24 15 34 a6 fb 53 33 9b dc d2 34
       0.0 1.3889995e-07 4.935614e-08 3.927606e-07
000090 aa fa 56 34 4b 87 ce 31 48 8c 3d 35 c0 77 54 34
       2.0021494e-07 6.01077e-09 7.061212e-07 1.9787603e-07
0000a0 09 57 20 35 43 ff c2 34 00 00 00 00 81 e8 8f 34
       5.97313e-07 3.6321043e-07 0.0 2.6804994e-07
0000b0 f4 91 92 34 aa 3f 14 34 00 00 00 00 8d 8d cd 34
       2.7300814e-07 1.3806735e-07 0.0 3.8287217e-07
0000c0 ba e0 ed 34 98 02 e7 34 42 cf d7 34 40 dc d0 34
       4.43082e-07 4.302899e-07 4.019767e-07 3.8903272e-07
0000d0 83 19 e4 34 00 00 00 00 00 00 00 00 00 00 00 00
       4.2486872e-07 0.0 0.0 0.0
0000e0 85 2f 23 34 00 00 00 00 00 00 00 00 00 00 00 00
       1.5197845e-07 0.0 0.0 0.0
0000f0 58 32 b0 34 28 0d 1c 34 c9 8a b3 34 00 00 00 00
       3.2819185e-07 1.4533418e-07 3.3442328e-07 0.0
000100 00 00 00 00 00 00 00 00 bf cb 99 33 37 ec 98 34
       0.0 0.0 7.161679e-08 2.8484075e-07
000110 09 5a 81 33 75 c2 a3 34 42 f4 ff 34 c5 3e df 33
       6.023408e-08 3.0502602e-07 4.7675172e-07 1.03956644e-07
000120 5a e9 17 33 5d 2f 1a 33 00 00 00 00 55 26 a8 34
       3.536966e-08 3.5898996e-08 0.0 3.132033e-07
000130 0c 4f 3c 2d 00 00 00 00 91 99 e0 33 00 00 00 00
       1.0704115e-11 0.0 1.04587464e-07 0.0
000140 00 00 00 00 21 43 f4 33 27 4a 28 34 00 00 00 00
       0.0 1.1374346e-07 1.5673196e-07 0.0
000150 ed ba 91 34 40 bf d6 34 0e db 25 34 b3 4b 59 31
       2.714436e-07 3.999976e-07 1.5446514e-07 3.1620686e-09
000160 00 00 00 00 00 00 00 00 20 3e cd 33 9c ff c5 33
       0.0 0.0 9.557357e-08 9.2200224e-08
000170 00 00 00 00 00 00 00 00 00 00 00 00 4b b1 f8 34
       0.0 0.0 0.0 4.6322597e-07
000180 be 8a f8 34 15 f4 95 31 7d 80 b9 34 05 8a 8d 34
       4.6294548e-07 4.3642197e-09 3.4552423e-07 2.636372e-07
000190 59 f2 b8 32 39 4b 62 35 20 ff 8c 33 a5 42 02 34
       2.1530626e-08 8.4301024e-07 6.565665e-08 1.2131439e-07
0001a0 d6 21 3d 34 a2 01 7b 34 7c f7 c5 31 00 00 00 00
       1.7614306e-07 2.337679e-07 5.7615903e-09 0.0
0001b0 65 82 f7 30 33 f2 a2 2d 5b 66 cb 33 00 00 00 00
       1.8008676e-09 1.8524826e-11 9.4715425e-08 0.0
0001c0 78 a3 b9 34 00 00 00 00 50 29 e9 34 f9 63 a2 34
       3.4577874e-07 0.0 4.342969e-07 3.024759e-07
0001d0 00 00 00 00 72 08 a2 34 9d 0e 12 34 00 00 00 00
       0.0 3.0180996e-07 1.3602626e-07 0.0
0001e0 3f 05 09 35 43 45 b6 33 b5 43 3e 34 ce 0a 89 34
       5.104411e-07 8.487634e-08 1.771976e-07 2.55261e-07
0001f0 ec b6 0b 33 30 44 f4 33 67 21 5d 33 00 00 00 00
       3.2529826e-08 1.13745386e-07 5.148595e-08 0.0
