models/ppo_agent.pt (torch, 221178 bytes, 18 tensors)

feature_extractor.0.weight f4 [128, 5]
000000 44 06 33 3e 42 53 c3 3e d2 c3 88 be 4c b9 8b 3e
       0.17482859 0.38149458 -0.267119 0.27289808
000010 9b 7b 77 3d 98 59 9e be 7d b9 60 be ca af 81 be
       0.060420614 -0.3092773 -0.21945758 -0.2532943
000020 10 6c 54 bd 66 29 05 be f6 ab d5 be a0 d4 55 3d
       -0.05186087 -0.13004074 -0.41732758 0.052204728
000030 38 80 9d bd 57 1f d6 be a8 4f d5 3e 01 13 36 be
       -0.076904714 -0.41820785 0.41662335 -0.17780687
000040 f8 db 8e 3e 5f 85 73 3d 24 2b ec 3e f4 8e a7 3d
       0.27902198 0.059453364 0.46126664 0.08181563
000050 90 fb 70 3d f2 43 c9 3e e7 6a b2 3d 2b 5c 8f be
       0.05883366 0.3930965 0.08711796 -0.28000006
000060 ef 14 82 be 2a 0e ef 3e 43 2a 0e bf 4e 94 ab 3d
       -0.25406596 0.46690494 -0.55533236 0.08377896
000070 bc 12 3b 3d f9 92 fe be 96 28 a8 3e 00 52 80 3b
       0.045672163 -0.49721506 0.32843465 0.003916025
000080 4a 96 c6 be 02 f7 25 be 28 1c 9a bd 5c 8a 2f 3e
       -0.38786536 -0.16207507 -0.07524902 0.17142624
000090 88 65 4e 3e 9c 55 a4 bd 3d 0c a6 be cc 91 66 3e
       0.20155919 -0.08024141 -0.32431212 0.22516555
0000a0 c0 84 b6 3e 9e 74 ab bd 02 6f d9 3e f0 da c6 be
       0.35648155 -0.08371852 0.42467505 -0.3883891
0000b0 2b 8a 0a bf d3 58 2f bd 25 9d 04 bf 2a cf b4 3e
       -0.5411708 -0.04280932 -0.51802284 0.35314304
0000c0 b4 45 76 3e d5 80 df be 4d fb 00 3f ca 18 9e 3e
       0.24050027 -0.4365298 0.50383455 0.30878288
0000d0 02 bd 94 be 81 6d 95 3e 0b 33 6d bb 13 df 82 3d
       -0.29050452 0.29185107 -0.0036193754 0.06390204
0000e0 8d 08 83 3b 4d 42 f9 3d b3 e1 a4 3e 81 31 fe be
       0.003998822 0.12170849 0.32203445 -0.49647143
0000f0 52 85 43 be da cb 9b 3e 57 53 d1 be 48 26 c5 be
       -0.19093826 0.30428964 -0.40883896 -0.3850577
000100 ce 24 88 3e be 50 56 3e e2 10 5a 3e c3 8e 18 be
       0.2659058 0.20929238 0.21295503 -0.1489821
000110 6b 33 9d 3e 2b 49 74 3c 6d 3e 3b 3f 7a 40 92 be
       0.3070329 0.014910023 0.7314213 -0.28564817
000120 ec 11 ad 3e 9f 3b 15 be 69 c0 46 bd 16 f2 66 3e
       0.33802736 -0.14573525 -0.04852334 0.22553286
000130 7d f8 81 3e af 72 7b 3d 9c 8d 1c be d0 0a 48 3e
       0.25384894 0.061388668 -0.15288395 0.19535375
000140 40 14 82 3d 72 15 33 be 60 8d db 3d 14 51 da be
       0.06351519 -0.1748865 0.107203245 -0.42639983
000150 18 f9 00 3d 78 0b d8 be 02 8d 54 bd df 42 04 3e
       0.031487554 -0.4219625 -0.051892288 0.12916134
000160 c3 a2 69 3e 1d 3f 87 3e 95 e6 a5 be ff 8e 56 be
       0.22815995 0.2641534 -0.32402483 -0.20952986
000170 8e ae 65 be 23 a9 9c be da 50 04 be a0 d2 d0 bd
       -0.22429869 -0.3059779 -0.12921467 -0.101964235
000180 8b b6 ee 3d 8c 75 c9 3e 11 fa 82 3e 57 a9 37 bc
       0.11655911 0.39347494 0.2558141 -0.011209807
000190 7d dc 7c be 59 43 e9 3d 39 8b d4 3e f9 de d6 be
       -0.24693485 0.11389799 0.41512468 -0.4196699
0001a0 d0 af a0 3e 76 d1 f8 be 7e db 90 3e 8c de 89 3c
       0.31384134 -0.48597306 0.2829246 0.016829751
0001b0 5b 2c 7b 3e 1a e1 ac 3e a5 95 92 3e 69 b1 0d 3d
       0.24528639 0.3376549 0.28629795 0.03459302
0001c0 91 f2 40 be b8 b0 94 3e fb 40 ba 3e 3e aa bf be
       -0.18842532 0.29041076 0.363777 -0.37434572
0001d0 89 86 0e be 88 e5 bf be 0f 34 0f 3e 38 42 e4 be
       -0.13918509 -0.37479806 0.13984703 -0.4458177
0001e0 18 6e 32 3f d1 87 45 3c 8d e3 44 bc d0 cb 55 bd
       0.6969924 0.012056307 -0.012017143 -0.052196324
0001f0 35 f0 9a be 84 83 2d 3e a2 e1 bc be 7c b4 ab bd
       -0.30261388 0.169447 -0.36890894 -0.08384034
000200 6b 87 b1 be 80 40 30 3c 88 25 9f 3c b4 af 1e 3e
       -0.34673628 0.0107575655 0.019427076 0.15496713
000210 a7 4d 09 bf e2 f5 9d bd c0 27 3a be 48 61 d8 3e
       -0.53634113 -0.07712914 -0.18179226 0.4226172
000220 f2 2d 45 bc 3b 1f e3 3e 0a 79 be be f5 e6 4c be
       -0.01203488 0.44359764 -0.3720172 -0.20009978
000230 c3 8b 3c 3b 81 ca 8f 3e 91 a7 87 3d a3 e1 26 3d
       0.0028769828 0.28084186 0.06623758 0.040742528
000240 5c 40 16 bd bf bd 03 3f b8 5d db be ed 61 65 be
       -0.03668247 0.51461405 -0.4284494 -0.22400637
000250 7f 85 b3 3e 31 47 dd be 8e 54 96 be 29 3e 95 3e
       0.35062787 -0.43218377 -0.29361385 0.29148987
000260 07 64 51 3e 62 69 ad 3e be fa 82 bd ef 4f 34 3f
       0.20448314 0.33869463 -0.063954815 0.7043447
000270 e7 c7 87 bd c8 f9 11 be cf bc 5e 3e 1a 57 ea 3d
       -0.06629925 -0.1425544 0.21751712 0.114423946
000280 b8 cb 31 3f 2f 12 cf bd 60 dc 7a bd 77 3d 74 3e
       0.69451475 -0.1011089 -0.061245322 0.23851572
000290 21 ee a1 3e 42 d6 c8 be 04 47 1e 3e 80 4b 56 bc
       0.3162699 -0.39225966 0.15456778 -0.013079524
0002a0 38 ec 21 bd b0 2a ba 3c da 80 4e be c0 f2 58 3d
       -0.039531916 0.022725433 -0.2016634 0.05296588
0002b0 f6 3f 3e be 96 1c 13 be 70 f4 df 3e e3 80 d1 be
       -0.18579087 -0.14366373 0.4374118 -0.40918645
0002c0 e3 e1 58 3b 48 07 d1 bb 39 1c 9e 3e 2f 6c c9 3c
       0.0033093623 -0.006379042 0.30880907 0.024587719
0002d0 83 35 b5 3e be 78 a2 3e b6 3c ea bc aa 63 af be
       0.3539239 0.31732744 -0.028593402 -0.34255725
0002e0 ec ac e1 bd 7e f1 ee bd c0 4f 66 3e 06 1b 5b 3d
       -0.1101931 -0.11667155 0.2249136 0.05349257
0002f0 a9 48 5a be 72 f0 3c 3e 6b 5f 39 3e 84 b5 97 be
       -0.2131678 0.18451098 0.18102805 -0.29630673
000300 13 9a 81 3e 4a 88 bc 3e d4 ee 7b 3e 48 47 0f 3d
       0.25312862 0.3682273 0.24602824 0.03498009
000310 4f 74 af be 1a 95 b1 be 80 39 39 bd a4 58 0e be
       -0.34268424 -0.34684068 -0.045220852 -0.13901001
000320 74 20 37 3e c4 5f 33 be 7c cb db 3e 3f a8 9c be
       0.17883474 -0.17517 0.42928684 -0.30597112
000330 f3 73 ec bd ee ce aa 3e a8 5d df bd 3c a8 07 be
       -0.11545553 0.33361 -0.109065354 -0.1324777
000340 dc 79 79 be 00 b5 20 bc 60 81 d1 3e 1e cc e3 3d
       -0.24362892 -0.009808779 0.40919018 0.11122917
000350 bc cf 0c be 42 3a 3f 3e b0 90 69 3e fe d2 22 3f
       -0.1375112 0.18674567 0.228091 0.636032
000360 39 6b d8 be 75 3e 68 be 95 9e 82 3e 27 ad f8 3e
       -0.42269304 -0.22680075 0.25511613 0.48569605
000370 22 8a 20 be ff 09 60 be d4 c8 db be 04 d1 00 be
       -0.15677693 -0.21878813 -0.42926657 -0.12579733
000380 fe 6b a2 be 41 7a 3f 3f 17 a1 ab be f4 bf ad 3e
       -0.31723017 0.7479592 -0.3352134 0.3393551
000390 5c e9 6b bd af f2 ca 3d 89 5f dc 3e 14 d7 f4 3e
       -0.057595596 0.099095695 0.43041638 0.47820342
0003a0 46 8b 41 bc 1a 4f 9b be aa 37 94 3d 40 81 1f 3e
       -0.0118129905 -0.30333787 0.072371796 0.15576649
0003b0 d5 1a be be f8 53 92 3d d8 a2 bb bd ec 98 0f 3e
       -0.37129846 0.07144922 -0.09161919 0.14023179
0003c0 49 0b d7 be 54 a2 9f 3e 83 0d 1f 3e 37 22 98 3e
       -0.42000797 0.31178534 0.15532498 0.29713604
0003d0 9d 37 c9 3e b7 71 11 3e c4 4e e4 be 3e f9 a5 3e
       0.39300242 0.14203535 -0.44591343 0.3241672
0003e0 3d 0a 24 be f9 89 84 be 29 cf 23 3f 6e 02 53 be
       -0.1601953 -0.25886515 0.63987976 -0.20606396
0003f0 96 5e 3e 3e 80 67 27 3e 6b ea ce be 10 cc 15 3f
       0.18590769 0.16348076 -0.40413222 0.585145

feature_extractor.0.bias f4 [128]
000000 75 c5 f0 3d bc 9c 56 3e b4 2b 95 bd 40 31 93 bc
       0.11756412 0.20958227 -0.07283726 -0.01796782
000010 60 7d b2 3e a1 a7 2b 3f b0 70 9f bd 88 db ac bd
       0.3486128 0.67052656 -0.07785165 -0.0844031
000020 25 29 0b 3c ed e2 fc 3e ca a5 17 3f d3 5a 0e bc
       0.008493696 0.4939188 0.5923735 -0.008688646
000030 20 60 71 3e 89 2d 6d 3e c9 0c f8 3e 33 90 dc 3e
       0.23571825 0.23161902 0.48447254 0.43078765
000040 61 ba d8 be 78 8b 91 be 18 0f f2 bd f6 03 4c be
       -0.42329696 -0.2842672 -0.11819285 -0.19923386
000050 5b b9 aa 3e 96 98 b4 be bc e8 86 3e c6 d9 b5 be
       0.3334454 -0.35272664 0.26349437 -0.3551771
000060 6c 66 bd 3e 38 ed e4 3e 66 7b 18 3e d1 cb f6 bd
       0.36992204 0.44712234 0.14890823 -0.12050594
000070 45 fe db 3e 88 9e 25 3f 14 07 18 be 66 31 f7 3e
       0.4296743 0.64695024 -0.1484645 0.48279876
000080 44 fc 61 3e a2 63 b4 be 57 85 b3 be 8e dc cf be
       0.22068888 -0.35232264 -0.35062668 -0.40597957
000090 9d 40 d2 3e b9 06 46 bd a5 ed a2 3e 5d dc ab be
       0.4106492 -0.048346255 0.31821933 -0.3356656
0000a0 42 63 b0 3d e4 e7 8d 3e a0 37 11 3f 24 12 28 3e
       0.08612682 0.2771598 0.567255 0.1641317
0000b0 54 f2 a6 3e f9 d9 02 3f ac c7 bc 3e 3c a9 04 be
       0.32606757 0.5111385 0.36871088 -0.12955183
0000c0 f2 0c ed be 42 02 2f 3f c0 8c 45 be b3 6b 35 3f
       -0.4629894 0.6836282 -0.19291973 0.7086746
0000d0 b5 d1 05 3e 0c 02 a5 3e 38 df c5 be 99 22 ad be
       0.13068278 0.32228124 -0.38646865 -0.33815458
0000e0 b4 20 9e be 46 cb 83 be 3d 0b db be 75 85 b9 3e
       -0.30884326 -0.25741023 -0.42782012 0.36234632
0000f0 40 c3 ec 3d f2 f3 16 3f 0d f1 dc 3e 55 4d 1f 3f
       0.115606785 0.5896598 0.43152657 0.62227374
000100 ac d4 7e 3e 38 b3 9f 3d 3e 9c 83 3e a5 ce 44 bc
       0.24885815 0.07797855 0.2570514 -0.0120121585
000110 c0 14 25 3f 5b a6 3b 3e 9d 69 d0 be 95 3a b5 3d
       0.64484787 0.18325178 -0.40705577 0.08849064
000120 04 51 d1 bd f6 03 08 bf 5a 24 f4 bd 95 14 48 be
       -0.10220531 -0.53131044 -0.11920996 -0.19539101
000130 58 84 6d bd c9 e3 30 be e8 29 34 bd 2e 0e a1 be
       -0.05798754 -0.17274393 -0.043985277 -0.3145613
000140 c3 ae 55 be 81 a5 92 be 81 b0 21 3f 89 28 ff 3d
       -0.20867448 -0.28641894 0.6315995 0.12458903
000150 66 5c 88 bd 10 7d 5d 3e d2 85 70 be 51 26 1b be
       -0.066582486 0.21629739 -0.23488548 -0.15151335
000160 a0 72 5a be 48 b8 93 3d 9f 6b 06 3f 47 f5 cd be
       -0.21332788 0.07212883 0.52507967 -0.40226194
000170 c1 25 fa 3e 52 75 79 3e 58 d1 d9 3e b2 73 98 3e
       0.4885693 0.2436116 0.4254253 0.2977577
000180 42 d7 bd be f8 69 b3 3d db db ce 3e 7d 50 a7 be
       -0.3707829 0.08760446 0.4040211 -0.32678595
000190 62 17 0b be 2e 45 b7 3e a4 dd a4 bd 1c ae ab be
       -0.13583139 0.35794967 -0.08050087 -0.33531272
0001a0 1e 73 8a 3e 24 c3 82 3e a7 78 f0 bb ea 3a 8f 3e
       0.27040952 0.25539505 -0.0073386016 0.27974635
0001b0 ae ae 74 be 14 40 e3 3e f2 ed 2f 3d 3b e4 6c be
       -0.2389476 0.44384825 0.04295153 -0.23133938
0001c0 91 95 81 3d 57 84 2c 3f e2 7a b9 be 0f c1 f2 3e
       0.06327356 0.67389435 -0.36226565 0.47412917
0001d0 8e a5 71 bd 36 9d 0a 3f 77 33 f5 3d 30 15 4d bd
       -0.058995776 0.54146135 0.11972707 -0.050069034
0001e0 fe 86 59 3d 92 87 a9 3e 8c 2d 46 3e c2 83 4f 3e
       0.053107254 0.33111244 0.19353312 0.20265105
0001f0 f4 05 cb 3e 00 80 11 be a8 cd b3 bd 08 fe 37 3d
       0.3965298 -0.14208984 -0.0877946 0.044919997

feature_extractor.2.weight f4 [128, 128]
000000 d4 1d 0d 3c 7c b9 a4 bc 34 cc db 3c 66 45 6e bd
       0.008613069 -0.020107977 0.02683077 -0.058171652
000010 3a 0a 5b 3d 5a aa f0 bb 68 a3 7b bd 6a 20 ec bc
       0.05347655 -0.0073445262 -0.061435133 -0.02882405
000020 12 38 9d 3c 0d 52 7e 3d db e0 84 3d 73 17 ef bc
       0.019191775 0.06208997 0.064882 -0.029185986
000030 4d 35 81 bd 0f 02 53 bd d2 00 8d bd 03 68 27 3d
       -0.063089944 -0.051515635 -0.06884922 0.040870678
000040 c0 5c 88 ba c7 41 4c 3d a0 90 9c bc fd 66 9c bd
       -0.0010403618 0.049867418 -0.019111931 -0.07636831
000050 c1 35 7c 3c 08 6c 15 bd 47 a6 92 3d a4 0c b1 bd
       0.015393675 -0.03647998 0.07160621 -0.08644989
000060 c7 29 8f bd 1a e8 0a 3d ba 42 5f 3d 9c d0 08 3d
       -0.0699039 0.033912756 0.054506995 0.03340207
000070 72 e3 7e 3d 76 95 98 3c 27 b3 c2 bd f8 1c 82 bd
       0.062228628 0.018625956 -0.09506827 -0.063531816
000080 94 b8 84 bc 23 3c 9b bd 8c 8f 21 bd 00 48 ca 3c
       -0.016201295 -0.075798295 -0.039443538 0.024692535
000090 aa bf e4 bc b7 59 a2 bd 05 1f 8a bd 86 ea 3c 3d
       -0.027923424 -0.07927268 -0.06744198 0.046122096
0000a0 7f df b1 3b b1 b6 a4 3d f0 72 1a bc ad 4e 0b bd
       0.005428254 0.08042658 -0.009426817 -0.034010578
0000b0 48 49 86 3c 31 c2 a0 bd 57 7d 90 bd e4 07 db 3c
       0.016392365 -0.07849539 -0.07055157 0.026737161
0000c0 83 b0 92 bc 3c b2 c2 bd ab 80 83 3d d5 f7 c7 3c
       -0.017906433 -0.09506652 0.06421026 0.024410168
0000d0 c7 e1 fb bc 6e c4 71 3d 77 86 b4 3d 70 0c 2f 3c
       -0.030747307 0.05902522 0.0881471 0.010684118
0000e0 e5 ad a6 bd 2c b2 19 3d c3 51 9b bd 22 81 8c 3d
       -0.081386365 0.037523434 -0.07583954 0.06860568
0000f0 38 59 8e 3c 55 32 37 bd ce aa 21 3d c0 9d 01 3c
       0.017376527 -0.044725735 0.039469533 0.007911146
000100 98 5e 16 bc 6b 20 8e 3d 5c 0f 86 bd 9a c3 60 3d
       -0.009177826 0.06939777 -0.06545898 0.05487404
000110 6d 72 be 3b 85 a8 9b 3c d9 8e 24 bc 55 bb db 3c
       0.0058119805 0.019001255 -0.010043823 0.026822725
000120 43 16 8b 3d 53 c7 5f bd 2b c5 92 bc 54 38 14 bd
       0.067913555 -0.05463345 -0.017916283 -0.03618653
000130 49 f2 56 bd c3 35 ce bd 2c 46 dd bc 30 07 a1 bd
       -0.052477155 -0.10068848 -0.027011 -0.07862699
000140 90 73 8e 3c d7 a2 c9 bd 26 c4 ea 3c 63 4d 66 bd
       0.017389089 -0.09845512 0.028657984 -0.056226145
000150 3f ed ee ba a1 92 96 bd 23 87 39 bd 27 5f 3f 3d
       -0.0018228664 -0.07352186 -0.045294892 0.046721604
000160 7e d2 c5 3c 40 58 b2 3c b0 88 02 3d 6f 7c 3a bd
       0.024148222 0.021770597 0.031868637 -0.045528825
000170 28 a6 c0 bd 16 97 76 3d 52 d1 4e 3d 0f 4c b3 3d
       -0.09406692 0.06020268 0.050492592 0.087547414
000180 8b b5 8a 3d 8d b7 80 bd 79 28 95 3d 16 51 35 bd
       0.06772908 -0.062850095 0.0728311 -0.044266783
000190 64 07 fe 3c 68 52 2f 3d 2b 90 12 bd 28 b0 3c 3c
       0.031009383 0.042803198 -0.03578202 0.011516608
0001a0 26 ed 86 bd d0 0a 5b bc 73 50 1b bd 35 33 89 3d
       -0.06588201 -0.013369277 -0.03791852 0.0669922
0001b0 96 5f ca bd 99 b8 84 bd b9 1a bf bd 45 ad 27 bd
       -0.09881513 -0.06480522 -0.09331269 -0.040936727
0001c0 52 ff 6e 3d dd 78 a6 bd 4d 9f 91 3d 34 27 d9 3c
       0.05834896 -0.081285216 0.07110462 0.026507951
0001d0 54 12 be bc 5b 6e b5 bd d0 15 60 3d 72 45 66 bd
       -0.023202099 -0.08858939 0.054708302 -0.056218572
0001e0 07 9b be 3c 82 90 8d 3b 9b 3d 44 bd 82 3e 41 bd
       0.023267282 0.004320205 -0.047910314 -0.047178753
0001f0 aa 9e 0b 3d a4 c5 31 bc e7 cb 26 bd d2 de 1b bd
       0.03408686 -0.010850344 -0.0407218 -0.038054295
000200 72 33 fc bc 26 3e 6f 3d 76 58 64 bd 10 11 e0 3b
       -0.03078625 0.05840888 -0.055748425 0.0068379715
000210 fb cb 3b bd 00 f8 77 bb 72 e0 3d 3d a0 92 94 3b
       -0.045848828 -0.0037837029 0.046356626 0.0045340806
000220 7f 89 2d bd e0 df 02 3d 00 64 66 bc 9e d9 70 3d
       -0.042367455 0.031951785 -0.014061928 0.058801286
000230 a9 df 86 3d ba 11 79 bd 60 de dd 3b 02 8e 3e 3d
       0.065856285 -0.06080792 0.006770894 0.046522148
000240 9e bf 02 bd ab da 49 bd 76 6a 0a 3d c0 23 b6 3a
       -0.03192102 -0.049280804 0.033792935 0.0013896152
000250 b0 79 90 bb 82 11 60 3d 12 14 60 3d ae ce 25 bd
       -0.0044090375 0.054704197 0.05470664 -0.04048031
000260 88 94 9f bd 2f f0 0b bd ca 78 12 3d 2e 9b 32 bd
       -0.07792002 -0.034164604 0.035759725 -0.043605022
000270 2d 1e 8b 3d a0 bb f7 bb 99 da 15 bd 00 9e bc bc
       0.06792865 -0.0075602084 -0.036585424 -0.023024559
000280 88 8f 63 bd 7c df 71 bd 75 e8 36 bd 52 d3 69 3d
       -0.055556804 -0.059051022 -0.044655282 0.057086296
000290 c0 26 d5 3a 44 09 f7 3c 60 f5 ab bd 84 e5 2c bd
       0.0016262159 0.030155785 -0.08396411 -0.04221107
0002a0 90 bf f2 3b 71 e7 79 bd e0 45 08 3d bb 02 ae bd
       0.00740809 -0.061011735 0.033269763 -0.084966145
0002b0 48 52 f0 3c 19 08 87 bd 60 e3 05 3b 16 1f 77 bd
       0.02933611 -0.065933414 0.0020429716 -0.06033238
0002c0 50 01 76 bc e0 0e 86 bb 30 3b a3 3c e7 64 18 bd
       -0.015014961 -0.0040911287 0.019925684 -0.037205603
0002d0 7c a4 a5 bc 86 9f de bc 83 51 a7 bd 48 8f 7e bc
       -0.020220034 -0.027175676 -0.08169844 -0.015537091
0002e0 dc 38 af bc 2e 54 3c 3d 23 39 ad 3d 59 ed 3b bd
       -0.021389417 0.045978718 0.084581636 -0.04588065
0002f0 48 c5 47 bc c0 4a fd 3c 3c b1 75 bd 9f 02 a1 3d
       -0.012193032 0.030919433 -0.059983477 0.07861828
000300 1b b4 9f bd b0 fa 05 bc 88 34 32 3c 60 ff ec 3b
       -0.07798024 -0.008177444 0.010876782 0.0072325915
000310 f6 8c 54 bd 23 53 8f 3d a8 54 b0 bd a8 df 13 3c
       -0.051892243 0.06998279 -0.08609897 0.009025492
000320 86 df 8c bd fa f5 30 bd 62 36 65 bd 76 ad 6d 3d
       -0.06878571 -0.04320333 -0.055960067 0.058026753
000330 58 4c a1 bd 20 26 fe bb 80 7e e1 3b 90 bf b1 3b
       -0.078758895 -0.0077560097 0.006881535 0.0054244474
000340 c9 1a 86 3d 74 47 91 3c 72 4e 40 3d 54 a5 cb bc
       0.065480776 0.017734267 0.04694981 -0.024859108
000350 b0 6e 1d bc 84 e0 ff 3c 27 f8 86 3d fe 09 89 bd
       -0.0096089095 0.031234987 0.065903 -0.06691359
000360 28 32 88 bd 7f 33 9e 3d dc f5 ca 3c c7 e8 21 bd
       -0.066501915 0.07724666 0.024775438 -0.039528634
000370 d0 be 2c 3c 80 68 70 3a 3d ac b3 3d e0 12 70 bb
       0.01054354 0.0009170845 0.08773086 -0.0036632344
000380 ce f8 5e 3d ed 45 97 3d d7 a3 3d bd 42 72 65 3d
       0.054436497 0.07386384 -0.046298828 0.056017168
000390 83 27 65 bd 60 b5 51 bb a9 5b 41 bd 7e 89 72 3d
       -0.055945884 -0.0031998977 -0.047206555 0.059213154
0003a0 c0 30 e3 bc 00 9e b0 39 6e 43 0b bd 28 63 d0 bc
       -0.027733207 0.00033687055 -0.033999853 -0.025437906
0003b0 d8 cc e3 3c 06 3a 76 3d 41 80 28 bd a6 2e 1a 3d
       0.027807638 0.06011393 -0.041137937 0.037642144
0003c0 e8 97 fb bc fa 02 8e bd e8 a9 53 bc 6e 93 6e bd
       -0.030712083 -0.069341615 -0.012918927 -0.05824607
0003d0 b4 e0 8a bd 55 fa 89 3d b0 5b e2 3c 9e 19 25 bd
       -0.0678114 0.067372 0.02763161 -0.040307634
0003e0 ee 6c 7d 3d ec 3a b0 bc 9d 1a a2 3d 2a be 2a 3d
       0.06187146 -0.021512471 0.07915232 0.04168526
0003f0 9a 48 84 bd 9b 8c 15 bd 1d e6 84 3d 07 c3 a1 3d
       -0.0645916 -0.036511045 0.06489203 0.07898527

feature_extractor.2.bias f4 [128]
000000 5b 7c 31 3d cf 5f 66 bd 53 97 93 bb 04 ec 90 bc
       0.043331485 -0.056243714 -0.0045041232 -0.017690666
000010 68 3e 98 bd 0b 41 98 3e 84 e4 01 3d 62 ea 2c 3d
       -0.07433778 0.29737124 0.03171207 0.042215712
000020 bd 26 30 bd a6 dc 31 3d 00 81 84 b9 2e 9f b6 bd
       -0.043005694 0.043423317 -0.00025273114 -0.0891708
000030 24 11 b8 bd 43 ab 20 bd e1 d9 08 3d 95 65 92 3d
       -0.08987644 -0.039225828 0.03341091 0.071482815
000040 16 11 a4 3c eb 5a 46 3e b1 b3 ae bd 47 c4 24 3e
       0.020027678 0.1937062 -0.08530367 0.16090499
000050 34 49 9b 3d 9d 12 14 bd 38 32 49 3c 98 50 4e bc
       0.07582322 -0.036150564 0.0122800395 -0.012592457
000060 58 ff ee bc 27 99 bf 3d bb a1 03 3e f8 06 83 bd
       -0.029174492 0.09355383 0.12854664 -0.063978136
000070 ca 04 65 3d dc 12 97 3d b5 c7 b4 3c 54 79 9e 3d
       0.05591277 0.07376644 0.022067884 0.07737985
000080 33 f6 3e 3d ec 55 b7 bc 08 a9 93 3d 5c c6 3c 3e
       0.046621513 -0.022379838 0.072099745 0.18435043
000090 9a 0e 88 bd f6 cf d0 bd 2d b3 dc 3d fa 42 9e bd
       -0.0664341 -0.101959154 0.107763626 -0.077276185
0000a0 78 c9 68 3c 3c 26 49 3e d1 fe 6f bd 90 be c7 3d
       0.01420819 0.19643492 -0.05859262 0.09753144
0000b0 c0 3e d2 3b a7 af 6e bd 30 09 c7 bd 7b 71 06 3e
       0.006416172 -0.058272984 -0.09718549 0.13129227
0000c0 bb ff 87 bd ad 64 bf bd 46 2c 53 bd ff aa 23 3e
       -0.066405736 -0.09345374 -0.051555894 0.15983199
0000d0 20 52 e6 bc d5 68 6f 3d 13 ac 09 3d 19 7c a9 3d
       -0.028115332 0.058449585 0.03361137 0.08275623
0000e0 d4 20 91 bc b4 6d 1b 3e 1d 15 5d 3c 2f b4 0b 3e
       -0.017715849 0.15178567 0.013493803 0.13642953
0000f0 22 7c 75 3c 4d a4 6f 3e d8 cb 98 bd 96 de c3 3d
       0.014983209 0.2340252 -0.07460755 0.09563939
000100 b5 71 02 3d 60 4d 67 3c 81 1d 53 bb 47 10 08 bd
       0.03184672 0.014117569 -0.003221363 -0.03321865
000110 04 75 85 3c e9 88 97 bd 10 00 0b 3d 14 02 aa 3d
       0.016291149 -0.073991604 0.033935606 0.083011776
000120 3a 4f 87 3e 64 46 29 3e d0 ae eb 3c ce bd 58 3d
       0.26427633 0.16530758 0.02876988 0.052915387
000130 87 c5 a7 bd ae 32 95 bd 2c 5b 1b bc 3a 2a d2 bc
       -0.08191972 -0.07285057 -0.009482186 -0.0256549
000140 e0 e8 05 3e 68 b2 0b bc 05 46 69 bc b2 50 0f 3e
       0.13077116 -0.008526422 -0.014237885 0.13995627
000150 dd 23 0e bd d2 96 80 bd 7d 5c 29 3e 4c f7 99 bc
       -0.03470217 -0.06278767 0.16539188 -0.018794678
000160 dd 4d 3a 3d 5b 54 0a 3e 4f a7 b0 3d 34 33 37 3e
       0.045484412 0.13508742 0.086256616 0.17890626
000170 0e 6f 4f 3d 71 55 67 bd 00 72 e0 3d cf a7 8e 3c
       0.05064302 -0.056477968 0.10959244 0.017414002
000180 72 24 ae bd 47 f9 ab 3d 90 a0 18 3d d2 45 6f 3e
       -0.08503045 0.08397155 0.0372625 0.23366478
000190 b6 a0 1f 3d 74 aa 3c 3e be bf 17 3e f9 65 46 3e
       0.038971625 0.18424398 0.14819238 0.19374837
0001a0 ad 4e 91 3d c8 18 d8 3d 44 7b 5a bd 17 c1 52 3e
       0.07095084 0.10551602 -0.05334021 0.2058147
0001b0 91 ff b1 bd c2 74 01 3e bf a1 67 3e cd 4b 53 3c
       -0.086913235 0.12642196 0.22620295 0.01289649
0001c0 c4 a6 33 3d 52 9e 6b 3e 0e dc 3f bd 71 15 66 3e
       0.043860212 0.23009613 -0.04684072 0.22469117
0001d0 58 b1 2a bd 39 e2 2a 3d c2 00 6b 3e d4 f1 55 bd
       -0.041673034 0.04171965 0.22949508 -0.05223258
0001e0 2e 1d d7 3c 3e 24 cc bc ce 14 c6 bd bc 5d 37 bd
       0.026259031 -0.024919625 -0.09671937 -0.044767126
0001f0 76 2f 7d 3e 8f 0b bc 3c 3d ce 57 3e 1e 2d 39 3e
       0.24725136 0.02295473 0.21074767 0.18083617

policy_mean.weight f4 [1, 128]
000000 16 a1 78 3d e0 73 6a 3c 54 c0 99 bd 2a a5 1f bd
       0.0607005 0.014309853 -0.07507387 -0.038975872
000010 4e 6e 05 bc c0 6a 94 bc 52 19 77 bd 63 5c 3b bc
       -0.0081439745 -0.018117309 -0.06032688 -0.011435601
000020 ed 2d 82 bd c0 6a cc 3a b2 66 30 3d 67 b8 9e bd
       -0.06356416 0.0015595779 0.043066688 -0.07750016
000030 ae 05 10 3c c8 44 9c bd 22 15 4d 3d e2 07 96 bd
       0.008790417 -0.076303065 0.050068982 -0.07325722
000040 3e ed da bc 6a 34 e2 3c fe 31 26 3d b6 f5 7e 3d
       -0.026724454 0.027612884 0.04057502 0.062246047
000050 b4 b2 20 bd 88 08 10 3c 25 30 b1 3d c3 63 85 3d
       -0.039232925 0.0087910965 0.08651761 0.06513169
000060 74 30 1f bd 45 17 9c bd 79 3c 7e 3c 4c 0e 9a 3d
       -0.038864568 -0.07621626 0.0155173475 0.07522258
000070 61 0b 4d 3c 45 b6 8e bd 50 29 fb 3c c1 a2 98 bd
       0.01251492 -0.06968359 0.030659348 -0.07452918
000080 43 13 8b 3d f8 90 c4 3c 95 46 59 bd 88 aa 30 3d
       0.06790783 0.023994908 -0.053045828 0.04313138
000090 dc 4f 52 bc 6e 99 0a 3c 85 d1 0e bd 5d f6 63 bd
       -0.012836423 0.008459432 -0.034867782 -0.055654872
0000a0 3a ba 7f 3d 80 f9 8a 3d 30 0d 7d bd a4 58 ae bd
       0.06243346 0.067858696 -0.061780155 -0.085130006
0000b0 f0 f8 f1 3c 52 0f 64 bb b9 7d 6f bd d5 7e 63 3d
       0.029537648 -0.003479917 -0.058469508 0.05554088
0000c0 53 dc b6 3c 30 2c 75 3d 03 6d 40 3c b3 d1 af bd
       0.022321856 0.059856594 0.01174474 -0.08584919
0000d0 f4 73 5f 3d 93 9d 10 bc 5a 9e 51 bc 04 5a 38 3d
       0.05455394 -0.008826631 -0.012794102 0.04500772
0000e0 79 14 ac 3d cd b9 f2 3c 16 86 4d 3d f4 22 97 bd
       0.08402342 0.029629612 0.050176702 -0.07379714
0000f0 0a da be bc 91 f0 5c 3b 86 52 5e 3d f9 21 4f 3c
       -0.023297329 0.0033712725 0.05427792 0.012642377
000100 d3 59 ae 3c 81 a4 9a bd 51 a7 c5 3c e4 fa a9 bd
       0.021283066 -0.07550908 0.024127634 -0.08299807
000110 7e c4 61 3d 5f 79 23 bb 86 a4 ae bd e8 74 52 bd
       0.05511903 -0.002494417 -0.08527474 -0.05138102
000120 22 18 c6 3b c9 46 0e bd ca c8 1c 3d 5d 3e 12 bd
       0.0060453573 -0.034735475 0.038277425 -0.035704006
000130 57 bb 8f 3c 80 0d a5 bb 5e 92 7a bd c3 04 c8 3d
       0.017545385 -0.0050370097 -0.061174743 0.09766533
000140 be ac 84 3c 43 f0 a9 3d b5 e3 bb 3c f3 83 4d bc
       0.016195651 0.082977794 0.022935728 -0.012543666
000150 b1 3e 89 3d 8b de 91 3d 68 9b a2 3c 3a 27 69 bd
       0.067014106 0.07122525 0.019849494 -0.056922175
000160 0e af a8 3d ac b6 9a 3d 7a 42 77 3d fe e5 82 bd
       0.08236514 0.07554373 0.06036613 -0.06391524
000170 d0 d2 ca bc 27 fa 3c bc a2 cf 6f 3d 1e 76 d3 bc
       -0.024758726 -0.01153425 0.058547623 -0.025813159
000180 5b be 8e 3d e1 49 7b bd fd 0b e5 bb 8d 9b a3 3b
       0.06969901 -0.061349753 -0.0069899545 0.0049929083
000190 22 22 87 bd 1b 4c 04 3d 56 f8 6d ba 2c ab b9 bd
       -0.06598307 0.032299142 -0.00090778375 -0.090658516
0001a0 49 d4 fd 3a e8 cf 1b bd 5a c2 94 3d 36 2e 81 bd
       0.0019365634 -0.03804007 0.07263632 -0.06307642
0001b0 46 79 13 3d 90 95 99 3c 05 e7 1d 3d 9e ce a0 bd
       0.036004327 0.018748075 0.038550396 -0.07851909
0001c0 25 7c 6a ba 1e 39 a9 bd 27 d3 af 3d ae 5e 13 3d
       -0.00089448906 -0.08262847 0.08585196 0.035978965
0001d0 88 9f 81 bd a1 1a 2c 3c b2 a0 10 3d c0 73 08 3b
       -0.06329256 0.010504396 0.0353095 0.0020820946
0001e0 f7 e8 b3 bd 49 f6 0e 3c 0e 01 93 bd 34 0c e5 3c
       -0.08784669 0.008725711 -0.071779355 0.02795992
0001f0 fb cf 1b bc 42 b1 27 bc 5e 46 fb 3c 5d 78 d1 bb
       -0.009510036 -0.010235133 0.030673202 -0.0063925222

value.weight f4 [1, 128]
000000 be 4e 25 3c 70 4a f8 bb e0 e4 02 3c 1c 07 07 3d
       0.010089574 -0.007577233 0.007989138 0.032965764
000010 2c e6 4a 3c 85 14 48 be ef 78 81 3d c3 fc 2e 3b
       0.012383979 -0.19539078 0.063218944 0.002670095
000020 e0 5a 28 bd 80 70 34 bd e0 0b b1 bd cc 88 91 3b
       -0.04110229 -0.0440526 -0.08644843 0.0044413563
000030 c7 7f c1 3c 20 5f 67 3b 8c db ba bd a3 23 51 be
       0.0236205 0.0035304502 -0.091239065 -0.2042375
000040 f6 92 12 3d 7f ef 75 be fc 12 32 bd be 8c 51 be
       0.035784684 -0.24017142 -0.043475136 -0.20463845
000050 e2 ca 1e 3d 11 10 b0 3d e4 0b 9a bd d4 cb f6 3c
       0.038767703 0.085968144 -0.07521799 0.03012649
000060 2e 42 31 3d de 96 0e be bf 99 64 be 2d 0b 19 3d
       0.043276004 -0.13924739 -0.22324274 0.037364174
000070 da d3 66 bd 3b 79 53 be 98 da a0 3d 57 00 80 be
       -0.05635438 -0.20651715 0.078541934 -0.2500026
000080 59 bd 38 3c 45 0d 84 3d 2c d9 6e 3d 96 be 09 be
       0.011275613 0.064478435 0.05831258 -0.13451609
000090 80 2d b5 3c 57 fa a5 3c 8e bf 25 be 2e 6c ad bd
       0.022116423 0.020260973 -0.16186354 -0.08467899
0000a0 44 75 db bc a7 f8 52 be 96 a4 51 bd 70 57 10 be
       -0.026789315 -0.20602666 -0.051182352 -0.14095855
0000b0 74 f7 81 3c b6 1b 43 bc 1d be 7f 3d 46 73 51 be
       0.015865065 -0.011908462 0.062437166 -0.2045413
0000c0 a3 c4 83 3d cd 56 a8 3d 7d ae 16 bd fd c9 d8 bd
       0.0643399 0.08219681 -0.0367875 -0.10585401
0000d0 79 16 56 bd 87 f4 67 bc 84 b8 25 3d 95 7d 09 be
       -0.052267525 -0.014157421 0.04045917 -0.13426812
0000e0 69 d8 8b 3d ff ed c7 be 67 60 1e 3d 3e cd 10 be
       0.06828386 -0.39048764 0.038666155 -0.14140794
0000f0 92 02 9c 3d cb a3 1d be a2 4d 5a bd 1b 75 39 be
       0.07617678 -0.15394513 -0.053296693 -0.18111078
000100 97 85 56 3d 8b 77 9d 3d 47 89 94 3c ad ab e2 3c
       0.052373495 0.07688817 0.018131865 0.027669752
000110 35 3b b4 bd d3 0c 42 3b 59 ca 9d 3d 03 ef 27 be
       -0.08800355 0.0029609695 0.077046104 -0.1639977
000120 c9 7f 41 be cc 20 e3 bd 66 e6 2d 3d d3 d1 a2 bd
       -0.18896402 -0.1109024 0.042456053 -0.07950177
000130 98 c8 72 3d c2 74 58 3d 7b a3 13 3d 6c 35 ed 3b
       0.059273332 0.052845724 0.03604458 0.0072390344
000140 31 82 35 be 1a 95 4b 3d 0b 68 da 3c aa 81 04 be
       -0.17725445 0.04970274 0.02666094 -0.12940088
000150 57 68 79 3d 14 a7 9a 3c d3 c5 13 be 48 d7 75 3c
       0.06089052 0.018878497 -0.14430933 0.01500494
000160 d8 4c e7 3b 1c 26 2e be 66 af 70 3d 99 a8 2c be
       0.007058721 -0.17006725 0.058761023 -0.1686119
000170 18 22 e0 3c 79 5b 81 3d dd 06 63 be fe 5e 9e 3d
       0.027360007 0.06316275 -0.22170587 0.07732962
000180 a0 b6 56 bd d2 fb 8e bd e3 e1 86 3d 81 7c 44 be
       -0.05242026 -0.06981625 0.06586053 -0.1918812
000190 9c f8 84 3c d8 03 53 be d0 2a 84 be 55 c1 51 be
       0.016231827 -0.20606935 -0.25813913 -0.20483907
0001a0 5b 1c 40 be 87 24 33 be 69 f7 48 3d 68 76 3d be
       -0.18760817 -0.17494403 0.049064074 -0.185022
0001b0 8e 42 7a 3d 03 ae 7a be 65 5d b1 be 86 c4 41 bd
       0.061098628 -0.24480443 -0.34641567 -0.04730656
0001c0 1e ee 31 3d ad 7c cd be 0e 6b 68 3d 09 d5 28 be
       0.043439977 -0.40134183 0.05674272 -0.16487516
0001d0 37 fb 9e bd eb f8 95 3c cc 25 21 be 2d 30 92 3d
       -0.07762759 0.01830717 -0.15737075 0.07138095
0001e0 b9 1b b4 bd 8d 00 0f 3d e1 c3 01 3c d3 1d a7 3d
       -0.0879435 0.034912635 0.007920236 0.081599854
0001f0 69 39 d4 be b4 51 8a 3c a8 a0 35 be 4c ee 6a be
       -0.4145005 0.016884662 -0.17737067 -0.22942466

exp_avg f4 [128, 5]
000000 e6 12 7d 38 04 f6 9e b9 b6 5e 30 39 78 19 c5 b9
       6.03375e-05 -0.00030319404 0.0001681995 -0.00037593744
000010 91 e4 15 39 00 00 00 00 00 00 00 00 00 00 00 00
       0.00014294895 0.0 0.0 0.0
000020 00 00 00 00 00 00 00 00 00 00 00 00 00 00 00 00
       0.0 0.0 0.0 0.0
000030 00 00 00 00 00 00 00 00 00 00 00 00 ab 7e 99 38
       0.0 0.0 0.0 7.319202e-05
000040 8d 98 0c ba 8b f6 0d b9 e4 4d 54 ba 39 ce 01 39
       -0.0005363308 -0.00013538652 -0.0008098765 0.00012379223
000050 36 ee 57 3a d6 5e 22 3b be e1 f1 3c 18 27 21 3c
       0.00082370953 0.0024775765 0.029526588 0.009835981
000060 e1 ab 50 3b d5 f2 82 bb 24 1a 32 bc 66 53 c7 bc
       0.003184073 -0.003996233 -0.01087049 -0.02433176
000070 bf 29 03 bd d3 ba ab bb 00 00 00 00 00 00 00 00
       -0.032022234 -0.005240777 0.0 0.0
000080 00 00 00 00 00 00 00 00 00 00 00 00 00 00 00 00
       0.0 0.0 0.0 0.0
000090 00 00 00 00 00 00 00 00 00 00 00 00 00 00 00 00
       0.0 0.0 0.0 0.0
0000a0 33 1d 1e ba 87 07 00 3a 9b a6 38 3b 33 17 17 3a
       -0.00060315727 0.0004883934 0.0028175476 0.000576365
0000b0 f7 8a e8 3a 23 ea a5 b7 b1 08 ba 3a 5e 17 51 3a
       0.001774161 -1.9778561e-05 0.0014193264 0.0007976199
0000c0 cd 15 24 3b 45 c8 a5 b9 a7 5d 6e 37 dd 77 1d 3a
       0.0025037408 -0.00031620465 1.4207711e-05 0.0006006936
0000d0 1f 89 f3 39 42 05 90 3a 0b a4 e3 b8 73 fc 9d 38
       0.00046450735 0.0010987895 -0.00010854759 7.533366e-05
0000e0 a3 0b 0f b9 29 34 69 39 ed 31 96 b8 2d b8 87 38
       -0.00013641878 0.00022240043 -7.161857e-05 6.471607e-05
0000f0 00 00 00 00 00 00 00 00 00 00 00 00 00 00 00 00
       0.0 0.0 0.0 0.0
000100 00 00 00 00 aa 01 f7 36 3f 26 c2 38 f0 30 95 39
       0.0 7.3613674e-06 9.257765e-05 0.00028455956
000110 cd 74 83 39 c3 19 99 38 9a d4 10 bb 68 7e d8 bb
       0.0002507329 7.300407e-05 -0.0022099377 -0.0066068657
000120 a9 18 2e bb 78 bc a1 bc ed c9 3e ba 00 64 3d b8
       -0.0026564992 -0.01974319 -0.0007278014 -4.5154244e-05
000130 0b bb 21 3a 1d 0b 70 39 fa 87 83 3a 87 8d fb b8
       0.0006169534 0.00022892324 0.0010035031 -0.00011994974
000140 00 00 00 00 00 00 00 00 00 00 00 00 00 00 00 00
       0.0 0.0 0.0 0.0
000150 00 00 00 00 2b 6e 12 39 03 86 9a ba fe d6 31 b9
       0.0 0.00013964686 -0.0011789206 -0.00016960126
000160 ab 50 ec ba 6b 99 a3 39 00 00 00 00 00 00 00 00
       -0.0018029412 0.00031204088 0.0 0.0
000170 00 00 00 00 00 00 00 00 00 00 00 00 ad cd 90 38
       0.0 0.0 0.0 6.904765e-05
000180 dc ce d4 b9 98 75 51 39 e9 a8 05 ba 00 01 4a 39
       -0.00040589913 0.000199756 -0.0005098717 0.00019264594
000190 07 a1 13 b9 c4 d0 d1 3a b9 e3 15 3b cd 4a 30 3b
       -0.00014079 0.0016007652 0.002287133 0.0026900053
0001a0 e7 62 82 b9 3f e0 f3 38 86 d7 08 bb 63 8b 3f ba
       -0.0002486922 0.00011628912 -0.0020880415 -0.0007306842
0001b0 ac e8 5f bb d3 11 14 3a ad df 36 37 7d 4f 69 39
       -0.0034165783 0.0005648408 1.0900124e-05 0.00022250223
0001c0 6d 47 2b 39 d6 83 d3 39 30 5f 38 b8 ae 88 39 31
       0.00016334439 0.00040343282 -4.395767e-05 2.6998737e-09
0001d0 db 68 01 32 00 00 00 00 d7 ea e7 32 00 00 00 00
       7.53263e-09 0.0 2.6998732e-08 0.0
0001e0 72 3e 06 b9 9f 52 15 3b 60 05 81 3a a6 0d 7a 3b
       -0.00012802499 0.0022784842 0.0009843521 0.0038155108
0001f0 9f 53 03 ba 00 00 00 00 00 00 00 00 00 00 00 00
       -0.0005009714 0.0 0.0 0.0
000200 00 00 00 00 00 00 00 00 a4 10 d2 b8 c1 75 11 3a
       0.0 0.0 -0.0001001668 0.0005548858
000210 a9 51 05 23 b1 16 ca 3a 00 00 00 00 df fa e4 39
       7.227237e-18 0.001541814 0.0 0.00043674462
000220 d4 b0 40 38 c4 fd f4 b9 67 14 79 b9 3d da a7 b9
       4.594105e-05 -0.00046728377 -0.00023754091 -0.00032015322
000230 b3 8e 44 38 ba 97 22 39 cf 3d a3 39 57 fc c0 39
       4.686294e-05 0.00015506046 0.00031135834 0.00036809102
000240 cb 44 89 b6 28 88 b2 ba 77 8a fe ba 1a 06 64 bc
       -4.0909267e-06 -0.00136209 -0.0019419928 -0.01391747
000250 8e 58 00 bc 99 d5 43 bb a5 a9 a7 38 d1 eb 4b ba
       -0.007833613 -0.0029881953 7.994779e-05 -0.0007778975
000260 46 c1 3d b9 ff 41 9d ba 0f 32 5e 39 04 cf 36 b8
       -0.00018096445 -0.0011997818 0.00021190218 -4.358498e-05
000270 42 3e 95 3a 71 90 0e 3a 04 7b fe 3a 08 90 83 b9
       0.0011386352 0.00054383936 0.0019415324 -0.0002509358
000280 c9 8b 59 b8 1d 26 a4 3a 5d 14 31 3a 43 31 0e 3b
       -5.1867017e-05 0.0012523566 0.00067550485 0.0021696843
000290 07 a6 7c b9 00 00 00 00 00 00 00 00 00 00 00 00
       -0.00024094443 0.0 0.0 0.0
0002a0 00 00 00 00 00 00 00 00 00 00 00 00 00 00 00 00
       0.0 0.0 0.0 0.0
0002b0 00 00 00 00 00 00 00 00 00 00 00 00 e3 7e 9a 38
       0.0 0.0 0.0 7.366927e-05
0002c0 25 f3 30 bb 2e 59 83 ba 92 ff 92 bb 75 76 52 3a
       -0.0027000394 -0.0010021084 -0.0044860328 0.0008028516
0002d0 13 f7 84 12 e1 4d fe 12 8d 72 47 13 13 f7 84 13
       8.39128e-28 1.6048852e-27 2.517381e-27 3.356512e-27
0002e0 00 00 00 00 31 08 95 10 85 f1 80 11 12 0b 3d 12
       0.0 5.878276e-29 2.0343687e-28 5.965153e-28
0002f0 31 08 15 12 31 08 15 11 1a c3 31 b8 4f e7 0d 3a
       4.7026207e-28 1.1756552e-28 -4.238179e-05 0.0005413191
000300 4a d2 c3 39 86 99 75 3a 91 0a 32 b8 00 00 00 00
       0.00037349976 0.0009368885 -4.2448348e-05 0.0
000310 00 00 00 00 00 00 00 00 00 00 00 00 00 00 00 00
       0.0 0.0 0.0 0.0
000320 66 b0 9d 39 b1 21 b3 ba 12 24 ad bb 03 3a c0 bb
       0.000300768 -0.0013666657 -0.005283841 -0.0058662905
000330 98 a6 27 ba 00 00 00 00 00 00 00 00 00 00 00 00
       -0.0006395369 0.0 0.0 0.0
000340 00 00 00 00 00 00 00 00 d0 f4 f4 37 90 09 2b 3a
       0.0 0.0 2.9201066e-05 0.0006524557
000350 dd 7a 72 39 a7 19 92 3a 6c b4 7d b9 fd d2 31 ba
       0.00023124689 0.0011146561 -0.00024195173 -0.0006783454
000360 88 52 24 3a 6e 38 20 bb cf e6 cd ba 96 37 86 ba
       0.00062684016 -0.0024447697 -0.0015709045 -0.0010239955
000370 00 00 00 00 00 00 00 00 00 00 00 00 00 00 00 00
       0.0 0.0 0.0 0.0
000380 00 00 00 00 04 96 ec ba 0e df 89 bb 60 27 aa 3a
       0.0 -0.0018050079 -0.0042074984 0.0012981705
000390 78 32 51 bc 49 46 01 ba f7 73 ca 3b e7 b3 db 3c
       -0.01276838 -0.0004931433 0.006178375 0.026819183
0003a0 23 c9 4b 3d 9f 74 96 3d 0a 33 10 3b 00 00 00 00
       0.049752366 0.073464625 0.0022003078 0.0
0003b0 00 00 00 00 00 00 00 00 00 00 00 00 00 00 00 00
       0.0 0.0 0.0 0.0
0003c0 70 45 bf 38 81 fd b8 ba f8 37 f9 b9 fe fe 16 bb
       9.1205235e-05 -0.0014113636 -0.0004753468 -0.002304017
0003d0 07 b4 c3 39 d2 68 b5 3a 45 d4 8d 3b 7a ec ae 3b
       0.0003732743 0.0013840443 0.004328283 0.005338249
0003e0 87 b0 15 3b 5a 5f 8c ba f0 1b f4 36 7e a7 40 3a
       0.0022840814 -0.0010709569 7.275019e-06 0.0007349177
0003f0 7b f5 f6 39 b8 ab ac 3a a3 89 2f b9 dd 94 1c b9
       0.00047103674 0.0013173735 -0.00016740574 -0.00014932775

exp_avg_sq f4 [128, 5]
000000 a5 fb b5 34 37 78 94 36 e9 39 2a 37 82 82 aa 37
       3.3896973e-07 4.4247386e-06 1.0146273e-05 2.0326352e-05
000010 b9 a8 dd 33 00 00 00 00 00 00 00 00 00 00 00 00
       1.0321805e-07 0.0 0.0 0.0
000020 00 00 00 00 00 00 00 00 00 00 00 00 00 00 00 00
       0.0 0.0 0.0 0.0
000030 00 00 00 00 00 00 00 00 00 00 00 00 da e7 fa 34
       0.0 0.0 0.0 4.6734823e-07
000040 45 ee ce 36 92 86 71 37 19 5d f0 37 79 15 1d 34
       6.1670166e-06 1.43960515e-05 2.8653581e-05 1.4629576e-07
000050 cb d4 16 37 5e 46 ef 38 f1 b1 ec 39 36 3c 12 3a
       8.990241e-06 0.00011409515 0.00045146004 0.000557843
000060 fb 40 84 36 4b ea d5 37 f7 3f 95 39 37 06 5d 3a
       3.9414713e-06 2.550068e-05 0.00028467152 0.0008431407
000070 bf fd ed 3a c5 07 2d 37 00 00 00 00 00 00 00 00
       0.0018157287 1.03134125e-05 0.0 0.0
000080 00 00 00 00 00 00 00 00 00 00 00 00 00 00 00 00
       0.0 0.0 0.0 0.0
000090 00 00 00 00 00 00 00 00 00 00 00 00 00 00 00 00
       0.0 0.0 0.0 0.0
0000a0 97 0b 3d 36 3a 3f f9 37 47 e4 1c 39 86 46 06 39
       2.816994e-06 2.9712555e-05 0.0001496236 0.00012805508
0000b0 16 a6 30 36 0d 97 27 36 42 79 16 38 e8 80 aa 38
       2.6322718e-06 2.4972862e-06 3.5875717e-05 8.130242e-05
0000c0 e5 8a 26 39 14 bb 5c 35 c3 1a 1d 35 2a 4b 1c 37
       0.00015882736 8.222862e-07 5.8526e-07 9.315825e-06
0000d0 91 47 77 37 8f fa ef 37 87 f7 3f 34 87 fa 10 34
       1.473901e-05 2.8607696e-05 1.7878311e-07 1.3502186e-07
0000e0 f0 81 f2 35 c0 a9 95 36 46 32 0e 37 a4 d0 52 33
       1.8068222e-06 4.4603075e-06 8.475565e-06 4.9084193e-08
0000f0 00 00 00 00 00 00 00 00 00 00 00 00 00 00 00 00
       0.0 0.0 0.0 0.0
000100 00 00 00 00 89 d4 5a 34 be 6e 67 36 6e d1 40 36
       0.0 2.0380152e-07 3.4486143e-06 2.8732134e-06
000110 36 3c ca 36 2f 16 42 33 65 e3 2c 37 4b 28 f3 38
       6.0270786e-06 4.518932e-08 1.0304943e-05 0.00011594648
000120 fd a0 03 3a 50 22 32 3a a9 df ac 36 9d a8 d7 34
       0.00050212425 0.0006795274 5.152037e-06 4.0169553e-07
000130 39 ed c2 36 7f 28 55 37 47 fb d3 37 7b c8 09 34
       5.809267e-06 1.2705218e-05 2.527017e-05 1.2832054e-07
000140 00 00 00 00 00 00 00 00 00 00 00 00 00 00 00 00
       0.0 0.0 0.0 0.0
000150 00 00 00 00 60 7d f8 35 8d 7e cd 37 7a 8e 90 38
       0.0 1.8513929e-06 2.4496834e-05 6.8929934e-05
000160 6d e5 0e 39 97 aa 2a 35 00 00 00 00 00 00 00 00
       0.00013627643 6.3578176e-07 0.0 0.0
000170 00 00 00 00 00 00 00 00 00 00 00 00 64 99 db 34
       0.0 0.0 0.0 4.0903535e-07
000180 fd 13 ae 36 0e 93 6a 37 99 c7 ea 37 02 3e 0e 34
       5.187931e-06 1.3981726e-05 2.7987919e-05 1.3247339e-07
000190 d8 d5 55 35 1e cc 4d 37 9c d7 97 38 87 3c 90 38
       7.9659867e-07 1.2266477e-05 7.2404015e-05 6.877729e-05
0001a0 e7 73 ad 35 34 04 a0 36 18 2f 83 38 07 0a 39 39
       1.2923236e-06 4.768861e-06 6.255339e-05 0.0001764671
0001b0 c3 d6 b6 39 0e 7f dd 35 9b 8d a4 34 91 f4 ac 36
       0.00034873755 1.6502761e-06 3.0650412e-07 5.1544707e-06
0001c0 c7 89 c8 36 5b 09 3a 37 c8 39 c3 33 c0 d2 19 33
       5.976504e-06 1.1088642e-05 9.0909055e-08 3.5814764e-08
0001d0 91 a8 1a 35 00 00 00 00 58 59 70 36 00 00 00 00
       5.7614767e-07 0.0 3.5814792e-06 0.0
0001e0 fd b7 b2 36 71 ca 99 38 47 d0 4b 39 22 73 c8 39
       5.3262324e-06 7.333316e-05 0.00019437178 0.00038232753
0001f0 e2 db f8 35 00 00 00 00 00 00 00 00 00 00 00 00
       1.8541434e-06 0.0 0.0 0.0
000200 00 00 00 00 00 00 00 00 e3 f2 dc 33 24 7c 26 36
       0.0 0.0 1.0288729e-07 2.4808187e-06
000210 24 a4 b8 34 6c a5 30 37 00 00 00 00 01 43 af 35
       3.43921e-07 1.0528933e-05 0.0 1.3058017e-06
000220 f1 71 6b 37 0a 89 9d 38 6a 0b 8f 38 61 bb b2 35
       1.4033621e-05 7.511869e-05 6.8208974e-05 1.3316568e-06
000230 e8 51 91 33 ac d3 8f 35 d7 41 99 35 8c ab 17 36
       6.766987e-08 1.0715935e-06 1.141855e-06 2.2600607e-06
000240 bb 46 9c 32 e7 73 00 37 d0 29 da 38 3c 75 90 39
       1.8192955e-08 7.65638e-06 0.00010402838 0.00027553167
000250 c9 3c 0f 3a d0 df 73 36 54 78 57 35 ed 2c 2e 37
       0.0005464075 3.6340098e-06 8.026884e-07 1.0381668e-05
000260 9f 67 f0 37 ce be 6d 38 5d b4 92 34 92 8f b3 35
       2.8658482e-05 5.6682904e-05 2.732585e-07 1.3378324e-06
000270 4f 87 99 37 29 75 40 38 ff d8 be 38 39 7a ed 34
       1.830203e-05 4.588548e-05 9.100325e-05 4.423362e-07
000280 a4 42 0c 36 d3 5c 00 38 5b 0b 8a 38 a3 35 08 39
       2.0900416e-06 3.0604027e-05 6.582468e-05 0.00012989952
000290 4c 7e 32 35 00 00 00 00 00 00 00 00 00 00 00 00
       6.6493953e-07 0.0 0.0 0.0
0002a0 00 00 00 00 00 00 00 00 00 00 00 00 00 00 00 00
       0.0 0.0 0.0 0.0
0002b0 00 00 00 00 00 00 00 00 00 00 00 00 52 13 ee 36
       0.0 0.0 0.0 7.095202e-06
0002c0 1b 3e c6 38 09 5f 8d 39 47 49 0b 3a 2f ea 2a 36
       9.452944e-05 0.00026964422 0.00053133484 2.5468287e-06
0002d0 af e9 1a 2f b3 45 12 30 e3 46 ae 30 af e9 1a 31
       1.408924e-10 5.321354e-10 1.2680313e-09 2.2542783e-09
0002e0 00 00 00 00 20 96 e6 2c a0 48 bf 2e 1f e6 61 30
       0.0 6.5536604e-12 8.698575e-11 8.2181545e-10
0002f0 20 96 e6 2f 20 96 e6 2d 06 06 08 35 6d 55 06 37
       4.1943427e-10 2.6214642e-11 5.0672713e-07 8.006912e-06
000300 c1 b6 68 37 7f d9 e2 37 d4 aa 25 34 00 00 00 00
       1.3870828e-05 2.7042579e-05 1.542897e-07 0.0
000310 00 00 00 00 00 00 00 00 00 00 00 00 00 00 00 00
       0.0 0.0 0.0 0.0
000320 61 f0 68 36 d7 d2 1a 38 b3 ab 5f 39 c9 80 59 39
       3.4710613e-06 3.691282e-05 0.000213309 0.00020742709
000330 e0 9b 5a 36 00 00 00 00 00 00 00 00 00 00 00 00
       3.2575263e-06 0.0 0.0 0.0
000340 00 00 00 00 00 00 00 00 d6 07 38 35 94 6f 29 37
       0.0 0.0 6.8556744e-07 1.0099164e-05
000350 a1 4f a9 37 65 a6 21 38 ea 60 81 34 90 da 67 37
       2.018345e-05 3.854036e-05 2.4098637e-07 1.3819561e-05
000360 b1 88 29 39 63 f0 0c 3a 85 a3 83 3a 71 a8 cc 36
       0.00016168017 0.00053763966 0.001004324 6.099283e-06
000370 00 00 00 00 00 00 00 00 00 00 00 00 00 00 00 00
       0.0 0.0 0.0 0.0
000380 00 00 00 00 7d 49 b6 36 1c 6a 83 38 20 84 71 39
       0.0 5.432578e-06 6.266331e-05 0.00023032771
000390 ee 20 c1 39 6e 26 12 36 af 0e ec 37 d4 6a c1 39
       0.00036836363 2.1778064e-06 2.814023e-05 0.00036891422
0003a0 cb a3 7a 3a 19 5a ff 3a 8e a7 1f 37 00 00 00 00
       0.000956115 0.0019481807 9.51615e-06 0.0
0003b0 00 00 00 00 00 00 00 00 00 00 00 00 00 00 00 00
       0.0 0.0 0.0 0.0
0003c0 2a 18 10 36 79 0a eb 37 08 f8 a4 38 b6 8f 23 39
       2.1471737e-06 2.801906e-05 7.866329e-05 0.00015598428
0003d0 e8 32 44 35 c4 58 67 37 ba 6a 15 39 8a 58 49 3a
       7.308977e-07 1.378934e-05 0.00014249506 0.0007680735
0003e0 bb a2 5d 3a d9 a6 1e 37 e8 50 83 35 66 9a 72 37
       0.00084547297 9.456381e-06 9.783807e-07 1.4460273e-05
0003f0 2d 01 f4 37 dd c1 6d 38 e0 f3 a4 34 96 5e 41 37
       2.9087614e-05 5.6685752e-05 3.0724823e-07 1.1525719e-05

exp_avg f4 [128]
000000 7a 8f 1a 3a 00 00 00 00 00 00 00 00 da c6 2b 3a
       0.00058960135 0.0 0.0 0.00065527635
000010 31 16 fa ba 6a e1 48 bc 00 00 00 00 00 00 00 00
       -0.00190801 -0.012260774 0.0 0.0
000020 18 27 9e ba d9 57 9c ba 96 6b c3 b9 55 5e df 39
       -0.0012066094 -0.0011928036 -0.00037273456 0.00042604157
000030 00 00 00 00 f1 e0 06 39 be 2d f3 bb 5b 4d 24 ba
       0.0 0.00012863033 -0.0074212244 -0.00062676304
000040 00 00 00 00 14 27 c1 3a 00 00 00 00 5c b2 41 3a
       0.0 0.0014736378 0.0 0.00073889433
000050 08 a1 93 b9 12 c4 0f 3b d1 72 14 b9 ae 88 b9 31
       -0.00028158003 0.0021936935 -0.00014157152 5.3997473e-09
000060 d0 ba 10 bb 00 00 00 00 a3 10 52 b9 79 8c 09 ba
       -0.0022084005 0.0 -0.00020033358 -0.00052470673
000070 3b a6 be 38 7b 1d a3 bb c2 1d 75 3a 79 d2 88 ba
       9.090869e-05 -0.0049778796 0.00093504426 -0.0010438702
000080 a6 ea 8f ba 00 00 00 00 00 00 00 00 a3 49 32 3b
       -0.0010979965 0.0 0.0 0.0027204535
000090 13 f7 84 12 31 08 15 11 38 52 e2 b9 00 00 00 00
       8.39128e-28 1.1756552e-28 -0.00043167337 0.0
0000a0 b6 12 fa ba 00 00 00 00 2b 26 21 ba 1d 45 92 bb
       -0.0019079063 0.0 -0.000614735 -0.0044638054
0000b0 00 00 00 00 87 a1 b9 bb 87 4b f2 3b 00 00 00 00
       0.0 -0.0056650075 0.0073942575 0.0
0000c0 e3 35 c4 3a 0f 70 a8 ba df 77 14 ba d3 7e 4c bb
       0.0014969673 -0.0012850779 -0.0005663614 -0.0031203523
0000d0 6d f3 19 ba 1f 78 ed 38 00 00 00 00 00 00 00 00
       -0.000587276 0.00011323415 0.0 0.0
0000e0 00 00 00 00 d4 24 6f ba 00 00 00 00 c7 3f d5 b9
       0.0 -0.0009122614 0.0 -0.00040674044
0000f0 00 00 00 00 0a 14 a7 ba 50 12 04 bc 21 43 fb bb
       0.0 -0.0012747061 -0.008061007 -0.0076679145
000100 00 00 00 00 21 32 59 39 1c 01 ca ba 20 b4 03 b9
       0.0 0.00020713407 -0.0015411708 -0.00012560235
000110 0c a0 cc 3b d9 8b 80 bb 17 c6 8d 3a e0 90 8e b9
       0.006244665 -0.003922921 0.0010816482 -0.0002719229
000120 00 00 00 00 48 5f 9f 3a 9e 31 db 3a f6 c8 5e bb
       0.0 0.0012159133 0.0016723161 -0.0033994294
000130 00 00 00 00 55 fd 9e 39 00 00 00 00 00 00 00 00
       0.0 0.00030324855 0.0 0.0
000140 3b 73 53 bb 0d 74 11 3b ce 41 84 bb cf 21 01 11
       -0.0032264728 0.0022194416 -0.004036165 1.0186724e-28
000150 aa 73 cb b9 00 00 00 00 00 00 00 00 f4 29 cc ba
       -0.00038805354 0.0 0.0 -0.0015576468
000160 97 c4 97 3a 00 00 00 00 be d0 b8 ba c8 3d 19 13
       0.0011578974 0.0 -0.0014100296 1.9341775e-27
000170 a5 15 0b bb 46 93 06 39 00 00 00 00 00 00 00 00
       -0.0021222618 0.000128341 0.0 0.0
000180 00 00 00 00 00 00 00 00 da 91 5e ba 00 00 00 00
       0.0 0.0 -0.00084903615 0.0
000190 00 00 00 00 df e0 94 ba 00 00 00 00 00 00 00 00
       0.0 -0.0011358521 0.0 0.0
0001a0 00 00 00 00 00 00 00 00 86 2e 76 b7 00 00 00 00
       0.0 0.0 -1.4673575e-05 0.0
0001b0 4f a1 b9 ba 00 00 00 00 f1 6f 62 38 00 00 00 00
       -0.0014162454 0.0 5.3986852e-05 0.0
0001c0 c8 71 e4 39 10 d9 34 bb 00 00 00 00 b9 43 86 ba
       0.00043572322 -0.00275952 0.0 -0.0010243572
0001d0 c3 6b 57 bb 86 0f 35 ba 24 d1 95 3b 60 83 1c 38
       -0.0032870627 -0.0006906915 0.0045720506 3.731565e-05
0001e0 a4 1f eb 39 f0 29 1f b9 00 00 00 00 5f cf 35 37
       0.00044846267 -0.00015179045 0.0 1.0836723e-05
0001f0 23 93 d2 b8 c5 2c 8d 3a 00 00 00 00 00 00 00 00
       -0.00010040987 0.0010770789 0.0 0.0

exp_avg_sq f4 [128]
000000 50 dc 8b 35 00 00 00 00 00 00 00 00 36 3c c2 35
       1.0420426e-06 0.0 0.0 1.447165e-06
000010 98 17 f6 37 04 95 bd 38 00 00 00 00 00 00 00 00
       2.9336472e-05 9.0399786e-05 0.0 0.0
000020 90 23 de 36 ca d0 00 37 5b e8 c0 35 93 b4 e2 34
       6.6202556e-06 7.678007e-06 1.4372739e-06 4.2227165e-07
000030 00 00 00 00 b7 ff c0 34 d0 c9 0f 38 95 e0 a3 35
       0.0 3.5948844e-07 3.428181e-05 1.2209808e-06
000040 00 00 00 00 7c 30 da 36 00 00 00 00 84 d6 ba 35
       0.0 6.5025506e-06 0.0 1.3920512e-06
000050 d9 d5 55 36 3d 18 8c 37 0c 5e 21 35 c0 d2 19 34
       3.186395e-06 1.6700587e-05 6.011403e-07 1.4325906e-07
000060 8f d9 97 37 00 00 00 00 e3 f2 dc 34 d0 04 61 36
       1.8101911e-05 0.0 4.1154917e-07 3.3530414e-06
000070 a2 8f 0c 34 bd 27 d7 37 38 34 39 36 53 b4 92 36
       1.309077e-07 2.5648502e-05 2.7597544e-06 4.3721316e-06
000080 60 32 d3 36 00 00 00 00 00 00 00 00 df ef d2 37
       6.2941544e-06 0.0 0.0 2.514565e-05
000090 af e9 1a 2f 20 96 e6 2d e5 a4 b2 35 00 00 00 00
       1.408924e-10 2.6214642e-11 1.3310024e-06 0.0
0000a0 94 02 28 37 00 00 00 00 cc 3c ff 35 30 3f 48 38
       1.0014181e-05 0.0 1.9016675e-06 4.7742564e-05
0000b0 00 00 00 00 9e 73 9f 37 47 c9 c1 38 00 00 00 00
       0.0 1.9008115e-05 9.240448e-05 0.0
0000c0 4d a1 fb 36 91 28 2c 38 75 8f 3b 36 34 62 20 38
       7.499161e-06 4.1045776e-05 2.7948674e-06 3.823843e-05
0000d0 29 66 f4 35 1d 27 17 34 00 00 00 00 00 00 00 00
       1.8209149e-06 1.40772e-07 0.0 0.0
0000e0 00 00 00 00 68 28 22 36 00 00 00 00 b8 00 c0 35
       0.0 2.41634e-06 0.0 1.4305324e-06
0000f0 00 00 00 00 1d 25 f3 36 eb 1d 4b 38 50 af 16 39
       0.0 7.246285e-06 4.8426835e-05 0.00014370424
000100 00 00 00 00 19 14 02 35 f0 ef 3c 37 41 ea 3b 38
       0.0 4.845802e-07 1.1261538e-05 4.480244e-05
000110 93 61 15 38 d3 64 d8 37 b5 15 47 36 c2 20 0d 35
       3.561524e-05 2.5796156e-05 2.9665946e-06 5.257426e-07
000120 00 00 00 00 4a 70 38 37 21 2c 97 37 41 31 15 37
       0.0 1.0993399e-05 1.8021152e-05 8.89256e-06
000130 00 00 00 00 cc 27 46 35 00 00 00 00 00 00 00 00
       0.0 7.381866e-07 0.0 0.0
000140 d8 9c 8e 36 33 6d 90 37 e3 b0 df 38 00 10 4d 2d
       4.250189e-06 1.7216988e-05 0.00010666416 1.1656454e-11
000150 14 2d 9f 35 00 00 00 00 00 00 00 00 77 04 b5 36
       1.1859543e-06 0.0 0.0 5.39474e-06
000160 c1 e1 8e 36 00 00 00 00 9a 33 e2 36 15 87 a6 2d
       4.258211e-06 0.0 6.741332e-06 1.8932004e-11
000170 15 ee 6a 37 7d b8 83 34 00 00 00 00 00 00 00 00
       1.400292e-05 2.4534884e-07 0.0 0.0
000180 00 00 00 00 00 00 00 00 c3 f2 42 36 00 00 00 00
       0.0 0.0 2.9049559e-06 0.0
000190 00 00 00 00 99 a0 cb 36 00 00 00 00 00 00 00 00
       0.0 6.0685675e-06 0.0 0.0
0001a0 00 00 00 00 00 00 00 00 20 b1 15 36 00 00 00 00
       0.0 0.0 2.230583e-06 0.0
0001b0 65 67 9a 36 00 00 00 00 b4 33 c6 34 00 00 00 00
       4.6015944e-06 0.0 3.6917993e-07 0.0
0001c0 57 08 cc 36 49 e4 e1 37 00 00 00 00 8d ef 78 36
       6.0806447e-06 2.6928394e-05 0.0 3.7094317e-06
0001d0 05 95 56 37 60 0c 61 36 f6 a3 26 37 ce 64 16 35
       1.279009e-05 3.3534816e-06 9.932546e-06 5.6026045e-07
0001e0 b3 ce 41 35 fb e7 1c 35 00 00 00 00 07 cd e7 33
       7.219889e-07 5.8452105e-07 0.0 1.079407e-07
0001f0 05 d7 d0 34 ce 68 75 36 00 00 00 00 00 00 00 00
       3.8899466e-07 3.656885e-06 0.0 0.0
